12_labels_92.pth (torch, 565316 bytes, 20 tensors)

weight f4 [64, 48, 3]
0	0xbdd99a55	-0.106251396
1	0xbcd01dc8	-0.025404826
2	0xbd2e0195	-0.042481977
3	0xbe26a996	-0.1627563
4	0xbe161b92	-0.14658955
5	0xbde689c8	-0.112567484
6	0x3aff0805	0.0019457346
7	0xbd411cc9	-0.047146592
8	0xbd3cbae9	-0.04607669
9	0x3d74faa6	0.05980935
10	0x3d0ee899	0.03488979
11	0x3d345674	0.04402776
12	0x3d8bf67a	0.06834121
13	0x3d8e93c1	0.069617756
14	0x3d3237f5	0.043510396
15	0x3da0f2cb	0.07858809
16	0x3e165f96	0.146849
17	0x3e09611b	0.13415949
18	0xbbd760bb	-0.0065728105
19	0x3c0f6b51	0.008753614
20	0x3dc64c3c	0.09682509
21	0x3d800e45	0.06252722
22	0x3d2a31e5	0.04155149
23	0x3ddc259a	0.107493594
24	0xbda8c344	-0.08240369
25	0xbde145ba	-0.109996274
26	0xbdae312a	-0.08505471
27	0xbe0a9de0	-0.13536787
28	0xbdc5cf63	-0.096586965
29	0xbe0b2673	-0.13588886
30	0x3ba355a1	0.004984573
31	0xbbc706e2	-0.0060738185
32	0xbd2db7a2	-0.042411454
33	0x3e696f4f	0.22796367
34	0x3e650394	0.22364646
35	0x3e5055bf	0.2034521
36	0x3e241344	0.16022974
37	0x3e318629	0.17336334
38	0x3e3e543c	0.1858682
39	0xbe75e314	-0.24012405
40	0xbe274334	-0.1633423
41	0xbe56ad1d	-0.20964475
42	0x3e0b2a78	0.1359042
43	0x3e01bd78	0.12669933
44	0x3e4b78a1	0.19870235
45	0x3e3794d6	0.1792787
46	0x3d918bd2	0.07106747
47	0x3e06aa44	0.13150889
48	0xbe347598	-0.17622983
49	0xbd95fa32	-0.073231116
50	0xbd989c9c	-0.07451746
51	0xbe1ebee9	-0.15502514
52	0xbdcb7d6f	-0.09936034
53	0xbdcc151b	-0.09964963
54	0xbe0fa271	-0.1402681
55	0xbde0aaec	-0.10970101
56	0xbdcdd886	-0.10051064
57	0xbe1ba3aa	-0.15199152
58	0xbd72ba69	-0.059259806
59	0xbde40380	-0.1113348
60	0x3e205348	0.1565677
61	0x3e4236fa	0.18966284
62	0x3e61b2c4	0.2204085
63	0x3d93321f	0.07187294
64	0x3dd7bc3a	0.10533948
65	0x3dad7948	0.08470398
66	0xbdf39be6	-0.1189497
67	0xbdb3e95b	-0.087847434
68	0xbdb96aac	-0.09053549
69	0xbd053458	-0.032520622
70	0xbdaf35a9	-0.08555157
71	0xbcd22f9d	-0.02565747
72	0x3d516601	0.05112267
73	0xbbee0309	-0.0072635454
74	0x3dae37ba	0.08506723
75	0xbc9a64c4	-0.018846877
76	0xbd082964	-0.0332426
77	0xbb18c119	-0.0023308455
78	0x3d452b25	0.04813685
79	0xbb8fae36	-0.0043847812
80	0xbc063478	-0.00819122
81	0x3b978c89	0.0046249074
82	0xbd70f695	-0.05882891
83	0xbd6ff866	-0.0585865
84	0x3bb29d0d	0.005450851
85	0x3c8a1778	0.016856894
86	0x3d290012	0.041259833
87	0xbd6cb6a7	-0.05779138
88	0xbbe2809b	-0.0069123036
89	0xbd12fbd8	-0.03588471
90	0xbce7aef2	-0.028281663
91	0xbbbe1891	-0.0058012684
92	0xbc02b11b	-0.007976796
93	0xbd532b0c	-0.051554725
94	0xbde22785	-0.11042694
95	0xbd931c01	-0.07183076
96	0xbd53d26e	-0.051714353
97	0xbbcedfe6	-0.006313312
98	0x3d13cdbb	0.03608487
99	0x3de118dd	0.109910704
100	0x3dbbba2b	0.09166368
101	0x3d975349	0.07388932
102	0x3ceefe0d	0.029173875
103	0xbd620d28	-0.055188328
104	0xbc097dc1	-0.0083917985
105	0x3dee86a7	0.11646777
106	0x3d67b0a4	0.056564942
107	0x3ca37a30	0.019955724
108	0x3c407782	0.011747243
109	0x3d7d5930	0.061852634
110	0x3bcfdea0	0.0063436776
111	0xbe589253	-0.21149568
112	0xbe6fc769	-0.23415913
113	0xbe57d60d	-0.21077748
114	0x3df07a40	0.11742067
115	0x3d519a7d	0.051172722
116	0x3ddf7d9e	0.109126315
117	0x3ced9bff	0.029005049
118	0x3d14a159	0.036286686
119	0xbd758b27	-0.05994716
120	0x3cb55f52	0.022140179
121	0x3ccbed3b	0.024893394
122	0x3d7241eb	0.059144896
123	0x3e5b2f8d	0.21404858
124	0x3e3e676a	0.18594137
125	0x3e31b2a3	0.17353301
126	0x3d81fd89	0.06347186
127	0x3daf0f18	0.08547801
128	0x3e1bdc8c	0.1522085
129	0xbd81d36d	-0.063391544
130	0xbc97056b	-0.0184352
131	0xbd9f3c31	-0.077751525
132	0x3b044b5c	0.002018652
133	0x3d83eabf	0.06441259
134	0x3c9f3059	0.019432234
135	0xbdbeb64e	-0.093121156
136	0xbd07b3b0	-0.033130348
137	0xba6b919d	-0.00089862366
138	0xbcf7ae33	-0.030234432
139	0xbd8d2eb5	-0.06893674
140	0xbc244e01	-0.010028363
141	0x3ce8cfdf	0.028419433
142	0xbd1c5838	-0.03817007
143	0x3c9eb88b	0.019375106
144	0x3e02e5c1	0.12782957
145	0x3d7e9f68	0.06216374
146	0x3ded480b	0.11586007
147	0x3e1f9880	0.15585518
148	0x3e251972	0.16122988
149	0x3e08ea67	0.13370667
150	0xbac2ccd9	-0.0014862075
151	0xba838bdc	-0.0010036188
152	0x3c59109b	0.013248588
153	0xbdd2d41f	-0.10294365
154	0xbdda20d7	-0.10650795
155	0xbdc104b6	-0.09424727
156	0xbcbce8e8	-0.023060277
157	0xbd7dfbff	-0.0620079
158	0xbd925b9d	-0.0714638
159	0x3da1a083	0.07891943
160	0x3c4b24cb	0.012398909
161	0x3d08bd70	0.033383787
162	0x3b969edd	0.0045965747
163	0x3e061b48	0.13096344
164	0x3d62d68b	0.055380385
165	0xbd5ebb00	-0.054377556
166	0xbce8f7a0	-0.02843839
167	0x3c56d27c	0.013111707
168	0xbde62e31	-0.11239279
169	0xbdb228db	-0.08699199
170	0xbe1c643a	-0.15272608
171	0xbcf5ea98	-0.03001909
172	0xbd0c0b25	-0.034190316
173	0x3c86260c	0.016375564
174	0xbdc604cc	-0.09668884
175	0xbd0cca29	-0.034372482
176	0xbd8fba91	-0.070180066
177	0xbd0dbf74	-0.034606412
178	0x3d21f0e5	0.039536376
179	0x3cf270f8	0.029594883
180	0x3dbb2d71	0.09139527
181	0x3e3b6bc4	0.18302828
182	0x3e325926	0.1741682
183	0xbd96850e	-0.07349597
184	0xbcd5243b	-0.026018253
185	0xbceeb275	-0.02913783
186	0x3dafbb76	0.08580677
187	0x3d9a62ab	0.07538351
188	0x3d4e942b	0.050434273
189	0x3c8207bc	0.015872829
190	0xbd55e0f1	-0.052216474
191	0xbd80ffb1	-0.06298769
192	0xbd027ce6	-0.031857394
193	0x3d24575d	0.04012238
194	0x3d58155f	0.052754756
195	0x3c140cb8	0.0090362355
196	0xbcaffdfe	-0.021483418
197	0x3cc6df96	0.024276536
198	0xbe58523c	-0.2112512
199	0xbe8915a3	-0.2677432
200	0xbe2e9ec9	-0.17052759
201	0xbe06d398	-0.13166654
202	0xbe122dae	-0.14275238
203	0xbe3475be	-0.1762304
204	0x3d94d95b	0.0726802
205	0x3d605b46	0.054774545
206	0x3d759fc0	0.059966803
207	0xbd9d8a5d	-0.07692406
208	0xbd9684fa	-0.07349582
209	0xbd2b490c	-0.04181771
210	0x3cdaa29b	0.026688864
211	0xbcd481b2	-0.02594075
212	0x3c3edc12	0.011649149
213	0x3d84afed	0.06478868
214	0x3d0ba5b7	0.034093585
215	0x3da791b3	0.08182087
216	0xbd5f0501	-0.05444813
217	0xbc3d2633	-0.011544752
218	0xbdaeda0a	-0.085376814
219	0x3d867847	0.0656591
220	0x3d8da3f6	0.06916039
221	0x3dd8050b	0.10547837
222	0x3ac18cec	0.001476673
223	0x3d75409a	0.059876062
224	0x3d22c190	0.039735377
225	0xbcb0ec50	-0.021597058
226	0x3bc8978e	0.0061215824
227	0xbd4812f9	-0.04884622
228	0xbe01f48a	-0.1269094
229	0xbdb98ee9	-0.09060461
230	0xbda87aef	-0.08226573
231	0xbd725f1e	-0.059172742
232	0xbdb3ddf6	-0.0878257
233	0xbd4e91e0	-0.050432086
234	0xbdfed49b	-0.12442895
235	0xbdab1568	-0.08353692
236	0xbdbeb948	-0.09312683
237	0x3e783863	0.2424026
238	0x3e4e6a32	0.20157698
239	0x3e230c47	0.15922652
240	0xbd854126	-0.06506567
241	0xbb38e518	-0.0028212722
242	0xbca3fbb3	-0.02001748
243	0xbdff220f	-0.12457668
244	0xbdd89f8a	-0.10577305
245	0xbdd5c6ad	-0.10438285
246	0x3d56ff0c	0.052489325
247	0xbc42fa3c	-0.011900481
248	0x3d5c74dc	0.053822383
249	0x3d7ab3f0	0.061206758
250	0x3d348540	0.04407239
251	0x3db798d8	0.089646995
252	0x3e0e525e	0.13898608
253	0x3e19d447	0.15022384
254	0x3d89cc45	0.067284144
255	0xbe3aeae1	-0.18253662

bias f4 [64]
0	0xbdbbb4f4	-0.091653734
1	0xbd8d44e1	-0.06897903
2	0xbd8fc9be	-0.07020901
3	0x3dc280ea	0.09497245
4	0x3d24a896	0.04019984
5	0x3c598df2	0.013278471
6	0x3d93743f	0.071999066
7	0x3d0b2af3	0.033976506
8	0x3d184594	0.03717573
9	0xbdfd8cb2	-0.12380351
10	0x3cc1630f	0.023606805
11	0xbda4bd8d	-0.080439664
12	0xbcdae3d6	-0.026719969
13	0x3d56a0bf	0.052399393
14	0xbc0267d9	-0.0079593295
15	0x3dac4c9c	0.084130496
16	0xbd40ed3d	-0.047101248
17	0x3c89d6d7	0.016826076
18	0x3ca0a888	0.019611612
19	0xbe0d1788	-0.13778508
20	0xbcd348ea	-0.025791604
21	0x3d820051	0.063477166
22	0xbd1da618	-0.038488477
23	0xbddb8a32	-0.10719718
24	0x3d02dbcc	0.031947896
25	0xbd3c5edc	-0.045988902
26	0x3cb9a27c	0.022660486
27	0x3d43219a	0.047639467
28	0xbcb29fec	-0.021804772
29	0xbe15c910	-0.1462748
30	0xbdaf7e23	-0.085689805
31	0xbd862611	-0.06550229
32	0xbc8403eb	-0.01611515
33	0x3e09328a	0.13398185
34	0xbd809658	-0.06278676
35	0xbd89886d	-0.06715474
36	0xbd3fae58	-0.046797127
37	0x3d997171	0.0749234
38	0x3d1abe38	0.037779063
39	0xbd58fcc8	-0.052975446
40	0x3d3e0f86	0.046401523
41	0xbb7eebfa	-0.0038897977
42	0xbb8749e4	-0.0041286815
43	0xbdbb8bef	-0.091575496
44	0xbd9f4709	-0.07777221
45	0xbcc8d6b4	-0.02451644
46	0x3d396516	0.04526242
47	0x3d30f807	0.043205287
48	0x3c9b0ce2	0.018927041
49	0x3d57c210	0.052675307
50	0xbd2fe44f	-0.04294234
51	0xbd7c387d	-0.06157731
52	0xbdb302ab	-0.08740743
53	0xb8f4f588	-0.000116805604
54	0xbd488044	-0.04895045
55	0xbd95c82a	-0.07313569
56	0xbd8ec634	-0.06971398
57	0xbd6a01f6	-0.057130776
58	0xba8be3fa	-0.0010672801
59	0xbc84e39e	-0.016221818
60	0x3d5d9447	0.054096486
61	0xbc8741bc	-0.016510837
62	0x3caabc5e	0.020841774
63	0xbc76967d	-0.015050528

weight f4 [64]
0	0x3f2f7619	0.6853958
1	0x3f265b41	0.6498299
2	0x3f291a89	0.66056114
3	0x3f177635	0.59164745
4	0x3f1894fc	0.5960233
5	0x3f2791b9	0.6545673
6	0x3f1cab14	0.61198545
7	0x3f2244ee	0.6338643
8	0x3f3fff4b	0.7499892
9	0x3f2d776b	0.6776034
10	0x3f2b8f01	0.6701508
11	0x3f270b79	0.6525188
12	0x3f2c0731	0.67198473
13	0x3f35595f	0.70839494
14	0x3f1fe38d	0.6245659
15	0x3f1b8993	0.60756797
16	0x3f2842f4	0.6572716
17	0x3f29ddbe	0.66353977
18	0x3f1d8e8c	0.61545634
19	0x3f3347a5	0.70031196
20	0x3f1f3ae2	0.62199223
21	0x3f1fde97	0.6244902
22	0x3f1d9e75	0.6156991
23	0x3f1ce6e5	0.6128982
24	0x3f1ba96a	0.6080538
25	0x3f317018	0.69311666
26	0x3f20b7e1	0.62780577
27	0x3f177392	0.5916072
28	0x3f2ed188	0.6828847
29	0x3f2c5592	0.6731807
30	0x3f30af5c	0.6901758
31	0x3f1a7341	0.60332114
32	0x3f1f6f99	0.6227966
33	0x3f14ba91	0.5809718
34	0x3f1c5f10	0.61082554
35	0x3f286c98	0.657907
36	0x3f23acd2	0.6393558
37	0x3f23c2d3	0.63969153
38	0x3f1a4e71	0.6027594
39	0x3f176c07	0.5914921
40	0x3f2e3311	0.6804667
41	0x3f20fb14	0.62883115
42	0x3f245706	0.6419529
43	0x3f2a6db1	0.66573626
44	0x3f29c1ce	0.6631135
45	0x3f241050	0.6408739
46	0x3f3060c1	0.68897635
47	0x3f210e2f	0.6291227
48	0x3f2bbff3	0.67089766
49	0x3f2008ed	0.6251362
50	0x3f18bf4d	0.596669
51	0x3f13feab	0.5781047
52	0x3f1ddfd8	0.61669683
53	0x3f344e72	0.704322
54	0x3f25def6	0.64793336
55	0x3f303775	0.6883462
56	0x3f39ba91	0.725503
57	0x3f27373b	0.6531865
58	0x3f0d8f90	0.55297184
59	0x3f226ae1	0.63444334
60	0x3f253b77	0.6454386
61	0x3f1f1372	0.62139046
62	0x3f277840	0.6541786
63	0x3f1b61e5	0.6069625

bias f4 [64]
0	0xbee78f83	-0.45226678
1	0xbee0b8a3	-0.43890867
2	0xbf04925b	-0.5178582
3	0xbec594c2	-0.38590056
4	0xbf1705d8	-0.5899329
5	0xbebce1fb	-0.3689116
6	0xbef6efa8	-0.48229718
7	0xbf0345a8	-0.5127816
8	0xbf1f20f2	-0.62159646
9	0xbf0a4552	-0.54012024
10	0xbee76963	-0.4519759
11	0xbec3e18e	-0.38258022
12	0xbef64b5a	-0.48104364
13	0xbf0417c9	-0.51598793
14	0xbeb47371	-0.35244325
15	0xbebfc124	-0.37452042
16	0xbf107ab9	-0.5643726
17	0xbeffd3d2	-0.49966294
18	0xbeb33640	-0.35002327
19	0xbf02e98b	-0.5113761
20	0xbe997099	-0.29968718
21	0xbea663ca	-0.32498008
22	0xbed2560c	-0.41081274
23	0xbed6d911	-0.41962484
24	0xbeb5cf08	-0.35509515
25	0xbf003ec2	-0.5009576
26	0xbf1c4196	-0.61037576
27	0xbeee2334	-0.46511233
28	0xbea5563c	-0.32292354
29	0xbf0e50eb	-0.5559222
30	0xbf0ff249	-0.5622907
31	0xbec65685	-0.38737884
32	0xbeb67750	-0.35637903
33	0xbee83a6a	-0.45357066
34	0xbf127258	-0.57205725
35	0xbf01dff6	-0.5073236
36	0xbf0785bf	-0.52938455
37	0xbefa2bf8	-0.4886167
38	0xbeb2a7c8	-0.34893632
39	0xbed5e381	-0.41775134
40	0xbf13ee08	-0.5778508
41	0xbebb26ff	-0.3655319
42	0xbea9a0a1	-0.33130363
43	0xbf1b3c80	-0.6063919
44	0xbedab917	-0.42719337
45	0xbea50dc9	-0.3223708
46	0xbecca052	-0.39966065
47	0xbeb1e57c	-0.34745395
48	0xbedfc59d	-0.43705454
49	0xbed33353	-0.41250095
50	0xbecc87f1	-0.39947465
51	0xbed54573	-0.41654548
52	0xbec14a20	-0.37751865
53	0xbee993a7	-0.45620462
54	0xbed51dac	-0.416242
55	0xbef68b45	-0.4815313
56	0xbf0f72e0	-0.5603466
57	0xbed05c56	-0.40695447
58	0xbec546ec	-0.38530672
59	0xbecbfcb4	-0.39841235
60	0xbe958146	-0.2920019
61	0xbf13fc31	-0.5780669
62	0xbf069950	-0.52577686
63	0xbf08beba	-0.53416026

running_mean f4 [64]
0	0xbf0b8dcc	-0.5451324
1	0x3f00572b	0.5013301
2	0xbf3b2717	-0.7310652
3	0x3eedefc2	0.46471983
4	0xbc2ca344	-0.010536972
5	0xbeefe7cf	-0.46856543
6	0x3ecc2716	0.3987357
7	0xbd17d84f	-0.037071522
8	0xbf3e0b3a	-0.7423588
9	0x3f3113b3	0.69170684
10	0x3e659a26	0.22422084
11	0xbe70744d	-0.23481865
12	0xbed0f9d4	-0.40815604
13	0x3f095342	0.53642666
14	0x3ec7cc7f	0.39023206
15	0x3fb05008	1.3774424
16	0xc00d1beb	-2.204829
17	0x3fa42e0f	1.2826556
18	0xbe65662f	-0.22402261
19	0xbe684955	-0.22684224
20	0x3f6f2e0f	0.93429655
21	0x4026b37b	2.6047046
22	0x3eabe1f1	0.33570817
23	0xbfd324d2	-1.6495612
24	0x3f097a30	0.5370207
25	0xbf0c9f3d	-0.5493048
26	0xbe8e02a8	-0.27736402
27	0xbfffd4d2	-1.9986823
28	0x3eca8e17	0.3956153
29	0x3f893a21	1.0720865
30	0xbfdb8b69	-1.715192
31	0xbeb00769	-0.34380654
32	0x3dc99464	0.098427564
33	0x3c80fc6f	0.01574537
34	0xc009a840	-2.1508942
35	0xbf485735	-0.7825807
36	0xc023eb74	-2.561246
37	0x3f6a1215	0.9143384
38	0x3f9dfa15	1.2341944
39	0xbf226504	-0.6343539
40	0x3fd432fc	1.6578059
41	0xbeb6ec4a	-0.3572715
42	0x3f18d0be	0.59693515
43	0xbfd81724	-1.6882062
44	0x3f1ef412	0.6209117
45	0x3f225054	0.6340382
46	0xbfbbbccd	-1.4666992
47	0xbcb6bbfe	-0.022306439
48	0x3ec265bb	0.3796824
49	0xbfcd3a09	-1.6033336
50	0xbf0a69c5	-0.5406764
51	0xbf618a7a	-0.88101923
52	0xbdc6973e	-0.09696816
53	0xbfa75353	-1.3072304
54	0xbea4f429	-0.3221753
55	0xc0051cc5	-2.079881
56	0xbeb6f1b5	-0.35731283
57	0xbea2b902	-0.31781775
58	0x3e36d3ce	0.17854235
59	0x3e011ef5	0.12609465
60	0x3f3d6b58	0.7399192
61	0x3e55cdaf	0.20879243
62	0xbeb2efb1	-0.34948495
63	0xbfba4663	-1.455273

running_var f4 [64]
0	0x3e941d15	0.28928438
1	0x3ea1abe1	0.31576446
2	0x3e8c1dd4	0.27366507
3	0x3e7d3ef1	0.24731041
4	0x3e265e9f	0.16247033
5	0x3ec38ae7	0.38191912
6	0x3e67b0a6	0.2262598
7	0x3e2a9fe5	0.16662557
8	0x3f4aecee	0.79267776
9	0x3e5f5094	0.21808082
10	0x3ed1ee94	0.41002333
11	0x3edcd61d	0.43132105
12	0x3dee4de3	0.116359495
13	0x3ea65be5	0.32491985
14	0x3f26f097	0.6521086
15	0x3e73af6e	0.2379739
16	0x3ee23258	0.44179034
17	0x3ea8940a	0.32925445
18	0x3f5b385b	0.85632867
19	0x3e9d117b	0.306774
20	0x3e9ada29	0.30244568
21	0x3f0e7dd3	0.5566074
22	0x3e86dd06	0.26340503
23	0x3eaa76e3	0.33293828
24	0x3f27625c	0.6538446
25	0x3f24da41	0.6439553
26	0x3e762ed4	0.24041301
27	0x3f44a18b	0.76808995
28	0x3f614f8f	0.8801202
29	0x3e5596b3	0.20858268
30	0x3e83a956	0.2571513
31	0x3e82dd31	0.2555938
32	0x3edcf9e3	0.43159398
33	0x3e97d8f0	0.29657698
34	0x3f236442	0.63824856
35	0x3e8f7f75	0.2802693
36	0x3ecbd229	0.39808777
37	0x3e678aa1	0.22611476
38	0x3ef69a9c	0.48164833
39	0x3e1d9f79	0.15392865
40	0x3edd5c96	0.432347
41	0x3e4f8338	0.202649
42	0x3ed77db2	0.42088085
43	0x3ee7ccde	0.4527349
44	0x3e85a838	0.26104903
45	0x3e7f67f6	0.24942002
46	0x3ef0dc60	0.47043133
47	0x3e60741e	0.21919295
48	0x3ea089f5	0.31355253
49	0x3f97678d	1.1828476
50	0x3e6cd089	0.23126425
51	0x3e96291a	0.29328233
52	0x3eb16846	0.34649867
53	0x3f0bd6d7	0.54624695
54	0x3eac0b45	0.33602348
55	0x3ee92661	0.45537093
56	0x3e45c899	0.19314803
57	0x3e059f09	0.13048948
58	0x3e84185b	0.25799832
59	0x3eeca1f3	0.46217307
60	0x3f14a81b	0.5806901
61	0x3e90cd55	0.28281656
62	0x3eec8fc3	0.4620343
63	0x3ec8b88b	0.39203295

weight f4 [128, 64, 3]
0	0xbe3da750	-0.18520856
1	0xbe3b08b2	-0.18265036
2	0xbe4f5a54	-0.20249301
3	0x3aa8bca9	0.0012873608
4	0x3cbb0f23	0.022834366
5	0x3cbb9b27	0.02290113
6	0xbe88b198	-0.26697993
7	0xbe3ac29f	-0.18238305
8	0xbe64ba50	-0.22336698
9	0x3d0aec96	0.033917032
10	0xbcb42cde	-0.02199405
11	0x3d4d1279	0.050066445
12	0x3d599363	0.053119075
13	0x3dc488b3	0.09596386
14	0x3e1cfb69	0.1533028
15	0xbdd1fa67	-0.102528386
16	0xbd2a43ad	-0.041568447
17	0xbde66329	-0.11249382
18	0x3d67bc3e	0.056576006
19	0x3d9eef01	0.0776043
20	0x3dcec928	0.10096961
21	0x3d1469fd	0.03623389
22	0x3d4cd42c	0.05000703
23	0x3c6a10a3	0.014286193
24	0x3d715e86	0.058928035
25	0xbd61d1d8	-0.055131763
26	0xbd82654d	-0.06366978
27	0x3dcb4332	0.09924926
28	0xbc9caab6	-0.01912437
29	0xbcd9a23b	-0.026566615
30	0x3dadac9d	0.08480189
31	0x3d4c6290	0.049898684
32	0x3e090ca2	0.13383725
33	0x3c34618d	0.011009586
34	0x3d1df1c2	0.038560636
35	0xbc49ea9a	-0.012324
36	0xbd4552df	-0.048174735
37	0x3ce32947	0.027729644
38	0x3c894d79	0.016760575
39	0xbe1ccdca	-0.15312877
40	0xbded6815	-0.11592118
41	0xbd2ecea4	-0.042677537
42	0xbd9b87af	-0.07594239
43	0x3ca47796	0.020076554
44	0x3c2bd574	0.010487903
45	0xbda29c89	-0.07940013
46	0xbd54869c	-0.051886186
47	0xbd88d030	-0.066803336
48	0x3d486e3a	0.048933245
49	0xbd53ecc9	-0.051739488
50	0x3c9ec018	0.019378707
51	0xbd66ff85	-0.056396026
52	0xbe17d1f2	-0.14826182
53	0xbdda7bec	-0.106681675
54	0x3d1d7dab	0.038449924
55	0x3d4fa815	0.050697405
56	0x3ba12ac0	0.0049184263
57	0x3d067d1c	0.032834157
58	0x3da109ae	0.078631744
59	0x3d48ea79	0.049051736
60	0xbdceedf1	-0.101039775
61	0xbd898b7f	-0.0671606
62	0xbd1670f2	-0.036728807
63	0x3cbd50cc	0.023109816
64	0x3dc0a9b3	0.094073676
65	0x3cf45ee9	0.029830413
66	0xbe3c30c7	-0.18377982
67	0xbe3e72e0	-0.18598509
68	0xbdc9f88c	-0.0986186
69	0x3c4e8f60	0.012607425
70	0xbd262938	-0.040566653
71	0xbaca4c76	-0.0015434164
72	0xbd04258a	-0.032262363
73	0xbd512d76	-0.051068746
74	0xbd09efb8	-0.03367588
75	0x3d618672	0.055059858
76	0xbddc2124	-0.107485086
77	0xbdb52c40	-0.08846331
78	0xbe334f6f	-0.1751077
79	0xbdd21368	-0.10257608
80	0xbd8c597d	-0.06853006
81	0xbe70ddbe	-0.23522088
82	0xbe20af83	-0.15691952
83	0xbe67c18c	-0.22632426
84	0xbd9a7b20	-0.075430155
85	0xbdaa0356	-0.083014175
86	0xbdb5f064	-0.088837415
87	0xbccd247e	-0.025041815
88	0xbd96713d	-0.07345817
89	0xbd1a7630	-0.03771037
90	0xba839a68	-0.0010040523
91	0xbd373fd3	-0.044738602
92	0xbc68e937	-0.014215759
93	0xbe8d2baa	-0.27572376
94	0xbed801f9	-0.42189005
95	0xbecd0e98	-0.40050197
96	0x3c941867	0.018078042
97	0x3d3f6aed	0.04673283
98	0xbb64e836	-0.0034928448
99	0x3d780136	0.06054803
100	0x3d9ff133	0.07809677
101	0x3dcd7d2e	0.10033642
102	0x3e079e02	0.13243869
103	0x3e0fe19e	0.1405091
104	0x3dcc7937	0.099840574
105	0xbe2f131b	-0.17097132
106	0xbe6312eb	-0.22175185
107	0xbe382a99	-0.17985
108	0xbcf3aa60	-0.029744327
109	0x3d6da051	0.058014218
110	0x3d90fd85	0.07079605
111	0x3df57a19	0.11986179
112	0x3d361364	0.044452086
113	0x3c857104	0.016289242
114	0xbc6105fe	-0.013734339
115	0xbd27c93e	-0.040963404
116	0x3c666aae	0.01406352
117	0xbe0b7ab5	-0.13621028
118	0xbe0c6b3d	-0.13712783
119	0xbd8ed7f5	-0.06974784
120	0xbd80d3e1	-0.06290413
121	0xbe39da8f	-0.1814978
122	0xbd7f5900	-0.062340736
123	0xbea6e427	-0.3259594
124	0xbe92849a	-0.28616792
125	0xbe91e50f	-0.2849507
126	0x3de13557	0.10996502
127	0x3d73d63a	0.059530474
128	0x3da6f8a3	0.081528924
129	0x3db2494a	0.08705385
130	0xbd4a47a8	-0.049384743
131	0xbca89df1	-0.020583125
132	0x3d8b4b07	0.0680142
133	0x3dec619a	0.115420535
134	0x3db5ca75	0.08876506
135	0xbd64f426	-0.0558969
136	0x3c960d3f	0.018316863
137	0x3c225dea	0.009910086
138	0xbe7361f4	-0.23767835
139	0xbe5a49ad	-0.21317168
140	0xbe972481	-0.29520038
141	0xbefc38d6	-0.49262112
142	0xbedde0bd	-0.43335524
143	0xbf03e991	-0.5152827
144	0xbcfa5807	-0.030559553
145	0x3d2e145a	0.042499878
146	0x3ddba7e5	0.10725383
147	0xbcdf6392	-0.027269159
148	0x3d37b974	0.044854596
149	0x3bbf69ae	0.0058414554
150	0xbca61ca6	-0.020277333
151	0xbcbe1ae7	-0.023206187
152	0xbd83161f	-0.06400704
153	0xbe0a918b	-0.13532083
154	0xbdbf83e8	-0.09351331
155	0xbd228e36	-0.039686404
156	0xbee22581	-0.44169238
157	0xbee27961	-0.4423323
158	0xbf038d64	-0.5138762
159	0xbcd257bb	-0.025676599
160	0xbd5330c9	-0.051560197
161	0xbe1a63cb	-0.1507713
162	0x3ca40a77	0.020024521
163	0xbd17ef1c	-0.037093267
164	0x3be00dbd	0.006837575
165	0xbdd8b7c0	-0.105819225
166	0xbe815590	-0.25260592
167	0xbe66b8bd	-0.2253141
168	0x3cf13c5b	0.029447725
169	0x3c4ae9e4	0.012384865
170	0x3d9fbfdb	0.078002654
171	0xbd389f81	-0.04507399
172	0x3c83e353	0.016099608
173	0x3d2e99fb	0.042627316
174	0x3ce8df11	0.028426679
175	0x3dbebe7f	0.09313678
176	0x3dcb22a4	0.099187165
177	0x3c0d3684	0.008618955
178	0xbb85a553	-0.004078546
179	0xbc23626d	-0.009972197
180	0x3d79c0fe	0.060975067
181	0x3b28f0d9	0.0025778322
182	0x3d4d815a	0.050172187
183	0xbe014f14	-0.12627822
184	0xbe21d660	-0.15804434
185	0xbd3c92d0	-0.04603845
186	0xbdb8fcda	-0.090326026
187	0xbe01a382	-0.1266003
188	0xbdfd7f75	-0.12377826
189	0x3cc422f5	0.02394245
190	0xbd92c06f	-0.0716561
191	0xbc5039a3	-0.012709054
192	0xbe095f5b	-0.13415281
193	0xbdb7cae0	-0.08974242
194	0xbdad8a2a	-0.08473618
195	0xbd383545	-0.044972677
196	0xbc0ee1b3	-0.008720803
197	0xbd2895e9	-0.04115859
198	0x3d46bb38	0.04851839
199	0x3df697cc	0.12040672
200	0x3e123ef5	0.14281829
201	0xbe072f14	-0.13201553
202	0xbdb2ef18	-0.0873701
203	0xbd2c4b8f	-0.042064246
204	0x3e0799e4	0.13242298
205	0x3e138b8d	0.14408703
206	0x3df8d4d1	0.121499665
207	0x3db4cade	0.08827756
208	0x3cfcca58	0.030858204
209	0x3de512de	0.11185239
210	0xbbc47a55	-0.0059960284
211	0xbd1213f2	-0.035663553
212	0x3ba5fcd2	0.005065539
213	0xbe94d640	-0.2906971
214	0xbe54f854	-0.20797855
215	0xbeb44d6b	-0.35215315
216	0xbe6a31ba	-0.22870532
217	0xbe8048eb	-0.25055632
218	0xbe8c489d	-0.2739915
219	0xbc8005fc	-0.015627854
220	0xbd100bd6	-0.035167538
221	0xbd1904a1	-0.03735793
222	0xbd82cba0	-0.06386495
223	0xbdbfa77a	-0.093581155
224	0xbde99335	-0.11405031
225	0xbcfa03f2	-0.03051946
226	0xbd386a58	-0.045023292
227	0xbb1aa479	-0.0023596568
228	0xbeb15235	-0.3463303
229	0xbe99fd0a	-0.30075866
230	0xbe7c2de9	-0.24626888
231	0xbd22bc6f	-0.039730486
232	0xbd173906	-0.036919616
233	0x3c0f2fb9	0.008739405
234	0x3d6927c3	0.056922685
235	0x3cf84ead	0.030310953
236	0x3dac7395	0.08420483
237	0xbe1973d4	-0.14985591
238	0xbde7bea4	-0.11315659
239	0xbd8a5300	-0.06754112
240	0xbaa5669d	-0.0012619082
241	0x3d0590d5	0.032608826
242	0xbd4f0639	-0.050543044
243	0xbdadb445	-0.08481649
244	0xbdefaf29	-0.11703331
245	0xbe376f81	-0.17913629
246	0x3b2bf2e6	0.0026237308
247	0xbd306245	-0.043062467
248	0xbd42c882	-0.0475545
249	0xbdc537af	-0.096297614
250	0xbc9f18c3	-0.019420987
251	0xbd6d901c	-0.05799876
252	0xbc07dd34	-0.008292485
253	0xbc34f425	-0.011044537
254	0x3b42155e	0.0029614787
255	0xbe0b6064	-0.13610989

bias f4 [128]
0	0xbc8c6eb3	-0.01714263
1	0xbd6f03b9	-0.05835316
2	0xbd409111	-0.047013346
3	0xbcf934d4	-0.030420698
4	0xbdb126ef	-0.08650004
5	0xbd976f11	-0.07394231
6	0xbd0a9511	-0.033833567
7	0xbd22b1d6	-0.03972038
8	0x3d9663b6	0.07343237
9	0xbd8a89b0	-0.06764543
10	0xbc965471	-0.018350812
11	0xbc7ab56b	-0.0153020425
12	0xbb3550d7	-0.0027666593
13	0xbc8e43d6	-0.017366331
14	0xbd21af0d	-0.039473582
15	0xbd2d7f59	-0.042357776
16	0x3c57deb9	0.01317566
17	0xbd3e7a2b	-0.046503227
18	0x3d9c25eb	0.0762442
19	0xbd1eab95	-0.038737852
20	0x3d87efd1	0.06637538
21	0xbceaa787	-0.028644336
22	0x3d0239ef	0.03179353
23	0x3d8eb2d7	0.06967705
24	0xbce611e8	-0.02808471
25	0xbd871d3c	-0.06597373
26	0xbcf3642f	-0.029710857
27	0xbd7b8005	-0.061401386
28	0xbcfb2070	-0.030655116
29	0x3d284e09	0.041090045
30	0x3aaca7ab	0.0013172528
31	0x3d5cdb7e	0.05392026
32	0x3c4852a8	0.012226738
33	0xbcd68627	-0.026187016
34	0x3cd486a2	0.025943104
35	0x3a6ae7ee	0.0008960952
36	0x3d02d16e	0.03193801
37	0xbc8367a4	-0.01604063
38	0xbd646895	-0.0557638
39	0x3d36c1f1	0.04461855
40	0xbd4d8555	-0.050175983
41	0x3d028255	0.031862576
42	0x3b39de77	0.002836136
43	0x3d0e85da	0.03479562
44	0xbd4a895d	-0.049447406
45	0x3c5a443c	0.013321932
46	0xbcd23a62	-0.025662605
47	0x3cd949b7	0.026524408
48	0xbd44c3e0	-0.048038363
49	0x3d3b95ed	0.045797277
50	0xbd2876b0	-0.041128814
51	0xbce4adbb	-0.027914872
52	0x3c34a690	0.01102604
53	0xbd596dfc	-0.053083405
54	0xbcab3903	-0.020901209
55	0x3c67975b	0.014135207
56	0xbb9eb13b	-0.004842905
57	0x3c1e21ff	0.00965166
58	0xbd0f417a	-0.034974553
59	0xbb9e49cf	-0.004830576
60	0x3d0374c6	0.032093786
61	0xbcafdc78	-0.021467432
62	0xbd1a4d2b	-0.03767125
63	0x3d262ebf	0.040571924
64	0xbd54fed9	-0.052000854
65	0x3cba39c2	0.02273262
66	0x3b1c3f02	0.0023841267
67	0xbd376519	-0.04477415
68	0x3cf1e201	0.029526712
69	0x3cca317e	0.024681803
70	0x3d50ae75	0.050947625
71	0xbd26a9f2	-0.040689416
72	0xbc8b1ced	-0.016981566
73	0xbd6763a7	-0.05649152
74	0xbb8cdaf2	-0.0042985613
75	0x3c1e0ce9	0.009646633
76	0xbc9377c0	-0.018001437
77	0x3bdcfc21	0.0067439233
78	0xbc95c021	-0.01828009
79	0x3d02eb60	0.031962752
80	0x3d7f1956	0.06228002
81	0xbcf6a3d5	-0.030107418
82	0xbd902c91	-0.0703975
83	0x3c9ecb42	0.01938403
84	0xbd7968d2	-0.06089098
85	0xbd219c67	-0.039455798
86	0xbbc75c86	-0.0060840277
87	0xbcdb0f40	-0.02674067
88	0xbd9423c7	-0.072333865
89	0xbd20610d	-0.039155055
90	0xbd760f7e	-0.06007337
91	0x3c8c5359	0.017129587
92	0xba8dbd20	-0.001081381
93	0xb9fe5efb	-0.0004851742
94	0xbd113799	-0.035453413
95	0xbc2d061a	-0.010560537
96	0xbd0944ca	-0.033512868
97	0x3c910a4e	0.017705109
98	0x3d2cae87	0.04215863
99	0xbd29a27c	-0.041414723
100	0xbd8c0645	-0.06837133
101	0xbd20ccd3	-0.039257836
102	0x3d4a3c2c	0.04937379
103	0xbd59c5e4	-0.05316724
104	0xbd1b00a0	-0.037842393
105	0xbcf2b554	-0.02962748
106	0x3ce66c7b	0.0281279
107	0x3d50bf6c	0.050963804
108	0xbd405949	-0.04696015
109	0x3ba26553	0.0049559264
110	0x3d4bd792	0.04976613
111	0xbd8fc63c	-0.07020232
112	0xbcafc33a	-0.021455396
113	0x3d0e7446	0.034778856
114	0x3d0c7d71	0.034299318
115	0xbba1273c	-0.004918007
116	0xbd3ea50e	-0.046544127
117	0xbc9b84ef	-0.018984286
118	0x3c8ecb88	0.017431036
119	0x3ba87402	0.0051407823
120	0x3c0b039f	0.00848475
121	0xbd32ab1a	-0.043620206
122	0x3dbb833f	0.091558926
123	0x3ce616aa	0.028086979
124	0xbd530859	-0.051521633
125	0x3b3ac8b8	0.0028500985
126	0x3a4fa93f	0.0007921643
127	0x3c182536	0.0092862155

weight f4 [128]
0	0x3f306d4d	0.6891678
1	0x3f1df698	0.617044
2	0x3f24d579	0.64388233
3	0x3f2f4479	0.68463856
4	0x3f24bd12	0.64351
5	0x3f2004ae	0.6250714
6	0x3f1faab6	0.6236986
7	0x3f2fac41	0.68622214
8	0x3f28ab42	0.6588632
9	0x3f2dc21e	0.67874324
10	0x3f117543	0.5681955
11	0x3f306cb0	0.68915844
12	0x3f298391	0.6621638
13	0x3f2092ba	0.62723887
14	0x3f2a6198	0.66555166
15	0x3f2769b1	0.6539565
16	0x3f10479f	0.56359285
17	0x3f3144b5	0.69245464
18	0x3f3336b5	0.7000535
19	0x3f266141	0.6499215
20	0x3f1fa3a0	0.62359047
21	0x3f1d311e	0.6140307
22	0x3f22317e	0.6335677
23	0x3f29cca8	0.66327906
24	0x3f2da6cd	0.6783264
25	0x3f2bdb5b	0.67131585
26	0x3f318c4b	0.69354695
27	0x3f1a919c	0.6037843
28	0x3f27e4c1	0.65583426
29	0x3f1c9604	0.61166406
30	0x3f47e2b2	0.78080285
31	0x3f1f9400	0.62335205
32	0x3f276878	0.6539378
33	0x3f10829b	0.5644929
34	0x3f2ab149	0.66676766
35	0x3f19fe90	0.60154057
36	0x3f2e7b27	0.68156666
37	0x3f310e92	0.6916286
38	0x3f2eca8c	0.6827781
39	0x3f1f3ed8	0.62205267
40	0x3f2f45cc	0.68465877
41	0x3f17240e	0.5903939
42	0x3f289028	0.65844965
43	0x3f1d8611	0.61532694
44	0x3f2cc550	0.67488575
45	0x3f1fb80d	0.62390214
46	0x3f1f96ad	0.6233929
47	0x3f2e081c	0.67981124
48	0x3f22b345	0.63554794
49	0x3f1420a4	0.57862306
50	0x3f3e34ab	0.74299115
51	0x3f379ab9	0.71720463
52	0x3f1f7d20	0.623003
53	0x3f2cb6aa	0.67466223
54	0x3f03557f	0.5130233
55	0x3f22d761	0.6360989
56	0x3f23fdef	0.64059347
57	0x3f2bb7a3	0.6707708
58	0x3f117728	0.56822443
59	0x3f15ab14	0.5846417
60	0x3f11076b	0.56651944
61	0x3f27d8dd	0.6556528
62	0x3f2a01f9	0.6640926
63	0x3f1de944	0.6168406
64	0x3f2f13bf	0.68389505
65	0x3f217ec0	0.6308403
66	0x3f368b4f	0.7130632
67	0x3f2ee6db	0.6832101
68	0x3f291532	0.66047966
69	0x3f2aa4a0	0.6665745
70	0x3f274119	0.65333706
71	0x3f2600e2	0.648451
72	0x3f2b9377	0.6702189
73	0x3f2d2679	0.6763683
74	0x3f3c9a77	0.73673195
75	0x3f30cd13	0.6906292
76	0x3f256273	0.64603347
77	0x3f1b75f5	0.60726863
78	0x3f272263	0.65286845
79	0x3f21bb1e	0.63176143
80	0x3f1afb3e	0.60539615
81	0x3f11fb14	0.5702374
82	0x3f1c43ae	0.6104077
83	0x3f1d1349	0.6135755
84	0x3f1cc60e	0.6123971
85	0x3f2027fa	0.62561
86	0x3f3a9c1a	0.7289444
87	0x3f211870	0.62927914
88	0x3f2eb8c0	0.68250656
89	0x3f2865c4	0.6578028
90	0x3f2b3a38	0.6688571
91	0x3f2628d6	0.6490606
92	0x3f1d19c6	0.6136745
93	0x3f1a6659	0.6031242
94	0x3f3761c3	0.7163355
95	0x3f1a88c5	0.60364944
96	0x3f375c0f	0.71624845
97	0x3f322d70	0.6960058
98	0x3f165d1b	0.5873582
99	0x3f2f5832	0.6849395
100	0x3f0e455c	0.55574584
101	0x3f2ccabc	0.6749685
102	0x3f1a4dde	0.60275066
103	0x3f33ba2d	0.70205957
104	0x3f2a6fe8	0.66577005
105	0x3f2cfb3d	0.6757086
106	0x3f2d662c	0.67734027
107	0x3f153dd4	0.5829747
108	0x3f2021c7	0.6255154
109	0x3f282eda	0.6569649
110	0x3f1e5bcd	0.61858827
111	0x3f33a215	0.7016919
112	0x3f311922	0.69178975
113	0x3f2f4fc6	0.684811
114	0x3f345ac7	0.70451015
115	0x3f238fc0	0.6389122
116	0x3f240890	0.64075565
117	0x3f26820e	0.650422
118	0x3f22686c	0.63440585
119	0x3f47d92f	0.7806577
120	0x3f35d3d7	0.71026367
121	0x3f11ac65	0.5690368
122	0x3f1e6d49	0.61885506
123	0x3f1aac94	0.60419583
124	0x3f25a220	0.6470051
125	0x3f1acb38	0.6046634
126	0x3f19b048	0.6003461
127	0x3f230550	0.6367998

bias f4 [128]
0	0xbeeb9984	-0.4601556
1	0xbed77a56	-0.42085522
2	0xbeccdb3c	-0.40011013
3	0xbee586fb	-0.44829544
4	0xbf07a531	-0.5298644
5	0xbefa154f	-0.48844382
6	0xbec1ae61	-0.37828353
7	0xbedfd37e	-0.43716043
8	0xbef39b92	-0.47579628
9	0xbeb8d616	-0.36100835
10	0xbed02d3e	-0.40659517
11	0xbef4295e	-0.4768781
12	0xbec5a398	-0.38601375
13	0xbebe2576	-0.37137955
14	0xbea49db7	-0.32151577
15	0xbf0eda0b	-0.5580146
16	0xbeb1e6b6	-0.3474633
17	0xbf0729cb	-0.52798146
18	0xbed4c3ab	-0.41555533
19	0xbec048d1	-0.37555555
20	0xbed2cd75	-0.41172376
21	0xbebdb559	-0.3705242
22	0xbf0749f0	-0.52847195
23	0xbecbc805	-0.3980104
24	0xbee40eb9	-0.44542482
25	0xbef05fb5	-0.4694802
26	0xbeef9eac	-0.46800745
27	0xbec84efb	-0.39122757
28	0xbf13f730	-0.57799053
29	0xbef58ee3	-0.47960576
30	0xbee5c26c	-0.44874895
31	0xbed1d274	-0.40980875
32	0xbeed8da9	-0.4639714
33	0xbebe0e39	-0.37120226
34	0xbec719d9	-0.38886908
35	0xbed473bb	-0.41494545
36	0xbef01cd8	-0.46897006
37	0xbefb5d86	-0.4909479
38	0xbeed3a7f	-0.4633369
39	0xbeb2e3f6	-0.34939545
40	0xbecc15ef	-0.39860484
41	0xbec09743	-0.37615404
42	0xbee06bc1	-0.4383221
43	0xbea11f1a	-0.3146904
44	0xbf0e8a09	-0.55679375
45	0xbea15bec	-0.31515443
46	0xbeaf543b	-0.3424395
47	0xbee92875	-0.4553868
48	0xbe9bb05f	-0.30407998
49	0xbeab3177	-0.33436176
50	0xbee4c16b	-0.44678816
51	0xbede0741	-0.4336491
52	0xbed68754	-0.41900122
53	0xbef51621	-0.47868446
54	0xbeae257b	-0.3401297
55	0xbeb6919f	-0.35657975
56	0xbefa9afe	-0.48946375
57	0xbed61eb5	-0.41820303
58	0xbef93dd0	-0.48679972
59	0xbe94a7aa	-0.29034168
60	0xbeae0f24	-0.33995926
61	0xbed12179	-0.4084585
62	0xbebf4ad8	-0.3736179
63	0xbebc2640	-0.36747932
64	0xbf05c839	-0.5225864
65	0xbece0eb9	-0.40245607
66	0xbec66ae4	-0.38753426
67	0xbed2cbe8	-0.41171193
68	0xbec91a6f	-0.3927798
69	0xbed1cd21	-0.40976813
70	0xbef114c0	-0.47086143
71	0xbedf0395	-0.4355742
72	0xbeb28e1f	-0.34874055
73	0xbecf322d	-0.4046797
74	0xbecc28a5	-0.3987476
75	0xbec3f45b	-0.38272366
76	0xbeaafa42	-0.33394057
77	0xbeaad34b	-0.3336433
78	0xbedbe2e3	-0.42946538
79	0xbee93bd7	-0.45553467
80	0xbee35a97	-0.44405052
81	0xbea63fd0	-0.3247056
82	0xbec6f249	-0.38856724
83	0xbe8a3843	-0.2699605
84	0xbecff685	-0.40617767
85	0xbed6ea6f	-0.41975734
86	0xbf01dc32	-0.50726616
87	0xbec287ea	-0.3799432
88	0xbef2b40e	-0.47402996
89	0xbec99e66	-0.3937866
90	0xbedfafe4	-0.4368888
91	0xbeb9277a	-0.3616293
92	0xbed0bacc	-0.40767515
93	0xbed0f0ec	-0.4080881
94	0xbef6d904	-0.48212445
95	0xbeb1c73c	-0.34722316
96	0xbee5b779	-0.4486654
97	0xbeca13f6	-0.39468354
98	0xbe9d1064	-0.30676568
99	0xbec8703b	-0.39148125
100	0xbe95d63c	-0.2926501
101	0xbecbbfbc	-0.3979472
102	0xbea9b4a0	-0.33145618
103	0xbee1ef99	-0.4412811
104	0xbeedb1ba	-0.46424657
105	0xbeced302	-0.4039536
106	0xbed7b2b5	-0.4212853
107	0xbeaac706	-0.33354968
108	0xbeac3adf	-0.33638665
109	0xbed6c06e	-0.41943687
110	0xbece60de	-0.4030828
111	0xbeebdaff	-0.46065518
112	0xbf003ae8	-0.50089884
113	0xbef74266	-0.48292845
114	0xbef2bf6d	-0.4741167
115	0xbee9c4de	-0.4565801
116	0xbec3f49e	-0.38272566
117	0xbec8d58c	-0.39225423
118	0xbed9f82e	-0.4257216
119	0xbee64693	-0.4497572
120	0xbed9250b	-0.42411074
121	0xbe86f646	-0.26359767
122	0xbeeaf814	-0.45892394
123	0xbebee7a7	-0.37286112
124	0xbec1ab25	-0.37825885
125	0xbe95d0f8	-0.29260993
126	0xbea8d5d8	-0.3297565
127	0xbee2ba5e	-0.44282812

running_mean f4 [128]
0	0xbf761fe6	-0.96142423
1	0xbf70f2a6	-0.9412025
2	0xbf719959	-0.94374615
3	0xbf8095dd	-1.0045735
4	0xbf73b333	-0.9519531
5	0xbf7cf328	-0.98808527
6	0x3da557ea	0.08073409
7	0xbf437455	-0.76349384
8	0xbf1addd9	-0.6049476
9	0xbf6268b3	-0.8844101
10	0xbf206a7d	-0.6266249
11	0xbf9c1a28	-1.2195482
12	0xbf30a3ac	-0.68999743
13	0xbf27b70f	-0.655137
14	0xbf604e47	-0.8761944
15	0xbf0daa57	-0.5533804
16	0xbd6b4f09	-0.05744842
17	0xbf86ecd9	-1.054103
18	0xbf57705d	-0.8415583
19	0xbf7a1d8e	-0.97701347
20	0xbf35a286	-0.70951116
21	0xbed15cc2	-0.4089108
22	0xbf439462	-0.7639829
23	0xbf123ff8	-0.5712886
24	0xbf5cddb2	-0.8627578
25	0xbf412ad1	-0.7545596
26	0xbf6c0528	-0.9219537
27	0xbf097f85	-0.53710204
28	0xbf5e4e5b	-0.8683831
29	0xbddcab51	-0.107748635
30	0xbf952973	-1.1653274
31	0xbf048ffc	-0.517822
32	0xbdc88acd	-0.09792099
33	0xbecceee0	-0.40025997
34	0xbf4d0266	-0.80081785
35	0xbf27e29f	-0.6558017
36	0xbf36b67a	-0.7137219
37	0xbf81cd0f	-1.0140704
38	0xbf91f1b8	-1.1401892
39	0x3e3794f6	0.17927918
40	0xbf543189	-0.82888085
41	0xbf3bf690	-0.734231
42	0xbf6b4b9a	-0.91912234
43	0xbf019f57	-0.5063376
44	0xbe859802	-0.26092535
45	0xbf59b3bd	-0.85039884
46	0xbf5a5a7a	-0.85294306
47	0xbf49bd60	-0.7880459
48	0xbf36a6a8	-0.7134805
49	0xbe3792e1	-0.17927124
50	0xbf9738be	-1.1814191
51	0xbf88b033	-1.0678772
52	0xbf7458b7	-0.9544787
53	0xbf7fcc90	-0.9992151
54	0xbedc87be	-0.43072313
55	0xbf527055	-0.82202655
56	0xbf802b63	-1.001324
57	0xbf5dacca	-0.8659178
58	0xbe8a4ff9	-0.2701414
59	0xbe689072	-0.22711352
60	0xbf0ec8ca	-0.5577513
61	0xbe388b65	-0.18021925
62	0xbf5a0fce	-0.85180366
63	0xbf13cbb6	-0.57732713
64	0xbf8132da	-1.0093644
65	0xbf505c19	-0.8139053
66	0xbf7b0ce1	-0.98066527
67	0xbf6c9fc0	-0.9243126
68	0xbf2a4374	-0.66509175
69	0xbf6d26f6	-0.92637575
70	0xbf60331e	-0.87578
71	0xbf4c1149	-0.79713875
72	0xbf60cee3	-0.87815684
73	0xbf7a552b	-0.97786206
74	0xbf85e1db	-1.0459551
75	0xbf74c7ef	-0.95617574
76	0xbf11aea0	-0.5690708
77	0x3cc038f5	0.02346466
78	0xbe1c31a0	-0.15253305
79	0xbf863b96	-1.0486934
80	0xbf179a1d	-0.59219533
81	0xbf2e7e97	-0.6816191
82	0xbf7f866b	-0.9981448
83	0xbe93468e	-0.28764766
84	0xbf1e092d	-0.6173275
85	0xbf8dc03a	-1.1074288
86	0xbfa67434	-1.3004212
87	0xbf5c3472	-0.86017525
88	0xbf783857	-0.9696097
89	0xbf7f1103	-0.9963533
90	0xbf884788	-1.064683
91	0xbf20c268	-0.6279664
92	0xbe9e9c22	-0.30978495
93	0xbf328677	-0.6973643
94	0xbf6d9a16	-0.9281324
95	0xbd878008	-0.06616217
96	0xbfa01ba2	-1.2508433
97	0xbf07194e	-0.52772987
98	0x3d89cb5f	0.06728243
99	0xbf568e20	-0.83810616
100	0xbecb2869	-0.39679268
101	0xbf90c545	-1.1310202
102	0xbf065361	-0.52470976
103	0xbf8cae7c	-1.0990748
104	0xbf6c79a7	-0.92373127
105	0xbf692847	-0.91077083
106	0xbf38f113	-0.7224285
107	0x3d257d0c	0.040402457
108	0xbf07eaf0	-0.5309286
109	0xbf3970e8	-0.72437906
110	0xbf4b5f3f	-0.7944221
111	0xbf96a65f	-1.1769522
112	0xbf29c6a0	-0.663187
113	0xbf99f09a	-1.2026551
114	0xbf938237	-1.1524113
115	0xbec7758f	-0.38956878
116	0xbf58f692	-0.84751236
117	0xbee042b9	-0.43800905
118	0xbf51663e	-0.81796634
119	0xbf9131c4	-1.1343312
120	0xbf325742	-0.69664395
121	0xbe75bcab	-0.23997752
122	0xbf37d0c7	-0.71802944
123	0xbecf2ba7	-0.40462992
124	0xbf3be72d	-0.7339962
125	0x3dcabb48	0.09899002
126	0xbf4a14a3	-0.7893774
127	0xbf2ee5fc	-0.6831968

running_var f4 [128]
0	0x3f99196c	1.1960883
1	0x3f3bdbe1	0.73382384
2	0x3fa90443	1.3204426
3	0x3f8c69de	1.0969808
4	0x3f2f88ed	0.6856831
5	0x3f17f6ea	0.59361136
6	0x3f0c628a	0.5483786
7	0x3f99618b	1.1982893
8	0x3f5d7b0b	0.86515874
9	0x3f837c4b	1.0272306
10	0x3f3a76b0	0.7283735
11	0x3fc0e281	1.5069124
12	0x3f5d9e4c	0.86569667
13	0x3f7c7bee	0.986266
14	0x3fee7b92	1.8631461
15	0x3f02a255	0.5102895
16	0x3f569132	0.838153
17	0x3fbf558d	1.4947983
18	0x3f7425e8	0.9537034
19	0x3f8abac0	1.0838242
20	0x3f834202	1.0254519
21	0x3f493b04	0.78605676
22	0x3f44db05	0.768967
23	0x3f93dac8	1.1551142
24	0x3f4f0b6f	0.8087682
25	0x3f61443f	0.8799476
26	0x3f88368e	1.0641649
27	0x3f87cad3	1.0608772
28	0x3f46afcd	0.77612
29	0x3f180ff6	0.59399354
30	0x400a2dce	2.1590457
31	0x3f273a62	0.6532346
32	0x3f340d32	0.70332634
33	0x3f9dc954	1.2327065
34	0x3fbd24a6	1.4776809
35	0x3f3fa672	0.7486335
36	0x3f6436f8	0.89146376
37	0x3fb23835	1.3923403
38	0x3f9ad2b4	1.2095551
39	0x3f2f2b4f	0.6842546
40	0x3fb62714	1.4230676
41	0x3f56750f	0.8377237
42	0x3f6e8e04	0.9318545
43	0x3f8bb215	1.0913721
44	0x3e9a9f35	0.3019959
45	0x3fa855a3	1.3151134
46	0x3fabc3b0	1.3419094
47	0x3f66ce40	0.9015846
48	0x3fc36c1c	1.5267367
49	0x3f2ab071	0.6667548
50	0x3feb83b8	1.8399572
51	0x3fb9efe0	1.4526329
52	0x3f5eb4d1	0.86994654
53	0x3fa12a6c	1.2591071
54	0x3f27938e	0.65459526
55	0x3fa0a787	1.2551125
56	0x3f8ce8c3	1.1008533
57	0x3fd229d5	1.6419016
58	0x3ef3d57d	0.47623816
59	0x3f3af88c	0.730355
60	0x3f57e7e5	0.8433822
61	0x3f2235a4	0.633631
62	0x3f83cabc	1.0296245
63	0x3f8efa12	1.1170065
64	0x3fb4b8af	1.4118861
65	0x3f899d4d	1.0751129
66	0x3fcf8b2b	1.6214346
67	0x3fa51f9b	1.290027
68	0x3f46f5dc	0.777189
69	0x3fb95532	1.4479125
70	0x3f89a6d3	1.0754036
71	0x3f493729	0.7859979
72	0x3fa1be3c	1.263618
73	0x3fbfe122	1.499058
74	0x3fdccd54	1.7250161
75	0x3fb1cbac	1.3890281
76	0x3f6f7143	0.935322
77	0x3f23cf67	0.63988346
78	0x3f2d794f	0.6776323
79	0x3f9525f1	1.1652204
80	0x3f1ec4ee	0.6201924
81	0x3f68f8ce	0.91004646
82	0x3f54395c	0.82900023
83	0x3f96929d	1.1763493
84	0x3f17e625	0.5933555
85	0x3fa99ba5	1.3250624
86	0x3fb5f5e9	1.4215671
87	0x3fb567e7	1.4172333
88	0x3f84f3ad	1.0386864
89	0x3fd40c00	1.6566162
90	0x3f927161	1.144085
91	0x3f9268ab	1.1438192
92	0x3f7604e3	0.96101207
93	0x3f5aa3c2	0.85406125
94	0x3f85d2ff	1.0455016
95	0x3f094d21	0.53633314
96	0x3fd7bf9d	1.6855351
97	0x3f5fb303	0.87382525
98	0x3f62d632	0.88608086
99	0x3fb5dbcd	1.4207703
100	0x3f3c82a7	0.7363686
101	0x40037f21	2.0546343
102	0x3f58f62e	0.8475064
103	0x3fb8706d	1.440931
104	0x3f7f4a65	0.9972289
105	0x3fb9aa03	1.4505008
106	0x3f69c067	0.9130921
107	0x3f0bad3c	0.5456121
108	0x3f6c588a	0.923226
109	0x3f2ce1ed	0.67532235
110	0x3f9e8369	1.2383853
111	0x3fa8dd12	1.3192465
112	0x3f524ed6	0.82151544
113	0x3f95fa42	1.1716998
114	0x3f9f0705	1.2424017
115	0x3f449513	0.7678997
116	0x3f98a4a6	1.1925247
117	0x3f5558db	0.8333871
118	0x3f58e55d	0.8472498
119	0x3fe916c4	1.8210073
120	0x3fa3381c	1.2751498
121	0x3f64cbf1	0.8937369
122	0x3f2002a2	0.6250402
123	0x3f926a95	1.1438776
124	0x3f967389	1.1754009
125	0x3f3cdef0	0.73777676
126	0x3f97af49	1.1850368
127	0x3f26a712	0.6509868

weight f4 [256, 128, 3]
0	0xbc94b9e8	-0.018155053
1	0xbce740af	-0.028229086
2	0xbccb2f59	-0.02480285
3	0xbe0e0123	-0.13867621
4	0xbe27e4ef	-0.16395925
5	0x3c9ff927	0.019527985
6	0xbe43038b	-0.1904432
7	0xbeae60a0	-0.34058094
8	0xbe34e434	-0.17665178
9	0x3df1ab4e	0.11800252
10	0x3d5537dd	0.05205523
11	0x3d3a23e7	0.045444395
12	0x3d0a0458	0.03369555
13	0x3d96d124	0.07364109
14	0x3db5d5f2	0.088786975
15	0xbe1d5b5d	-0.15366884
16	0xbe87b3b9	-0.26504305
17	0xbd8244df	-0.06360792
18	0x3cee3f9e	0.02908307
19	0x3d069017	0.03285226
20	0x3cc8138f	0.024423389
21	0x3d5a1b1c	0.05324851
22	0x3d54143f	0.05177712
23	0x3dc464e1	0.095895536
24	0xbd7d2fdb	-0.061813217
25	0xbe64cf3f	-0.22344683
26	0xbe548aab	-0.20756023
27	0xbca53ea6	-0.020171475
28	0xbb438955	-0.0029836495
29	0x3aeec443	0.001821645
30	0x3deef7aa	0.11668332
31	0x3e3e3cc4	0.18577868
32	0x3cb921f0	0.02259919
33	0xbc825f46	-0.01591457
34	0xbd44dcfb	-0.048062306
35	0x3c99c931	0.018772693
36	0x3d68a915	0.056801874
37	0x3cca06a3	0.024661368
38	0x3da713eb	0.08158096
39	0xbe9c36ab	-0.30510458
40	0xbe994242	-0.29933363
41	0xbe89ee61	-0.2693968
42	0xbddb0cb1	-0.1069578
43	0xbe8268fe	-0.25470728
44	0xbe51b4ab	-0.20479076
45	0xbe11c1fb	-0.14234154
46	0xbddcf3fa	-0.10788722
47	0xbe2182ca	-0.15772548
48	0x3df6f1d4	0.12057844
49	0x3e0088b0	0.12552142
50	0x3dbc6358	0.09198636
51	0x3be34c8e	0.0069366163
52	0x3d2fa6e7	0.04288378
53	0xbd140a0c	-0.036142394
54	0x3e1ca3d3	0.15296869
55	0x3e25041e	0.16114852
56	0x3da9cea6	0.08291368
57	0xbcd6efbe	-0.026237365
58	0xbcbb8cea	-0.022894341
59	0x3cb43e6b	0.02200242
60	0x3d1d015e	0.038331382
61	0x3cbd7a5d	0.023129636
62	0x3dd9fcc7	0.106439166
63	0x3c9b1745	0.018931994
64	0x3cb9cc47	0.022680415
65	0x3d8f886b	0.070084415
66	0x3df699d7	0.12041061
67	0x3d825791	0.06364358
68	0x3d7cca59	0.06171641
69	0x3d69c952	0.05707676
70	0x3db48310	0.08814061
71	0x3d96bfc5	0.07360796
72	0x3cc89c09	0.024488466
73	0x3d356351	0.04428417
74	0x3d265da7	0.040616658
75	0x3e070815	0.13186677
76	0x3dc690bf	0.09695577
77	0xbd6d9968	-0.058007628
78	0xbd732364	-0.059359923
79	0xbd77beb0	-0.06048459
80	0xbc4375d2	-0.011929946
81	0xbd6136fb	-0.054984074
82	0xbdbac6b1	-0.09119929
83	0x3d69d0c8	0.057083875
84	0xbd41ae21	-0.047285203
85	0xbd231840	-0.03981805
86	0xbd8de20b	-0.0692788
87	0x3d119df7	0.035551038
88	0xbd729597	-0.05922469
89	0xbd9db5c9	-0.077006884
90	0xbd609b9e	-0.054835908
91	0xbcbd811e	-0.023132857
92	0x3dbebad7	0.093129806
93	0xbd09a465	-0.033604044
94	0xbaa60381	-0.0012665839
95	0x3d836cce	0.06417237
96	0xbbd84f8d	-0.00660128
97	0xbe01ef62	-0.12688974
98	0xbdfe260e	-0.12409602
99	0x3cc65435	0.024210075
100	0x3cebebb1	0.02879891
101	0x3b2c36d8	0.0026277807
102	0xbe1bf2f7	-0.15229402
103	0xbe1ebc00	-0.15501404
104	0xbd8e38e6	-0.06944446
105	0xbca2dbad	-0.01988014
106	0xbdd1cb01	-0.10243798
107	0xbd97909c	-0.07400629
108	0x3dd16286	0.1022387
109	0xbb7ebd34	-0.0038870098
110	0x3d5bfbaf	0.05370682
111	0x3ddece6a	0.10879214
112	0x3e31e579	0.17372693
113	0x3e0e7746	0.13912687
114	0xbcdd7936	-0.027035337
115	0xbda8226e	-0.08209692
116	0xbde06e37	-0.10958522
117	0x3cb4e692	0.0220826
118	0x3c9e72a3	0.019341772
119	0x3d130953	0.035897564
120	0xbc13ef6f	-0.009029253
121	0x3b968ad0	0.0045941845
122	0x3d08dc55	0.03341325
123	0xbd9de011	-0.07708753
124	0xbda1c1c7	-0.07898288
125	0x3c01c592	0.00792064
126	0xbdc18e4f	-0.09450971
127	0xbdba7b6b	-0.09105571
128	0xbdaf5488	-0.08561045
129	0x3cad579b	0.021159938
130	0x3d221bb7	0.039577212
131	0x3cf51765	0.029918382
132	0x3d49db3c	0.049281344
133	0xbabeb6ed	-0.0014550366
134	0xbdc97e88	-0.09838587
135	0xbcd57dae	-0.026060905
136	0x3c67c15a	0.01414522
137	0x3c4d90db	0.012546743
138	0xbd262fce	-0.040572934
139	0x3c723913	0.014784115
140	0x3d8cbcf2	0.06871976
141	0xbe51ef9d	-0.20501561
142	0xbea22ecb	-0.31676325
143	0xbe52f6eb	-0.20602004
144	0x3d74da74	0.059778646
145	0x3c1c7187	0.009548551
146	0x3c99124f	0.018685488
147	0x3c872861	0.016498746
148	0xbccac37f	-0.024751423
149	0x3d851dcd	0.06499825
150	0xbd19fe70	-0.037596166
151	0x3c802181	0.015640976
152	0x3d8641e9	0.0655554
153	0xbd97ea02	-0.0741768
154	0xbd86ac41	-0.065758236
155	0x3bdc4ed9	0.0067232666
156	0x3cf8c205	0.030365953
157	0x3d0c26ed	0.03421681
158	0xbb8fb67d	-0.004385768
159	0x3d4b0274	0.049562886
160	0x3d7f04bb	0.06226037
161	0x39eb9bce	0.00044938776
162	0xbcea8743	-0.028628951
163	0xbd26d594	-0.040731028
164	0xbd7850d3	-0.060623955
165	0x3ca6ebd4	0.020376123
166	0xbcdc5685	-0.026896724
167	0xbcb075e2	-0.021540586
168	0x3dedc2c7	0.116094165
169	0x3de6955b	0.11258956
170	0x3d4e6c5c	0.05039631
171	0xbca19a19	-0.0197268
172	0xbd517839	-0.051140044
173	0x3cd7b1a6	0.026329827
174	0xbe1bf6f9	-0.15230931
175	0xbe1268dc	-0.14297813
176	0xbdf0f0d0	-0.11764681
177	0xbd6ffe3d	-0.05859207
178	0xbda0d7a7	-0.078536324
179	0xbd0534de	-0.03252112
180	0x3cfa0930	0.030521959
181	0x3d4d1630	0.050069988
182	0xbcf71aef	-0.03016421
183	0x3d686c46	0.056743883
184	0x3da37c14	0.079826504
185	0x3ce436c8	0.027858153
186	0x3d45a7dc	0.048255786
187	0x3dc3a806	0.09553532
188	0x3d50cf74	0.050979093
189	0x3df6c723	0.12049701
190	0x3e27a36c	0.16370934
191	0x3df48b70	0.11940658
192	0x3be3ea22	0.006955401
193	0x3d41aa48	0.047281533
194	0x3ca68b7f	0.020330189
195	0xbe56fa79	-0.20993985
196	0xbe900421	-0.2812815
197	0xbcd3103f	-0.025764583
198	0x3d80be23	0.06286266
199	0x3dc66fee	0.09689318
200	0x3e0238ec	0.12717026
201	0xbd205315	-0.039141733
202	0x3d8af11d	0.0678427
203	0x3d9c84b3	0.07642498
204	0x3e2031aa	0.15643945
205	0x3e486d5d	0.19572969
206	0x3da5a5fb	0.08088299
207	0x3e574906	0.2102395
208	0x3e464569	0.19362415
209	0x3e188f0c	0.14898318
210	0x3d9877c4	0.074447185
211	0x3d3f511d	0.046708215
212	0x3def5840	0.11686754
213	0xbe811e38	-0.25218368
214	0xbe8d448c	-0.2759136
215	0xbe807389	-0.25088146
216	0x3d39d1de	0.04536616
217	0xbd3a4fc6	-0.045486234
218	0xbabcf339	-0.0014415748
219	0xbcad0c5c	-0.021124057
220	0x3c8a395c	0.016873054
221	0x383f9bb2	4.568295e-05
222	0xbdb02661	-0.0860107
223	0x3c3980e0	0.01132223
224	0x3d5148a9	0.051094685
225	0xbd2a8415	-0.04162987
226	0xbd3ff641	-0.046865705
227	0x3c2f003e	0.01068121
228	0x3d31cef9	0.043410275
229	0x3dc86986	0.09785752
230	0x3def4c77	0.116845064
231	0xbd147e25	-0.036253113
232	0xbd8ef99d	-0.06981204
233	0xbe0d0420	-0.13771105
234	0xbe1787a8	-0.14797843
235	0xbe361d43	-0.177846
236	0xbe59a000	-0.21252441
237	0xbe4e3054	-0.20135623
238	0xbe44c62b	-0.1921622
239	0xbd8fa39b	-0.07013627
240	0x3da47f29	0.080320664
241	0x3d101ad6	0.035181843
242	0x3d03338a	0.032031573
243	0xbe42763e	-0.18990418
244	0xbe667e70	-0.2250917
245	0xbe2aa751	-0.16665389
246	0xbe231132	-0.15924528
247	0xbe96f738	-0.29485488
248	0xbd9d4625	-0.07679395
249	0xbe280737	-0.16409002
250	0xbd7a84c9	-0.06116179
251	0x3c695cc9	0.014243313
252	0xbd49df4c	-0.049285218
253	0x3d40e2ad	0.047091175
254	0x3d30f933	0.043206405
255	0xbb46f2da	-0.0030357153
