14_labels_86.pth (torch, 565316 bytes, 20 tensors)

weight f4 [64, 48, 3]
00000000: 011d 883e 9802 3b3e 6ef7 503e dd15 cdbd
00000010: b86d 3fbe 60f7 32be 9b07 95bd ea9a ecbd
00000020: d9a1 d3bd 22f7 853d 0f02 873d 6293 cd3d
00000030: e7ff 2abc 2b14 0e3e 627c 133e f036 80bd
00000040: 11f8 25bd 4c53 13bc 0172 c33c af22 34bd
00000050: 31e2 adbd 36db 80ba 6493 e53c ee8c 7c3d
00000060: d359 debb c22f aabb 1ea6 dd3c ac8f 92bd
00000070: d8f7 a4bc 2288 0f3d 9f4f debd 83a4 8dbd
00000080: d6e3 2e3c f9ff 7cbe c2e0 72be d3cd 6bbe
00000090: b4fe a3bd cfd3 adbd 68cc 1abe b6b0 903e
000000a0: c1b8 903e 5446 883e 220e 2dbe ce81 16be
000000b0: ffe3 27be 93b6 b2bd 1799 6cbc 4d8c d0bc
000000c0: e132 1bbc 7452 cf3d 1810 6c3d 05b9 45bd
000000d0: 5cef f33c e74f c53d 22c1 b0bd 1465 28be
000000e0: 79f8 e0bd c4c8 2c3e 1d2b 0a3e 946b 9f3d
000000f0: badf e83c 05f8 7e3d 3e41 d83d a36a 9c3d
00000100: f9b2 e63d e591 1a3e 9e30 893c 7b68 c03c
00000110: edc2 98bd f938 52be 013f c9bd a252 c7bd
00000120: c44f 41bd 0e50 22bd 63e3 97bd 84bb 10bd
00000130: 52aa 17bd 9370 dc3a 7ed1 973d eb81 133e
00000140: ad08 0a3e 3c3a 6ebd efff 95bd dc10 ddbc
00000150: 9dec 8b3c c0a1 d53c b368 bb3d 646e 613d
00000160: 434e bf3d 4486 fe3d 5d97 663d fb83 3f3c
00000170: 214a f03c 22ee a0bc 41ac cfbd 45b6 fdbd
00000180: 37b6 92bd b8f1 4bbd 279c 08bd 6567 513d
00000190: 70f4 b23d 82f2 9a3d 458b 9d3d b122 6f3d
000001a0: 6c27 233e eada 033e d5db 013e 9ed7 6d3e
000001b0: 8df1 c43d 2ed3 4abd e847 9c3c dc47 043b
000001c0: b923 043d ec73 013b 331a 823d 98ab 1a3d
000001d0: 68ba 2e3d 39a3 6cbe 788d 2fbe 5ed3 27be
000001e0: ec89 1b3e b341 563e 21ed 663e 9e7f 103e
000001f0: 30b0 1d3e e06d 733e 4734 18be 50a8 26be
00000200: 28ad 31bd 4d40 6fbe 6e27 55be be32 81be
00000210: 68d2 a3bc e254 c5bc a7e4 0ebd 7c4a e6bc
00000220: 78d5 423d 3993 363d 237a 0bbe 5c60 dabd
00000230: adfd a9bc ef23 c6bd 3626 92bd 8731 cabd
00000240: 9f8f f4bd 38f9 dabd f781 c2bd 3179 4d3d
00000250: 7193 da3d 7681 c13d 759f febb 4f18 8e3d
00000260: ca80 6c3c 0f92 a53d 62aa 8f3b 367d d53c
00000270: 2b84 bbbd b3a3 14bd 97a5 ccbd 8ced e53c
00000280: f0cd 79ba 862e 583c 6eee 563e fead 343e
00000290: f6ff fb3d 6490 163d dad1 7bbd 5151 80bd
000002a0: 515d 51bd 0926 bfbd ba7f 21be 812d 4dbd
000002b0: 8fbc 87bd b600 a9bd db73 5a3d d4c7 b23a
000002c0: d91e 08bc 985d 403e 2700 473e da56 113e
000002d0: fac9 f43d dcd0 ca3d b71d a43d f0d2 98bd
000002e0: 4d1a b73c 5326 063d c931 b93c 4944 cd3d
000002f0: 678a c63d 65c9 cf3d f109 213e 25da 123e
00000300: 77e8 b4bd d226 fbbc a8bb 09bd f7e4 ddbd
00000310: 9580 fabd 05e1 37bd edc3 bd3b 7fd5 9c3c
00000320: 45cf 94bc 1ad4 133d 0ae0 5abc fe8b d43c
00000330: b441 843d 783b 853d 46cc 133c 73a3 e1ba
00000340: 3da5 c1bb 2efb 913c 1830 11be 1145 6dbe
00000350: 3653 34be 5138 9cbd 2181 1cbd 481d 29be
00000360: 6f84 d2bd d967 02be 0d01 43be e2ff 0fbe
00000370: 768a 0bbe df23 1bbe c4fd 343e 708b ea3d
00000380: e5bd bf3d 6fc2 ec3d b089 143e 31fd 003e
00000390: 3a20 07bd 5e09 963c e2b3 283d 9fc7 afbc
000003a0: 14bf 9cbd cdb5 1cbd 6731 663e 8290 733e
000003b0: 69af 643e ffd7 5fbe 38cf 81be ecde 63be
000003c0: c590 403d 6efa 883d d4b6 663d d900 30be
000003d0: ca4f 23be 3f4c ecbd 22d4 bf3c b0b8 563d
000003e0: 5f9b 7cbb 9af8 b23d 6b7c 733d 9af3 073e
000003f0: 6535 f9bd 6e21 bcbd ea9c b2bd b374 02be
0.26584628 0.18262708 0.20406887 -0.10013936 -0.18694198 -0.17477179 -0.07276841 -0.11552985
-0.10333604 0.065412775 0.065921895 0.10037877 -0.010436988 0.13874881 0.14402917 -0.062604785
-0.040519778 -0.0089920275 0.023858072 -0.04397839 -0.08490408 -0.0009830955 0.028024383 0.06165784
-0.00678561 -0.0051936815 0.02705675 -0.071563095 -0.020137712 0.035041936 -0.1085503 -0.06916144
0.0106744375 -0.24707021 -0.23718551 -0.23027734 -0.08007565 -0.08487665 -0.15117037 0.2825982
0.28265956 0.26616156 -0.16899922 -0.14697954 -0.16395567 -0.087262295 -0.014440796 -0.025457526
-0.00947258 0.101231486 0.057632536 -0.04827215 0.029777221 0.09634381 -0.08630587 -0.16444808
-0.109848924 0.16873461 0.13493009 0.07784191 0.028426994 0.06224825 0.10559319 0.07637527
0.11264605 0.15094717 0.016746815 0.02348732 -0.07459054 -0.20529546 -0.0982647 -0.09732558
-0.04719521 -0.039627127 -0.074164174 -0.03533508 -0.037027664 0.0016818218 0.07413004 0.14405029
0.13479872 -0.058161005 -0.07324206 -0.026985578 0.0170806 0.026078105 0.09150829 0.055036917
0.09341099 0.12427953 0.056296695 0.011689181 0.029332222 -0.0196448 -0.10140277 -0.12388281
-0.07163661 -0.049791068 -0.033352043 0.051123995 0.08738029 0.07565786 0.07692579 0.058382694
0.15933007 0.12876478 0.12681516 0.23226783 0.09616385 -0.049517803 0.019077256 0.0020184433
0.03226063 0.0019752933 0.06352653 0.0377613 0.04265824 -0.2310914 -0.1714381 -0.16389224
0.15189332 0.209235 0.22551395 0.14111182 0.15399241 0.23772383 -0.14863692 -0.16275144
-0.043378025 -0.23364373 -0.20815822 -0.25234026 -0.01999779 -0.024088327 -0.03488603 -0.028111689
0.04756686 0.044573996 -0.1362081 -0.1066291 -0.020750845 -0.096748225 -0.071361944 -0.09872728
-0.11941456 -0.10692066 -0.09497445 0.050164405 0.106726535 0.09448521 -0.0077704736 0.0693823
0.014435003 0.08084499 0.004384325 0.026060682 -0.091560684 -0.03628893 -0.09992521 0.028067373
-0.0009529283 0.013194686 0.20989391 0.17644498 0.1230468 0.036758795 -0.061479427 -0.0626551
-0.051114384 -0.093334265 -0.1577138 -0.050092224 -0.066277616 -0.08252089 0.053333145 0.0013639876
-0.008308136 0.18785703 0.19433652 0.14193287 0.119525865 0.09903118 0.0801348 -0.07462108
0.022351408 0.032751393 0.022606747 0.1002279 0.09694367 0.10145835 0.15726449 0.14341028
-0.08833402 -0.03065816 -0.03362623 -0.10834687 -0.12231556 -0.04489233 0.0057911784 0.019144772
-0.01816524 0.036090948 -0.013359079 0.02594566 0.064578444 0.065054834 0.009020871 -0.0017214849
-0.0059095905 0.017819967 -0.14178503 -0.23170878 -0.17609867 -0.07627929 -0.038209084 -0.16515076
-0.10279166 -0.12734927 -0.1904337 -0.14062455 -0.13627037 -0.15150402 0.17674929 0.11452377
0.093623914 0.11560523 0.14505649 0.12596585 -0.032989718 0.018315013 0.041187175 -0.021457491
-0.07653633 -0.038259316 0.22479783 0.23785594 0.22332539 -0.2185974 -0.25353408 -0.22253007
0.047013063 0.06688391 0.056326702 -0.17187823 -0.15948406 -0.1153798 0.023416582 0.052422225
-0.0038544757 0.08738823 0.059444826 0.1327652 -0.12168387 -0.09186064 -0.08721335 -0.1273983

bias f4 [64]
00000000: 234b 6c3d 9c13 333d 79ab e63b 7a4c 503d
00000010: 200c 62bd bf97 64bd 8e7f a3bd ed1e 283b
00000020: 3398 ddbd e4db 7dbc 4999 7b3e 5f59 293d
00000030: e4de 193e 4411 8f3b 02e2 87bd 7561 a1bd
00000040: dcd5 ee3c ff9f 29bd 8d2c 8a3d ba4a c93c
00000050: b6ee 19be 13f4 94bd 1814 13bd c63c b1bd
00000060: 9c24 43bc c188 333c 234f 64bd 82af d6bc
00000070: 28d5 643d d280 9abc 1bbf b5bc 8d74 c0bc
00000080: f18b 94bd 22dc f5bc 805a f63d 2a01 b03d
00000090: 39c2 bebd 6231 dcbd 13e7 0bbd e959 fc3d
000000a0: c145 1c3c 9f0c 793c 5def 553d ea38 5cbd
000000b0: a6a2 83bd 9fb7 27bd e7a8 76bd f322 263c
000000c0: ab54 6e3c e106 c03d e144 47bd 086f ea3d
000000d0: b309 883c a1b6 a73a 090c cf3b 4dc4 4d3d
000000e0: 1ef0 d2bd e83a b3bd d140 a1bc 801d d6bd
000000f0: d942 47bc 6684 5fbd 8f27 36bd 3377 86bd
0.057688843 0.043719873 0.007039484 0.050854184 -0.055187345 -0.05580878 -0.079833135 0.0025653199
-0.10820045 -0.015494321 0.24570192 0.041344997 0.15026432 0.004366072 -0.066349044 -0.078799166
0.02915471 -0.04141235 0.06746779 0.024571765 -0.15032467 -0.07273116 -0.035907835 -0.0865417
-0.011910584 0.010957898 -0.055739533 -0.026206736 0.055867344 -0.018860254 -0.022185853 -0.023493076
-0.07253254 -0.030012194 0.1202898 0.08593972 -0.09314389 -0.107516065 -0.034155916 0.123218365
0.009538115 0.015200763 0.052230228 -0.053765215 -0.06427507 -0.0409466 -0.06021967 0.0101401685
0.014546554 0.09376312 -0.048649672 0.11446959 0.016606187 0.0012795517 0.0063185734 0.050236035
-0.10299705 -0.0875147 -0.019684227 -0.104548454 -0.012161934 -0.054569624 -0.04447132 -0.06565704

weight f4 [64]
00000000: 766a f83e 5ef0 183f b1ac f73e 3ac0 1e3f
00000010: 3ae4 0d3f 6a21 193f 5e13 eb3e 562f 193f
00000020: 2782 0b3f bd29 0a3f cdd9 123f 150b 2e3f
00000030: 8277 143f f913 e53e 9ef7 123f c7e4 ff3e
00000040: 757b 123f 4d0a ea3e dbc5 0e3f bbeb fa3e
00000050: 0127 dc3e 9dfd 0c3f 3d5c 143f 04fe 0f3f
00000060: e488 233f a183 fa3e 68e0 113f 2bfb f33e
00000070: 8c62 0a3f 41fa 123f f463 f73e 0f81 0c3f
00000080: 3158 083f 913b b73e 14ca 133f fd68 123f
00000090: 6e29 0a3f 25cd 213f ad9b f23e 6fe7 143f
000000a0: 2eba 083f eadd fa3e 9868 0d3f 11e6 203f
000000b0: 871e 1a3f 1900 e73e 996c 373f d9b7 f93e
000000c0: 3ebc d13e ec2e 053f 79d3 183f 490b 123f
000000d0: bd65 0c3f 4ea7 133f b1b2 243f f0ab e73e
000000e0: 69f2 143f 82bc fd3e 4d70 093f f9c1 113f
000000f0: 8ffb 0f3f 6985 eb3e 7123 093f 9a4b 0c3f
0.48518723 0.5974177 0.4837394 0.62012064 0.5542637 0.5981661 0.45913213 0.59837854
0.5449547 0.5396994 0.5736359 0.6798566 0.57994854 0.447418 0.57409084 0.4997923
0.5721963 0.45710984 0.55770653 0.49007973 0.42998508 0.55074483 0.57953244 0.5624697
0.63880754 0.4892855 0.5698304 0.47652563 0.5405662 0.5741311 0.48318446 0.5488443
0.5325957 0.35787633 0.5773022 0.5719145 0.53969467 0.6320365 0.47384396 0.5816564
0.5340909 0.48997432 0.5523772 0.62851053 0.6020283 0.45117262 0.7165008 0.48773077
0.4096393 0.5202472 0.5969768 0.5704847 0.5484274 0.5767716 0.6433516 0.45248365
0.5818239 0.49557883 0.5368698 0.56936604 0.5624322 0.4600022 0.53569704 0.5480286

bias f4 [64]
00000000: ea9e 87be 7e03 cdbe 9b2f d1be 856c 13bf
00000010: 87a0 04bf 9ab7 11bf cfe2 85be 9185 05bf
00000020: be79 cdbe 6232 cbbe 6e7e 03bf 17ce 05bf
00000030: fda9 21bf 3a24 82be f9b1 f4be 531a fdbe
00000040: bb2d f4be 0082 5cbe 4649 d3be f57a a2be
00000050: cb9b 49be 8b21 f0be d182 fcbe daa7 cbbe
00000060: d842 ebbe b3c8 8cbe 4393 f6be 02f6 7cbe
00000070: cc8b ddbe d735 c2be 95db 71be 8f4a ebbe
00000080: 90e5 a5be 0b0e 2bbe 5993 10bf e8cb 04bf
00000090: 68cf 95be 3143 0abf 7b9a 9dbe 14a3 0bbf
000000a0: 0f9a dcbe 8630 a6be 3bb5 1abf ccdb 05bf
000000b0: 8dfb 00bf 527c 81be 0203 34bf c837 5cbe
000000c0: 1b6d 22be c494 87be 92af f2be 37a1 f2be
000000d0: 3f5f a9be 85ee f2be 9b77 06bf c130 99be
000000e0: 4097 2cbf e518 b4be a6c7 dabe fbcb f0be
000000f0: d59f c6be a886 90be beab 0cbf 4dab d5be
-0.2648843 -0.40041727 -0.40856633 -0.5758746 -0.51807445 -0.5692078 -0.26149604 -0.5215693
-0.40131944 -0.39686877 -0.5136479 -0.52267593 -0.63150007 -0.25418264 -0.47792032 -0.49434146
-0.4769114 -0.21533966 -0.4126684 -0.31734434 -0.19688337 -0.4690059 -0.49318555 -0.39776498
-0.45949435 -0.2749687 -0.48159227 -0.2470322 -0.4327072 -0.37931702 -0.2361892 -0.4595532
-0.32401705 -0.16704576 -0.56474835 -0.51873636 -0.292598 -0.54008776 -0.30781922 -0.5454571
-0.43086287 -0.32458895 -0.60432786 -0.5228851 -0.50383836 -0.2529016 -0.7031709 -0.21505654
-0.15861933 -0.26480687 -0.47399575 -0.47388622 -0.3308048 -0.474476 -0.52526253 -0.2992001
-0.6741829 -0.35175243 -0.42730445 -0.47030625 -0.38793817 -0.28227735 -0.5494956 -0.41732255

running_mean f4 [64]
00000000: b9c6 f9bd a817 05be 38d3 363f 3474 acbe
00000010: c249 4cbf 5f65 1fbf 45e1 4a3f 2e49 e5bf
00000020: e75c 83bd 00f5 d93f 6424 973f 239a ed3e
00000030: e745 d43f 0e6e 89bf d62e edbf 5bf9 81bf
00000040: 2eda 38be c680 debf 7c08 6e3f ea14 893e
00000050: 9b44 bdbf 84d6 8ebf 31d8 fabe c9ac f5bf
00000060: 45c0 aebd c419 4abf 6a46 313e 8905 2fbf
00000070: 9dae 14bf 7e30 b33f 9e5b d43f f677 e03e
00000080: 0e0d 183e 4cb9 2c3e 08b5 693f 597c d73f
00000090: 5ef9 f9be c824 113e 0645 84be b831 83bf
000000a0: a7de dabe 1671 b5bf a058 dfbf a205 293e
000000b0: 1b0d 0e3f 2479 0fc0 a74b 32bf c15b 8ebf
000000c0: 5284 35bf 4f17 893f 57a4 a6bf f7ca ef3c
000000d0: bed9 3440 c220 9dbf 6976 723e 8284 053f
000000e0: e5c9 3abf 3d40 7dbf 3eb7 04bf 3988 24bf
000000f0: d1cd 023f 4538 2e3f 6888 69bf 8bbd 873d
-0.121961065 -0.12997305 0.71416044 -0.33682406 -0.79800045 -0.62264055 0.79249984 -1.7912958
-0.06414204 1.7027893 1.180798 0.4640666 1.6583833 -1.0736711 -1.8529918 -1.0154222
-0.18051979 -1.7383049 0.92981696 0.2677377 -1.4786562 -1.1159215 -0.48993066 -1.9193355
-0.08532766 -0.78945565 0.17312017 -0.6836782 -0.5807894 1.3999174 1.6590459 0.43841523
0.1484873 0.1686756 0.91291857 1.6834823 -0.48823065 0.14174187 -0.2583391 -1.0249548
-0.42747995 -1.4175136 -1.7448921 0.16506055 0.5548875 -2.2417688 -0.69646686 -1.1121751
-0.7090503 1.0710238 -1.3018903 0.029271586 2.82579 -1.2275622 0.23677982 0.52155316
-0.72964317 -0.98926145 -0.51842105 -0.6427036 0.510953 0.6805461 -0.91223764 0.06627949

running_var f4 [64]
00000000: b46a d53e e4a4 663e 02ae f53e 6f42 d63e
00000010: 0e3a 843e 5ecd bb3e c03b c23e 2d0a d83e
00000020: fcc2 0d3f 23fd 1a3f cbcb 523e 90cd e53e
00000030: a752 7f3e 3ee1 9d3f b626 3f3f b755 913e
00000040: 59e0 393f 52a2 ad3e f4b7 e23e 8ed5 8b3e
00000050: 1fb8 873e bc71 223f a8f8 1a3e e93a b63e
00000060: 485f 193f e0ae 953f da39 213e 7dab 373f
00000070: 07bc 973e 40a4 4d3f 00db 093f fb83 883e
00000080: 1529 953e 82e7 7d3e cc95 443e 2d52 943e
00000090: e4ea 913e 6ba8 9f3e 2111 393f a75a c43e
000000a0: 147a 5c3e 2d17 1b3f 657c fe3e 7112 c23e
000000b0: 0188 663e b360 c33e c5d0 253f 5b95 203f
000000c0: 3843 813e e983 3a3f 21b6 a73e b59b 913e
000000d0: 181c d13e f55b 6e3f 925d 183f 5313 573f
000000e0: f683 1a3e 33c8 033f 410f 293e 617b 943e
000000f0: be64 043f 6944 a63e fc1a c33e cc2a 6d3e
0.4168297 0.22523838 0.4798432 0.4184756 0.25825542 0.3668012 0.3793621 0.42195264
0.5537565 0.60542506 0.20585553 0.44883394 0.24933873 1.2334363 0.74668443 0.28385708
0.7260795 0.33912903 0.4428097 0.27311367 0.2650766 0.63454795 0.15133917 0.3559182
0.5991101 1.1693993 0.15744725 0.71746045 0.2963564 0.8032875 0.5384979 0.26663193
0.29132906 0.24795344 0.19197768 0.28968945 0.2849952 0.3118318 0.7229176 0.38350412
0.21530944 0.6058224 0.4970428 0.37904695 0.22512819 0.38159713 0.6477168 0.627279
0.25246596 0.7285753 0.3275614 0.28439108 0.40841746 0.93109065 0.59517777 0.8401386
0.15089402 0.51477355 0.16509725 0.2900038 0.5171622 0.32474068 0.38106525 0.23160857

weight f4 [128, 64, 3]
00000000: 71ea 13bc 597f 47be 3cfc d3bd 5000 07be
00000010: f5f8 8cbe 1ee8 a7be 9458 6ebe c7ec 5abd
00000020: a5ce bebd 9f19 c5bd fe6c 41be d75e 89bc
00000030: 147a c3bd a947 44be 9ce6 23bc 401e e33d
00000040: 9664 aa3d 148f b0bd ab53 fcbd 9c69 4abe
00000050: 8b5e 53be ec9e 5938 6667 03bd bd10 2e3c
00000060: 4fef ce3d 3154 e63d 6d6f 08be 6ff6 45be
00000070: b622 bb3d fd72 123e a998 ecbd b997 e2bd
00000080: f5ea 11be 1ded 4e3e 9ac9 5b3e 7cd2 533e
00000090: b549 02be 647b 82bd 8bfd 8cbd cc3d 4cbd
000000a0: 5500 833d 7aff 993d 12e7 0cbe 8db1 6cbe
000000b0: 3ce5 1cbe 2be6 f73c f893 213d d45f d93d
000000c0: 31e7 7e3d 11f3 233b f5d9 893d f597 57bd
000000d0: fbb1 d13b 9188 eebc b1aa 13be 5414 5ebe
000000e0: 8821 42be d4b8 0fbe 786c a0bd 5721 b2bd
000000f0: b572 a8bd 25ba 863d cd69 fc3c 859f 1c3c
00000100: 776c 113d eeb0 043c 4123 aebd 9142 f8bd
00000110: 9b41 b93d 8c2a f93c 67cf b5bd ff60 04be
00000120: b06d 9a3d a01a f13d 823a 6f3d c69a 80bd
00000130: 6199 153d 0b90 1b3d 38d0 15be 2156 8fbe
00000140: c249 a6bd 6818 c9bd a991 bdbc 9a5d d63d
00000150: ae92 19be 5d93 cdbd 502a ed3c a528 7fbd
00000160: f174 70bd d19c a43d 1518 08be ea4e 25bc
00000170: 9f4c 10be d5a5 98bc f7b7 2dbe 7bf4 11be
00000180: 558f 833d c1fa 043e 1193 c83d 8741 19be
00000190: 586b c0be a63e 82be 63ff 90bd 2aea 06bd
000001a0: 19b6 38be 2043 24be 66c0 4ebe 4a3d f4bd
000001b0: d576 ecbd a83d ccbd 3b46 d83c f3ea 88bd
000001c0: c5f2 1a3d 79d5 863d 41d9 bcbd 6fe0 11bd
000001d0: 12af a2bb fcde afbd fe45 40be 86cc 22bd
000001e0: 1d4c 903d 9ab7 b13d 6484 5d3e 29a0 e83d
000001f0: dbd9 b43d 8ec1 603c 3b57 133d 509d 0abd
00000200: a64a 213d 684d 4abe 2b4a 903c 02ae 9fbd
00000210: a50a 713d 02c2 083d b5f9 89bc 580c 55be
00000220: 6ea7 9cbe 432d 8ebe 4a58 d33d ebcd e6bc
00000230: 6358 5b3d dbde c03d 2e66 d6bd 8e38 35bd
00000240: aa76 b53d 34c4 4c3e 6bde 183e fd72 1dbd
00000250: e059 2e3b 5ad9 32bd f2f3 aebd 2634 8dbd
00000260: b2c9 c7bc f7d8 a7bd d326 35be fadc 0ebd
00000270: 5840 00be ff13 65bd 8376 c83c b4c0 8ebd
00000280: bd82 773b a925 abbd 4456 473e a72e 343e
00000290: 3b51 4cbe 6b7e 7b3d 27b3 ee3d 3c66 a9bc
000002a0: e085 8b3e 5f85 8a3e 3dd3 4c3e d3e8 17be
000002b0: b338 4ebe fb5f d6bd 8f40 b93d dab6 433d
000002c0: 8ba0 883b 5272 8bbe 4f92 adbe 6269 9fbe
000002d0: 6248 14bc 7dc0 873d 1143 9f3d ce9c 3fbe
000002e0: 8e7b 13be 25df dabd 380d b3be d99f 8cbe
000002f0: 6177 4bbe f9e8 963b cbcf ae3d 6894 1cbe
00000300: bb1a 8bbc 3504 63bc a742 f639 b874 d63d
00000310: e69f f03c f91f d8bd a128 cebc fb3e a93b
00000320: 3501 f2ba fceb 54bd 0b8f a0bd 13b9 9e3d
00000330: 3cde 7cbd d68d febc d8a2 e9bc c9cc 8cbd
00000340: 2c74 93bd f219 b53d 2f76 8c3b 56de ea3b
00000350: 720d 8cbd dc3e b4bd 8cac b6bd 2819 a6bc
00000360: 505d 85bd 1f02 a5bc fdce 14bd 12d2 263e
00000370: 9ee4 59bd 97fe 08be 2682 6ebe b6fd 87be
00000380: e19c bbbe 17be 3ebe 165e 8bbe b7b3 a3be
00000390: 5215 f8bd 1fcf 8dbe d972 0abe 1a1e d8be
000003a0: 50fe b4be 9143 59be b317 66be 535a 13be
000003b0: 7454 c83b 12bc e1bd 50a2 35bd da0f 3ebd
000003c0: 762a dcba a143 953b 504c 823d a35b aebc
000003d0: b980 7c3c f19a 42bc be5c 3c3d f460 79bb
000003e0: a9a9 99bc 2130 62bc 62d8 66bd 0474 87bd
000003f0: 6254 db3d 7779 6b3d 6f33 a8bb f382 b8be
-0.009028063 -0.19482173 -0.10350844 -0.13183713 -0.2753369 -0.3279428 -0.23275977 -0.053448465
-0.09316758 -0.096240275 -0.18889233 -0.016768856 -0.09544769 -0.19167961 -0.010003712 0.11089754
0.083199665 -0.0862104 -0.12320646 -0.1976685 -0.20641534 5.188484e-05 -0.03208103 0.010624108
0.10104238 0.11246527 -0.13323756 -0.19332288 0.0913748 0.14301677 -0.11552555 -0.11064095
-0.14249785 0.20207639 0.21463624 0.20685762 -0.1272343 -0.06371191 -0.06884297 -0.04986362
0.06396548 0.075194314 -0.13760021 -0.23114605 -0.15321821 0.03026112 0.039447755 0.10613981
0.0622322 0.0025016705 0.06731025 -0.052635152 0.0063993908 -0.029117854 -0.14420582 -0.21687442
-0.18958104 -0.1403535 -0.07833189 -0.08697765 -0.08225004 0.06578473 0.030812168 0.009559517
0.03550383 0.008098824 -0.08502818 -0.121220715 0.090457164 0.030415796 -0.088774495 -0.12927626
0.075404525 0.117726564 0.058405407 -0.06279521 0.036523227 0.037979167 -0.1463021 -0.279954
-0.08119537 -0.09819108 -0.023140745 0.10467072 -0.1499736 -0.10037873 0.02895084 -0.06229462
-0.058705274 0.08037723 -0.13290437 -0.010089615 -0.14091729 -0.018633762 -0.16964708 -0.14253418
0.06423823 0.1298628 0.09793676 -0.14966403 -0.37581897 -0.25438422 -0.07079961 -0.03293816
-0.18038215 -0.16041231 -0.20190582 -0.119257525 -0.11546103 -0.099726975 0.026400676 -0.06685438
0.03782918 0.065836854 -0.092211254 -0.035614427 -0.0049647177 -0.08587453 -0.187767 -0.03974583
0.070457675 0.08677597 0.21632534 0.11358673 0.08830615 0.013718022 0.03597186 -0.03384143
0.03937783 -0.1975609 0.017613491 -0.07796861 0.058848042 0.033388145 -0.016842702 -0.2080549
-0.3059649 -0.27768907 0.10319574 -0.028174361 0.05355109 0.09417506 -0.10468708 -0.044243388
0.08860524 0.1999672 0.14928596 -0.03843974 0.0026603863 -0.043664314 -0.085426226 -0.06894712
-0.024388168 -0.0819568 -0.17690592 -0.03487871 -0.12524545 -0.055927273 0.024470573 -0.06970349
0.0037767135 -0.083567925 0.19466501 0.17595921 -0.19952862 0.06139986 0.11655264 -0.020678632
0.27250576 0.2705488 0.20002456 -0.14834909 -0.20138817 -0.104675256 0.09045517 0.047781803
0.004169529 -0.27235657 -0.33900687 -0.31135088 -0.0090504605 0.06628511 0.07776464 -0.1871216
-0.14402601 -0.10687093 -0.34971023 -0.27465704 -0.19869758 0.004605409 0.08535727 -0.15290987
-0.01698052 -0.0138559835 0.00046970436 0.10471481 0.02937312 -0.10552973 -0.025165858 0.0051649786
-0.0018463494 -0.051982865 -0.07839783 0.07750144 -0.061735377 -0.031073492 -0.028520033 -0.06874997
-0.071998924 0.08842839 0.0042865495 0.007167618 -0.06838502 -0.08801052 -0.089196295 -0.020275667
-0.065119386 -0.020142613 -0.036330212 0.16291073 -0.053196542 -0.13378368 -0.23291835 -0.26560754
-0.36643127 -0.18627201 -0.2722022 -0.3197305 -0.121134415 -0.27697083 -0.13520373 -0.42210466
-0.35350275 -0.21217181 -0.22469978 -0.14389925 0.006113583 -0.110222 -0.044344246 -0.046401836
-0.0016797322 0.004555181 0.06362212 -0.02128393 0.015411549 -0.011877761 0.045986883 -0.0038052173
-0.018757658 -0.01380542 -0.056358702 -0.06613925 0.10709454 0.057488885 -0.0051330845 -0.36037406

bias f4 [128]
00000000: 1217 6ebc 6f39 a63d 6d37 4a3d b21e 53bd
00000010: 26fe c2bb 62d6 69bd 2fc2 ce3c 081f c7bc
00000020: 5461 623c 4a5f a9bd da08 163c a66c 66bd
00000030: 296e 7e3d 110e 5e3d 9618 05bd 779a ca3c
00000040: cc88 843c 7b81 a13c 564a e33c 3501 cf3d
00000050: 88af 94bc 50ea eabb 5a30 7e3d b5bc 953c
00000060: 17d7 f4ba 6f32 293d 5dcf 81bd 3c62 723c
00000070: 1ecf 153d 91fc 93bd 8a00 0b3d 8598 d23b
00000080: 3857 8d3c c41a a8bc dd3c 413b 9c56 81bb
00000090: f908 a13b 04d2 fdbc cc6b 19bc 9d4e 02bd
000000a0: 5230 dc3b f8d1 90bc ccfd 963c ecce 26bc
000000b0: 29b2 1f3c 53e2 8f3d 4dc8 cfbc 7529 0abd
000000c0: 28b0 52bb a9f9 3abc bdd4 97bc 173c 1a3b
000000d0: b173 27bd 71de ad3c 060f ea3c 8e2f fb3c
000000e0: e37a 303c 820f c53c dc60 efbc e8a8 71bd
000000f0: 83dd 91bd 67d7 d2bc 28f9 e53c bf3e 2f3d
00000100: bce1 2e3d 6e83 7d3d f8dc 9a3c fa1c 92bd
00000110: 3d42 ec3c 9e75 82bd f13e 21bd 81cf b6b9
00000120: 1e43 91bc d322 9cbc 5059 3c3c 7965 13bd
00000130: fd27 393d d640 033d caf9 063d 24e1 863c
00000140: 4176 16bd f2d2 fcbc 0768 36bb fbd0 33bd
00000150: 0177 cfbc 396a 07bd 6f18 23bc 0be9 853c
00000160: ab61 163d 4128 ca3c 6993 ba3b 6431 48bd
00000170: efd3 8bbc 3c4b 983c 4650 173c 269c 163d
00000180: ee27 02bd 485e 613c c24a 8bbc 0412 0d3e
00000190: 089e 2bbb 2b19 56bc e088 ecba 90df 2ebc
000001a0: 4297 f4bc 56f2 2a3d 5491 d33c 83a1 09bd
000001b0: 628f 933c 5553 5fbd aaad 41bc 7469 b33b
000001c0: e8cc e3bc fbfe ebbc 5e3e 24bd dc8c 6ebd
000001d0: cda6 693d 5c14 ccbc 657c 263d 9360 77bd
000001e0: 258c 3b3d fae3 8dbc 8b7a 5c3d 0257 17bc
000001f0: 6097 01bd aa1e 81bd b574 4ebc 4452 aebb
-0.014531868 0.08116423 0.049369264 -0.051542945 -0.005950707 -0.057089217 0.025239078 -0.024306789
0.01381715 -0.08270128 0.009157384 -0.05625596 0.062116776 0.054212634 -0.03249415 0.024731858
0.016178511 0.019715061 0.027745407 0.10107652 -0.018150106 -0.0071690455 0.06205783 0.01827846
-0.0018679824 0.041307863 -0.063383795 0.014793929 0.036574475 -0.072259076 0.03393606 0.006426873
0.017253503 -0.020520575 0.002948574 -0.003947092 0.0049143997 -0.030983932 -0.00936408 -0.031813253
0.0067196274 -0.017678246 0.018431567 -0.01018117 0.009747067 0.0702559 -0.025364066 -0.033730943
-0.0032148454 -0.011412063 -0.018534059 0.0023534351 -0.040881816 0.021224232 0.028571617 0.030662324
0.010771486 0.024055246 -0.02922099 -0.058998972 -0.07122328 -0.025737477 0.028072909 0.04278445
0.042695746 0.06189292 0.018904194 -0.07134433 0.028840179 -0.0637009 -0.039366666 -0.00034868348
-0.0177322 -0.019059574 0.011495903 -0.035985444 0.04520415 0.032044254 0.03295306 0.016464777
-0.03673387 -0.030862305 -0.0027833001 -0.04390047 -0.0253253 -0.033060286 -0.009954556 0.016346475
0.036714237 0.024677398 0.005693842 -0.048875228 -0.017068831 0.018590562 0.009235447 0.03677001
-0.03177636 0.013755389 -0.01700342 0.13776404 -0.0026186723 -0.013067524 -0.0018046163 -0.010673419
-0.029857282 0.041735016 0.025826134 -0.033601295 0.018012706 -0.05452283 -0.01182119 0.0054752175
-0.027807668 -0.028808108 -0.04009854 -0.058239803 0.05704384 -0.024912052 0.040645976 -0.060394835
0.04578795 -0.017320622 0.053827804 -0.009237053 -0.031638503 -0.06304677 -0.012601067 -0.0053198654

weight f4 [128]
00000000: ff22 0a3f 8858 243f c764 0d3f 806d 0a3f
00000010: 6899 143f a1cd 163f 8c8a 0e3f 0578 0e3f
00000020: cf3e fd3e d5fa 1c3f 8c44 ec3e 61fe 033f
00000030: 0f0b 073f cf6f 123f 17a0 0d3f 324e 0a3f
00000040: d5e2 0d3f 7b16 1e3f d527 193f c3a7 1c3f
00000050: de68 003f 09b8 133f 208a 113f 5c50 053f
00000060: 5017 0f3f 1a15 143f 6e15 193f 1edd 103f
00000070: 8787 203f 8f58 ff3e 38e9 083f c3d3 143f
00000080: 082e 103f 3ab8 093f f035 0c3f 2cbb 043f
00000090: e84b 1e3f 1068 083f fddb 143f 2da6 113f
000000a0: a67a 1d3f c215 1f3f 1557 0b3f fce6 113f
000000b0: ab10 1e3f d8c8 133f 2d4c 0a3f e8c0 f03e
000000c0: 22db 013f 102d 143f 832c 113f 07f1 013f
000000d0: e559 0e3f aca9 123f 351b 0f3f 496b 083f
000000e0: 36a8 173f 46f3 063f 7aea 093f 8c3d 083f
000000f0: 6680 123f bd4e 033f a78d 223f 8d6a 0e3f
00000100: bbf3 233f 118e 0e3f c42f 013f eca9 063f
00000110: b7cd 223f 3e1d 0d3f 9060 eb3e 1cea 0b3f
00000120: 3b40 223f ddeb e33e 1342 103f 2883 1a3f
00000130: bd23 0b3f a10f 063f 0df3 133f 3f64 1d3f
00000140: 31ef 003f ccd6 e33e a7f1 c03e e77c 143f
00000150: e46e 023f dcd6 d83e 1939 1d3f f6f6 103f
00000160: 222b 1f3f a807 183f 082f 083f 00c4 063f
00000170: c227 053f 7603 073f efc2 003f f572 103f
00000180: 2424 123f cfc8 073f c8e2 2d3f 0372 0f3f
00000190: d6bf 033f 799a 0d3f f0a1 043f dc31 163f
000001a0: 4dfd 133f 2efc 0e3f 338b 173f 120e 153f
000001b0: 7887 073f 76c0 1a3f 080a 083f 9a1c 213f
000001c0: b710 0d3f 862d 083f 406f ed3e 1a21 073f
000001d0: 5728 043f d9b9 033f a7e0 1b3f 5113 dd3e
000001e0: 6a88 0b3f a779 163f d02b 143f 5e7f 0e3f
000001f0: 5054 153f 7038 1c3f db8d 1f3f 4241 083f
0.5395965 0.6419759 0.552319 0.54073334 0.5804658 0.58907515 0.55680156 0.55651885
0.49461982 0.6132024 0.46146047 0.51560026 0.5275125 0.57201856 0.553224 0.54025567
0.55424243 0.6175305 0.59826404 0.61193484 0.50160015 0.5770269 0.5685139 0.52075744
0.5589495 0.578447 0.59798324 0.565874 0.627068 0.49872252 0.53480864 0.5813562
0.5632024 0.5379673 0.547698 0.518481 0.61834574 0.53283787 0.58148175 0.5689419
0.6151527 0.62142575 0.5442975 0.5699308 0.61744183 0.5772834 0.54022485 0.47022176
0.50724995 0.5788126 0.56708544 0.50758404 0.5560592 0.5729015 0.5590089 0.53288704
0.59241045 0.52714956 0.5387341 0.53218913 0.5722717 0.5129202 0.63497394 0.55631334
0.6404378 0.55685526 0.5046351 0.5260303 0.63595146 0.55122745 0.4597211 0.546541
0.6337926 0.44515887 0.5635082 0.6035638 0.5435141 0.523676 0.5779274 0.6148109
0.5036498 0.44499815 0.37684366 0.58003086 0.50950456 0.42351425 0.6141525 0.5662683
0.6217519 0.5938668 0.53196764 0.5264282 0.5201379 0.52739656 0.50297445 0.5642541
0.57086396 0.53040785 0.67924166 0.56033343 0.51464593 0.5531383 0.51809597 0.5866983
0.5780838 0.55853546 0.59196776 0.58224595 0.52941084 0.6044992 0.53140306 0.6293427
0.5510363 0.53194463 0.4637394 0.52784884 0.51624054 0.51455456 0.6088967 0.431788
0.54505026 0.58779377 0.5787935 0.55663097 0.58331776 0.61023617 0.6232583 0.53224576

bias f4 [128]
00000000: a35b 02bf bd9f dfbe 49ec f7be ea3d 98be
00000010: e25e c0be bb6b bebe 279d d5be 0d93 debe
00000020: 4875 9bbe 2102 f3be 33c6 83be 1ad2 11bf
00000030: 125f cdbe baa6 bcbe a390 99be 9c2a e7be
00000040: 07b1 e2be b8b0 d3be 10e8 a8be 9653 f4be
00000050: abbb 85be 9f5a c6be 9ae6 bbbe 3308 babe
00000060: 9409 c3be 08d4 e7be 19c5 a9be 4824 c7be
00000070: 615d f2be c301 a9be 3beb f5be 9093 d5be
00000080: 7e30 b3be 3b71 ecbe f2d4 cbbe d6a6 c8be
00000090: 425b e4be 5bb9 f9be 5cd2 babe 4fef 8ebe
000000a0: 31f2 cabe 63e3 cebe 3ba8 adbe 28ef b1be
000000b0: ede8 cbbe 9f2e dcbe c21b d4be 8a5a 8abe
000000c0: 8593 15bf 3bff cfbe 13eb d2be 339c aabe
000000d0: 37a0 ebbe ae78 e2be 5536 c6be 9a7b bfbe
000000e0: 6336 cebe c640 d3be 7007 cabe 5261 abbe
000000f0: 04da dabe 8c8e cabe ab2c e1be 993a c4be
00000100: cfd4 e9be 7c2e c7be aab5 e8be 8f2f d3be
00000110: bbb8 02bf 4bb3 adbe 3d5b 67be b92d 9cbe
00000120: 0e46 cfbe c2f0 e2be d649 c4be b38f e2be
00000130: 5edd d7be f414 c5be a84f d7be bc5d afbe
00000140: be93 a6be 7a4e d0be 0c38 7fbe c797 ddbe
00000150: 6f8d d0be 3b1b 82be 0071 a0be eb01 eabe
00000160: aca4 fabe a342 e0be 4721 e4be 539d 9fbe
00000170: 3642 c7be 553a aabe 8e3f e0be 2575 b1be
00000180: 3046 c3be 956a d6be 5486 e6be eb37 d2be
00000190: ed7e cebe 518e acbe c17a ddbe c56d d7be
000001a0: 6703 8ebe 551e a8be 6aee e6be 67d0 c3be
000001b0: 6c9e c2be a9d2 b6be 07e5 d4be c06c c3be
000001c0: 5fe2 d8be 9dd1 e7be 443e b8be 1219 a1be
000001d0: 8005 debe edbb d8be 5246 e6be 23cc adbe
000001e0: 17fe c7be e330 bdbe 7d7d e5be 0d93 c6be
000001f0: da47 b9be c813 c9be 851e afbe 46db c3be
-0.50921077 -0.43676558 -0.4842246 -0.29734737 -0.3757239 -0.37191567 -0.4172146 -0.43471566
-0.30362916 -0.47462562 -0.25737152 -0.56961215 -0.40111595 -0.36845952 -0.29993162 -0.45149696
-0.44275686 -0.41345763 -0.3298955 -0.4772002 -0.26119742 -0.38741013 -0.36699373 -0.3633438
-0.38093245 -0.45278955 -0.33158186 -0.38894868 -0.47336867 -0.33009157 -0.4803103 -0.41714144
-0.34997934 -0.46180138 -0.39810902 -0.39189786 -0.44600874 -0.48774227 -0.36488616 -0.27916953
-0.39637902 -0.40407857 -0.33917412 -0.34752774 -0.39826146 -0.4300432 -0.41427428 -0.270222
-0.5842822 -0.40624413 -0.41194972 -0.33322296 -0.46020672 -0.44232696 -0.38713327 -0.37398988
-0.4027587 -0.41260356 -0.394588 -0.33472687 -0.42744458 -0.3956188 -0.4397939 -0.38325956
-0.45670173 -0.38902652 -0.454511 -0.41247222 -0.51063126 -0.33925852 -0.22593398 -0.30503634
-0.40483135 -0.4432431 -0.38337582 -0.4425026 -0.42161077 -0.38492548 -0.4205296 -0.342512
-0.32534593 -0.40684873 -0.24923724 -0.4327986 -0.40732905 -0.254114 -0.31336212 -0.45704588
-0.4895376 -0.4380084 -0.4455664 -0.31174716 -0.38917702 -0.3324763 -0.43798488 -0.34659687
-0.38139486 -0.4187819 -0.4502436 -0.41058287 -0.40331212 -0.3370233 -0.43257716 -0.42075935
-0.2773697 -0.32835642 -0.4510377 -0.38244936 -0.3801149 -0.35707596 -0.41580984 -0.38168907
-0.42360207 -0.4527711 -0.35985005 -0.3146444 -0.4336357 -0.42330876 -0.44975525 -0.33944806
-0.39061043 -0.3695136 -0.44822302 -0.38784066 -0.3618763 -0.39272904 -0.34202972 -0.3825323

running_mean f4 [128]
00000000: 8944 16bf 50c3 57bf 967d 0bbf 1a0e e1be
00000010: 6376 6fbf f9e1 55bf e0a3 89be 71ed 47bf
00000020: 9e97 21bf 70a2 94bf e851 57bd 5cb1 4bbe
00000030: aaba a4be 305b 24bf 2d6b 4cbf a1ae 1fbf
00000040: 7953 31bf 01ff 7bbf c28b 71bf ae8e 44bf
00000050: 4c01 bfbe 4adf 3cbf 9a9e 43bf cc8e 1bbf
00000060: ce8b 66bf bba0 67bf 89fb 64bf 3908 44bf
00000070: e2f4 7abf 1d13 48bf 6590 cdbe 4445 32bf
00000080: 3055 f3be 7cd3 02bf 785c 23bf 0153 7bbf
00000090: 5c41 26bf 0c69 46bf 47d0 70bf 442c 40bf
000000a0: 8459 2ebf a7c2 86bf 6f6f 32bf 7764 30bf
000000b0: c70b 7dbf 4746 46bf 5b51 cfbe 9344 3bbf
000000c0: 8033 19be b2ba 57bf a64c 37bf edab adbe
000000d0: 05e3 2dbf a164 73bf 9c71 55bf 0095 f8be
000000e0: 65d9 87bf 0e9b 48bf 3ab6 f9be e05b 42bf
000000f0: 7a92 eebe 1c53 22bf e7e4 6ebf 0ce8 2fbf
00000100: 9fb2 90bf 0534 3dbf 1ca5 5ebe 74d7 7dbf
00000110: b297 62bf 2fbf 6dbf a50b 99be c3f9 fdbe
00000120: 6fb4 86bf 7a11 693d 882d 50bf d305 64bf
00000130: 47af 0dbf 9b11 16bf 8e90 7fbf 252e 6fbf
00000140: e582 e3be 6107 f1bd 894e eb3e fa0d 12bf
00000150: 8a0a 30bf f827 f6bd 5467 92bf f53a f1be
00000160: 6697 69bf 037c 44bf a515 07bf 707f 26bf
00000170: 0ee9 19bf 3e8f 1fbf c543 1cbf c89e 02bf
00000180: 4243 6fbf 22d1 e2be 46a8 95bf 1f06 48bf
00000190: 6ca3 1abf 5837 5fbf 67fd bdbe f159 68bf
000001a0: c38b 69bf c122 2ebf cd64 3ebf 7935 67bf
000001b0: 7af7 10bf 3443 76bf 2278 25bf 180f 58bf
000001c0: afd5 0abf 12ec 09be 0210 1abe 8230 00bf
000001d0: 05b5 23bf fd4d dabe 0c23 85bf d730 a0be
000001e0: c7ff 4cbf b5f0 86bf 7c91 71bf d417 6bbf
000001f0: 222b 32bf 05ff 87bf dde3 4abf 040a 35bf
-0.58698326 -0.842824 -0.54488504 -0.4395607 -0.9354002 -0.8354793 -0.2688284 -0.7809668
-0.63121974 -1.1612072 -0.052568346 -0.19891876 -0.32173663 -0.6420164 -0.7985104 -0.6237584
-0.69267994 -0.9843598 -0.9435388 -0.7678021 -0.37305677 -0.7377821 -0.7641388 -0.60764766
-0.90057075 -0.9047963 -0.8944631 -0.76575047 -0.9802991 -0.78154165 -0.40149227 -0.6963694
-0.4752593 -0.5110395 -0.6381297 -0.9817353 -0.6494348 -0.7750404 -0.94067806 -0.75067544
-0.6810534 -1.0528153 -0.69701284 -0.689033 -0.98846096 -0.77450985 -0.40491757 -0.7315151
-0.14961052 -0.8426925 -0.7160133 -0.3392023 -0.6792453 -0.9507542 -0.8337648 -0.48551178
-1.0613219 -0.78361595 -0.4877184 -0.7592144 -0.46596128 -0.63408065 -0.9331803 -0.6871345
-1.1304511 -0.739075 -0.21742672 -0.9915688 -0.8851272 -0.9286985 -0.29891697 -0.49604616
-1.0523814 0.056901433 -0.81319475 -0.8907139 -0.55345577 -0.58620614 -0.9982995 -0.93429786
-0.44435802 -0.117689855 0.45958355 -0.57052577 -0.6876608 -0.12019342 -1.1437783 -0.47115293
-0.9124664 -0.76751727 -0.527674 -0.65038204 -0.6012124 -0.62327945 -0.6104091 -0.5102353
-0.93462 -0.4430018 -1.1691978 -0.7813434 -0.6040561 -0.8719382 -0.37107393 -0.9076224
-0.91228884 -0.6802178 -0.7437256 -0.9031597 -0.5662762 -0.96196294 -0.64636433 -0.8439803
-0.54232305 -0.1346896 -0.15045169 -0.5007402 -0.6394809 -0.42637625 -1.040132 -0.31287262
-0.80077785 -1.0542208 -0.94362617 -0.91833234 -0.69597065 -1.0624701 -0.7925394 -0.7071841

running_var f4 [128]
00000000: e2f8 f03e 7439 7a3f c040 103f e150 773f
00000010: 027d 883f 67f2 7a3f f660 b03e bb68 393f
00000020: 87ba 593f 324d 7a3f 7111 293f f09e 0f3e
00000030: 776d fb3e e098 283f fe97 c73f c8a0 f93e
00000040: 50ff 0f3f b741 9e3f e59c f33f 4285 8a3f
00000050: 3d45 513f e71f 3e3f 2065 7a3f cc16 7e3f
00000060: 9f06 993f 0e26 9d3f 61b8 e53f 1340 403f
00000070: 4515 9b3f 009f 3d3f f7d9 203f 0e0c 493f
00000080: 0069 673f 0a54 1e3f 1ec6 553f 893f 7a3f
00000090: f3cb 173f 639f ed3e a89c 883f 8bf4 b23f
000000a0: a697 473f e2b0 a23f bf63 433f 43d9 833f
000000b0: 1eae a43f 7669 313f 646a f13e 5909 1f3f
000000c0: 66df 2c3e ccf3 5c3f 4500 673f 3d70 443f
000000d0: 5bcc ce3e cb2c 5c3f b149 7b3f d666 233f
000000e0: bbdf 823f 178f 433f 39b2 813f 4706 4b3f
000000f0: adb5 e33e ff8c fb3e dae2 793f a13e 3a3f
00000100: f33d b03f 24ce 5e3f d983 c43e 11dc 4f3f
00000110: b56d 5f3f 0ca4 9a3f 993c 693f bac2 663f
00000120: e7d0 b83f 35dd ab3e 09e8 393f c4f2 8f3f
00000130: a280 433f ec73 033f e823 483f ff87 c63f
00000140: 9948 133f a778 ae3e 9adf cf3e a5fe d53e
00000150: dab2 ed3e b4b7 f43e 7135 1c40 8795 d73e
00000160: 350d 373f af79 5a3f e2fe fd3e 52d3 593f
00000170: e53b 273f 298f 613f 7504 0e3f c65e 523f
00000180: 0503 883f c6b3 e33e 1e92 e33f a47c 2a3f
00000190: b5bc 173f e4a1 8a3f f947 af3e 1644 433f
000001a0: 5980 0140 4c66 913f c082 393f 1774 5c3f
000001b0: aaaa 023f 50c5 c83f a2ea 243f b1b2 7c3f
000001c0: bf48 073f e262 c43e 91cd d33e 399d 663f
000001d0: ca25 723f f649 053f 89ae 943f 13d3 e23e
000001e0: d3fc 323f e39d b33f 99cc 5f3f 77c8 483f
000001f0: ddca 643f a351 923f c907 843f b19b 093f
0.47064883 0.97743917 0.563488 0.96607786 1.0663149 0.98026127 0.34448975 0.7242543
0.85050243 0.9777404 0.6604224 0.14025474 0.49106953 0.6585827 1.5593259 0.4875548
0.5624895 1.2363805 1.9032255 1.0821917 0.81746274 0.7426743 0.97810555 0.99253535
1.1955146 1.2277238 1.7946893 0.7509777 1.2115866 0.7407074 0.6283259 0.7853402
0.9039459 0.61846983 0.8350543 0.97753197 0.59295577 0.46410665 1.0672808 1.3980879
0.7796577 1.271023 0.76324075 1.0300678 1.2865636 0.69301546 0.47151482 0.6212364
0.16882095 0.86309505 0.90234786 0.7673376 0.40390286 0.8600585 0.9815932 0.6382879
1.0224527 0.7639021 1.0132514 0.79306453 0.44474545 0.4913101 0.97611773 0.72751814
1.3768905 0.87033296 0.38381842 0.8119517 0.87276775 1.2081313 0.9110809 0.9014088
1.4438752 0.33567205 0.7261968 1.1245961 0.76368153 0.5134876 0.7817979 1.5510253
0.5753265 0.34076425 0.40600282 0.4179584 0.46425515 0.47796404 2.4407618 0.42106268
0.7150453 0.85341924 0.49608523 0.85088074 0.65325767 0.8810907 0.5547555 0.8217586
1.0625921 0.44473094 1.7778966 0.66596437 0.5927232 1.0830655 0.34234598 0.76275766
2.0234587 1.1359344 0.72465134 0.8611464 0.5104166 1.5685215 0.6442052 0.9871016
0.52845377 0.38356692 0.41367772 0.9008365 0.9458891 0.5206598 1.1615764 0.44301662
0.6991703 1.4032558 0.87421566 0.78430885 0.89372045 1.1431164 1.0314876 0.5375319

weight f4 [256, 128, 3]
00000000: 6e6e f13d 0889 c73d c38f c43d a459 1bbd
00000010: f5af 83bd 274e babc 7775 c7bd 7bba 00be
00000020: b1d9 18be 6ca6 4dbd 9e39 dcbc 917a 8dbd
00000030: 8c3f a2bd ca06 ebbd 51a3 2cbd d835 1abd
00000040: 2ba1 8dbd 79c1 f7bc afe3 dcbd bb22 36be
00000050: 23a6 a7bd a95f 68bd e944 af3a 18c4 8e3c
00000060: 39a7 26be ce6c 9fbd 4a35 83bd b415 893d
00000070: ad34 263d c24c 153b cab9 2d3d cffa 4a3d
00000080: 7377 e53d fd00 85be 7c67 5fbe 33a0 2fbe
00000090: f491 573d 1b0a 8f3d ff81 b73d 3671 0fbd
000000a0: bf39 73bd 4c1f 7d3d 87ab 1ebe 735c 05be
000000b0: 8c1f a63c 1855 4d3e 8521 1f3e 306f 373e
000000c0: f8c3 863d 9d43 7c3d 0725 a63d 12a6 983d
000000d0: b722 353b d81e 703d 7751 88be 9a04 88be
000000e0: 7b40 0fbe 56b8 213d a116 2abc 1f21 e93c
000000f0: 4924 79bc 269e ad3c 3433 8c3c 4289 af3c
00000100: 5fd5 43bb 2406 d2bb cf17 9c3e 8d19 8b3e
00000110: 7d89 883e 216e 0e3d f65c 6e3c deb3 1d3d
00000120: 2dce 1e3c 98f7 36bd 8812 ef3c 0ca1 9f3c
00000130: 933b e6bc 43b8 07bb 33cd 9ebd 76f7 9dbd
00000140: 95ff 30bd 408c 03bd 3e7b 52bd f663 e33c
00000150: 212c a5bd 8313 6abd e7b6 8dbd 3f7e f0bd
00000160: 4776 bbbd 776f bdbd 6ba2 4abc 54d0 8cbd
00000170: 102d 1abd 4a01 193e 7959 063e 7468 e63d
00000180: 7ae7 8e3d e2dd 763d 1b59 fa3d 2276 683e
00000190: 78cf 253e a647 0a3e 4118 c73d 2eb5 023e
000001a0: 8204 113e b0d8 ab3e 89d2 ac3e d755 af3e
000001b0: ab4f 963c f4eb aa3c 2ae9 ca3d ed4f b83c
000001c0: fa34 d4bc beb3 1dbd 7f02 363e c848 163e
000001d0: d091 053e 6469 903d 9d38 843d af4f b03d
000001e0: 3dc7 d6bd 314f 45be 2c24 36be 2126 073d
000001f0: f85a 1c3c 1ebb 423d e07b 1fbd aa7f a3bd
00000200: c19d 09bd e7a2 8dbd b190 92bc b6e9 c83c
00000210: 38ee 97bd 3b49 debc 3acd 5a3c 629d 943d
00000220: 0777 f73c 08e1 0c3e 29d7 abbc 117d 34bc
00000230: 7277 f03c 95a1 da3d 54cb a13d 1a7d d63d
00000240: ced8 47be e994 32be d187 b0bd ae98 e7bc
00000250: d85b c93a 5358 a339 2060 423d 9eb6 db3d
00000260: bee0 6b3d bd6c 0abe 03b7 cbbd 3f71 66bd
00000270: a928 a0bd c888 cfbd af72 2ebd 9749 bebd
00000280: 4d48 00be c9b2 4cbe bbb1 89bd 14b9 69bd
00000290: 4527 30bd 342d c63b 73f1 1b3d 477e a93d
000002a0: c26b ca3d 910e 993d 93db be3c 3122 43be
000002b0: 080a 24be 04c7 b7bd 6ddf 4bbe c9e4 54be
000002c0: 0372 acbc df4d edbd 5fa6 34be 298b 0cbe
000002d0: 97cb e1bc 5afb 303d 4484 f73d f12a b13c
000002e0: 4a00 3c3d 2a29 963d 0ac2 6bbe df36 3bbe
000002f0: f026 2fbe 7f5f 30bd d953 5fbc 481e 75bc
00000300: baf5 b23c 89ca 68bc a068 33bd add0 8a3e
00000310: def6 a43e 8860 923e de33 28be c11b 11be
00000320: f800 d2bd c7cd f8bd 3a48 1ebe d2ec 9dbd
00000330: faad c4bd 77cb 97bd 4d27 e3bc 7679 383d
00000340: b7ef 0c3b bf89 2d3d 9aa6 e6bd 9b8a a9bd
00000350: a3a6 4ebd 074d 28bd 6109 78bb 413a a73d
00000360: 3ff2 b63d d594 bb3d 933e 013e 9e8f 953b
00000370: 94b1 b73c 9543 973d 443f 613e bfa9 3f3e
00000380: 694b 1d3e 060d 203a 4447 143c f1d2 f33a
00000390: 8293 48be 98a2 17be 09ab 20bd c78f 063e
000003a0: 8401 083e b7c9 613e 459f 87be 0554 7abe
000003b0: dfd5 36be 1ea7 83bd 2ecb ccbd b1a0 f7bb
000003c0: 4434 2f3d dc64 c23c 2a36 d93c 21ed 183d
000003d0: 5a7b 923d 5b3a 673a 885b e73d e1db a63d
000003e0: 0aaf ce3c d32f ae3b a752 02bc fac8 303d
000003f0: dd8e 393d b152 41bd d473 533c dc8c 7cbc
0.11788641 0.097429335 0.09597733 -0.037927285 -0.064300455 -0.022742344 -0.097392015 -0.12571137
-0.14926793 -0.05020754 -0.026882943 -0.06908143 -0.07922277 -0.11475904 -0.04214794 -0.037649006
-0.06915506 -0.030243622 -0.10785615 -0.17786686 -0.08185985 -0.056731854 0.0013371977 0.01742749
-0.16274728 -0.07784425 -0.064066485 0.06693593 0.04057758 0.0022781347 0.04241351 0.049555596
0.11204424 -0.25977316 -0.2181682 -0.17150955 0.052629426 0.06984349 0.08960342 -0.035020076
-0.059381243 0.061797425 -0.1549512 -0.13023548 0.020278715 0.20051992 0.1554013 0.17913508
0.06580347 0.06158792 0.08112531 0.074535504 0.00276391 0.058623165 -0.26624653 -0.2656601
-0.13989441 0.039482437 -0.010381372 0.028458176 -0.015206405 0.021193575 0.01711426 0.021427754
-0.0029881818 -0.0064094234 0.30486915 0.2716793 0.26667395 0.034772996 0.014548531 0.038501613
0.009692711 -0.044669718 0.029183641 0.019485973 -0.02810458 -0.0020709194 -0.077539824 -0.07713215
-0.043212492 -0.032116175 -0.051387064 0.027757626 -0.080650575 -0.057147514 -0.069196515 -0.117428295
-0.09153419 -0.09249776 -0.012367825 -0.06875673 -0.03764063 0.14941898 0.13120069 0.112503916
0.069777444 0.060270198 0.12224027 0.22701314 0.16192424 0.13503894 0.09721423 0.12764427
0.14161876 0.33563757 0.33754376 0.34245178 0.018348536 0.020864464 0.09907754 0.02249905
-0.025904167 -0.038501494 0.1777439 0.14676201 0.13043904 0.07051352 0.064561106 0.086089484
-0.104872204 -0.1926849 -0.17787236 0.032995347 0.009543173 0.04754173 -0.038936496 -0.07983334
-0.03359771 -0.06915837 -0.01789126 0.024525505 -0.074184835 -0.027134528 0.013354594 0.07256581
0.030208124 0.13757718 -0.02097662 -0.011016146 0.029353831 0.106753506 0.0790011 0.1047308
-0.19516298 -0.17439617 -0.08619655 -0.028271046 0.0015362455 0.0003115559 0.047454953 0.10728191
0.057587378 -0.13518043 -0.09947016 -0.056260344 -0.07820255 -0.10133511 -0.04258984 -0.0929138
-0.1252758 -0.19990076 -0.067233525 -0.05706127 -0.0430062 0.006047869 0.03807206 0.082760386
0.098838344 0.074734814 0.02329806 -0.19056012 -0.16019452 -0.08973506 -0.19909449 -0.207904
-0.021050459 -0.11587118 -0.1764159 -0.1372496 -0.0275629 0.043208458 0.120857745 0.021626921
0.045898713 0.0733207 -0.23023239 -0.1828265 -0.17104697 -0.043059822 -0.013630831 -0.014960833
0.021845687 -0.014208444 -0.04380095 0.27112332 0.32219595 0.28589272 -0.16426036 -0.14170744
-0.10254091 -0.12148624 -0.1545724 -0.077111855 -0.09603496 -0.07411855 -0.027728701 0.04503771
0.0021505186 0.042367693 -0.112622455 -0.0827839 -0.050451886 -0.041089084 -0.0037847387 0.08165408
0.089329235 0.09159247 0.12621526 0.0045642396 0.022423543 0.07385937 0.2199679 0.18717097
0.15360798 0.0006105456 0.009050194 0.0018602294 -0.1958752 -0.14808118 -0.03922561 0.13140784
0.13281828 0.22049604 -0.264887 -0.24446113 -0.17855023 -0.064283594 -0.09999691 -0.0075569977
0.042774454 0.023729734 0.026515085 0.03733552 0.07152434 0.00088206463 0.11296755 0.08147407
0.02522995 0.0053157597 -0.007954276 0.043160416 0.04530226 -0.047198 0.012906034 -0.015414443

bias f4 [256]
00000000: 499b 0b3c c886 29bd 8410 df3c 7a52 013d
00000010: 10fa 0a3c 8125 753b 8fba 1cbc f31c e03a
00000020: d750 5bbc e872 f3bc 4983 a33c f6ec ec3c
00000030: 1df5 2b3c c891 80bc 6af6 9fbc f786 5bbc
00000040: acbe 9939 40f3 983c bbcb 0abd d1f8 fcbc
00000050: e51f 99bc 46c9 bf3c 76dc f5b9 533a b23b
00000060: 6f71 a7bc d819 aa3c f4f1 c23b a71f f0bb
00000070: 3bb8 d93b e813 7c3c 838d c9bc fdd4 0e3c
00000080: 50e3 6f3c 3903 213b 9cec 503c dc63 e13c
00000090: 9cf9 2b3d 26fb 513b 0a2f d13a 67df 2b3b
000000a0: 92d9 a9bc 7129 a8bc 6998 243d 74ca dabc
000000b0: a03c 4abc 044f 00bd 93a9 b83c 6df6 8cbc
000000c0: da4d b4bc 7e96 ab3c 1c3a 943c 7adf babc
000000d0: ae15 033c bfb9 98bb d09f 4fbb 989d 933a
000000e0: 13e9 9bbc 026b 7e3b fa9c ebbb d69a f2bb
000000f0: 6162 0cbd a7a1 73bc 58d6 a4bb a707 943c
00000100: c6e4 b7bc 23b6 adbc e4cd 123d e647 04bb
00000110: bcd7 7e3c cba3 17bb 2d39 21bd a910 4f3d
00000120: c28d da3c 6599 fb3c c3dc 1abd cc0d 17bc
00000130: 2381 d43b 8e18 cdbc 064b 163c ff69 2f39
00000140: c0ff fbbc ad26 5e3c b8bd 1cbb 0fa5 16bc
00000150: 8a83 27bb 32fe 163c 495a 96bc 9eb4 2fbd
00000160: 7b9e 1cbc a991 28bd d34d 8a3c 93d0 113c
00000170: 1a79 ad3b 7ecc f13b 9c8d aa3c 7a7e 5abc
00000180: 209e d7ba 2605 3b3c 246e a8bb 8099 353c
00000190: 5af1 3ebc 2204 fd39 40a6 a43c ce46 163d
000001a0: 9f1f a6bc 34e1 05bd 1b80 d83c 7a92 ca3c
000001b0: c1ac 17bd 3847 d8bb 617b 4dbb 160c 063d
000001c0: 35dd 3cbc 7205 d63b b7b5 8ebc 185e 1abb
000001d0: 6896 99ba 5e1b 63ba e639 093d 5c5d cebc
000001e0: 972a 803c ebba 093d a445 b3bb 680d 2fbc
000001f0: 3c91 6dbc d818 be3c 0374 8cbc f98d 40bd
00000200: bfb5 0c3c 6a3e 02bd a8d1 23bd f5ff 2bbd
00000210: 1d13 f2bb 4a0b 613d 566f aabc c2b9 b9bc
00000220: c7a4 253c 9397 db3c c4bd 38bc 7d80 bd3c
00000230: 21a5 123d 45e0 f9bb 862b e13c 849a 0439
00000240: 27f9 da3c c36a 35bc ac88 0d3b ea47 f1bc
00000250: 2288 af3c 6c90 45bd 46f1 18bc 4185 febb
00000260: 56ba 2ebc e6d0 703c 951c 5b3c c6b6 84bb
00000270: 775c beba 46ec 203d eef9 8c3d 1cb9 513c
00000280: b5e3 ea3c 1bee 3d3c d6bb dcbb 7c1f a1bc
00000290: aacd 4ebd 8003 b6bc e0c4 fbbc e75e 513d
000002a0: 1c7a 24bc 8b6f cb3c 1f1d 053d f020 633c
000002b0: 123c 91ba fb9e d33c 0f0c d43c 2f0e ed3b
000002c0: 6199 64bc 563f 7f3b aa32 dfbb ce94 ecbc
000002d0: 8b5d 963c e637 073c aa33 193d 78c3 6cbc
000002e0: dac8 d9bc 20d0 3a3c 6ff2 543c 5393 bb3b
000002f0: 37de 2a3c f5d1 153d 07af ab3a edff 33bb
00000300: e9af debc 5bec 83bc 88f0 34bb 5b64 ab3c
00000310: 5a3d e5b9 eff0 24bb 455c d43c 53ea 203b
00000320: e364 5fbb 0997 2d3c a736 5ebc 7185 63bc
00000330: b381 193c b435 133d 2259 69bb eaa2 16bd
00000340: 5d79 903c 8696 a33b dd50 553d e8ac abbc
00000350: bad3 46bb 75f3 b3bc 47f0 f03b 3528 bfbb
00000360: 2b75 c339 e91f fabc 0340 d0ba 7c1e 8cbb
00000370: 6c79 94bc 6eb9 4c3d a2b1 9bbc 890a 8b3c
00000380: 330a edbc d4c8 a93c effc b9bc 4e93 f03c
00000390: fe5e ca3b 48a4 48bc ff88 bd3c 52b0 2fbd
000003a0: 137c a6bc a5e3 a33c 8f29 9cba b1b1 baba
000003b0: 7914 a43c 1e61 5fbb 1c0a ec3c 2bba 663c
000003c0: 9ea0 3c3c 1c7e cfbc 47c0 d23a de46 103d
000003d0: 8c9a adbc 1078 703c fe7c 893c 15b3 11bc
000003e0: eaae 403d 7c3b c73b 9e22 30bd 5c8d 223d
000003f0: f7ed 05ba 3aff c13b de75 673c fdeb d03c
0.00852091 -0.041388303 0.027229555 0.031572796 0.008482471 0.0037406387 -0.009565963 0.0017098471
-0.013385973 -0.029717878 0.019960063 0.028921586 0.010495451 -0.015694514 -0.01952668 -0.013398877
0.00029324496 0.018670678 -0.0338857 -0.030880364 -0.018691966 0.023411404 -0.00046894298 0.0054390817
-0.020439832 0.020764276 0.005949253 -0.007327992 0.0066442764 0.015385605 -0.02460361 0.008717773
0.014641598 0.0024568571 0.012751725 0.027513437 0.041986093 0.0032040565 0.0015959453 0.0026225687
-0.020733628 -0.020527573 0.040184412 -0.026707865 -0.012343556 -0.031325355 0.022541797 -0.017207349
-0.022009779 0.020945784 0.018094115 -0.02281164 0.008000774 -0.0046608145 -0.003168095 0.0011262177
-0.019032037 0.0038821106 -0.007190344 -0.007403712 -0.03427351 -0.014870084 -0.0050304346 0.018070055
-0.022447955 -0.021205014 0.035840884 -0.0020184456 0.015554365 -0.00231384 -0.039361168 0.050552998
0.026678924 0.030712793 -0.03780819 -0.009219598 0.006485121 -0.025036123 0.00917316 0.00016728787
-0.0307616 0.013559026 -0.0023916792 -0.0091946265 -0.002556058 0.009215878 -0.018353598 -0.04289686
-0.009559269 -0.041154537 0.016882813 0.008899826 0.0052939774 0.0073791137 0.020819478 -0.013335818
-0.0016450323 0.011414802 -0.005140083 0.0110839605 -0.011654222 0.00048259 0.020098805 0.03668862
-0.02027875 -0.032685474 0.026428273 0.024728049 -0.037029985 -0.006600287 -0.0031354057 0.03272637
-0.011527349 0.006531411 -0.017420633 -0.002355462 -0.0011717798 -0.0008663441 0.033502482 -0.025191002
0.015645308 0.033625524 -0.0054709483 -0.010684349 -0.014499959 0.023205206 -0.017145162 -0.047010396
0.0085882535 -0.031797804 -0.039994866 -0.041992147 -0.0073875324 0.054942407 -0.020805042 -0.022671584
0.010110087 0.026805675 -0.011275712 0.023132557 0.03580201 -0.007625612 0.027486574 0.00012646063
0.026730133 -0.011072817 0.0021596355 -0.029453237 0.021427218 -0.048233435 -0.009334868 -0.00776735
-0.010664543 0.014698243 0.013373514 -0.0040501086 -0.0014523406 0.039287828 0.06883608 0.012800481
0.028673032 0.011592413 -0.006736259 -0.019668333 -0.050489105 -0.022218466 -0.030733526 0.051115897
-0.010038879 0.024833461 0.032498475 0.013862833 -0.0011080524 0.025832644 0.025884656 0.007234357
-0.013952584 0.0038947663 -0.0068114595 -0.02887955 0.018355152 0.008253073 0.037402786 -0.0144509
-0.026585031 0.01140216 0.012997254 0.0057243495 0.010428957 0.036577184 0.0013098427 -0.0027465776
-0.02718349 -0.016103914 -0.0027609188 0.020921877 -0.00043723994 -0.0025168022 0.025922904 0.002455373
-0.0034087233 0.010595092 -0.013562835 -0.013886795 0.009369302 0.035939887 -0.0035606106 -0.03677646
0.017635996 0.004992309 0.05207907 -0.020956472 -0.0030338601 -0.021966675 0.007352862 -0.0058336505
0.00037280595 -0.030532794 -0.0015888218 -0.004276095 -0.018124305 0.049981527 -0.0190056 0.016972797
-0.028935527 0.020725645 -0.022703616 0.029367115 0.0061758747 -0.012246199 0.023136614 -0.04289276
-0.020322835 0.02000601 -0.0011914241 -0.001424363 0.020029293 -0.0034084986 0.028813414 0.014082472
0.0115129035 -0.025328688 0.0016079032 0.035223834 -0.021191858 0.014677063 0.016783234 -0.008892794
0.04704181 0.006080089 -0.043001764 0.039685592 -0.0005109007 0.005920318 0.014127223 0.025503153
