16_label_80.pth (torch, 565316 bytes, 20 tensors)

weight f4 [64, 48, 3]
000000 c5 3b 6d 3d dd bd d9 3c 0a ea a2 3d e3 b4 94 3c
       0.05791833 0.026579792 0.07954796 0.01815266
000010 13 1f ab 3d 3b 67 25 3e 0b 2e 88 bd ed ed 12 bd
       0.08355536 0.1615266 -0.06649407 -0.035871435
000020 b0 aa 4d 3d f1 25 32 be 08 20 b4 bd 04 d9 2b bd
       0.05021161 -0.17397286 -0.08795172 -0.04195501
000030 8a 65 bf bc c4 8f 64 bc 0e 9e 24 3c d7 bf 06 be
       -0.023363847 -0.013950292 0.010047449 -0.13159119
000040 db 86 22 be 31 c7 e7 bd a9 93 dc 3d 21 48 06 3e
       -0.15871756 -0.113172896 0.107703514 0.13113452
000050 ce b8 25 3e 6e c7 c3 bd 46 da 44 bd d0 72 55 bc
       0.16183779 -0.095595226 -0.048059724 -0.013027862
000060 69 51 01 3d 87 23 87 bc 56 91 af 3d 2d 79 9e 3d
       0.03157178 -0.016496433 0.085726425 0.07737956
000070 ab 40 9f 3d c2 22 1d 3e 25 ea 38 bd de 42 31 3d
       0.07776006 0.1534529 -0.045145173 0.04327666
000080 39 6a ef 3d 4b 41 38 bc b7 db de 3b 03 eb 7f 3d
       0.11690182 -0.011246036 0.0068010944 0.062479984
000090 bf 76 06 bd d1 81 73 3c a2 66 f7 3d 0e 87 97 bd
       -0.03282809 0.014862494 0.120801225 -0.073988065
0000a0 cd bc 52 bd 34 6f 84 bd 98 15 46 3e ae ba 67 3e
       -0.051449586 -0.06466523 0.19344175 0.22629806
0000b0 d9 ca 38 3e 17 0c 82 bd 8c db aa bd af bf 3d bd
       0.1804613 -0.06349962 -0.083426565 -0.04632538
0000c0 4d 0a cb 3c 47 e9 0a 3d 12 97 f7 3d 9f 84 1a bd
       0.024785185 0.033913877 0.12089361 -0.037724134
0000d0 a2 e5 9b bc 68 c3 0a 3c f8 a3 c6 3c 3e 22 f6 3d
       -0.019030396 0.00846944 0.024248108 0.1201825
0000e0 32 20 ba 3d 18 6c e9 3c 3a ae 85 3d aa 0f 17 3e
       0.09088172 0.028493926 0.06527372 0.14752069
0000f0 5d c8 86 3d 63 d4 5d bc 68 ac 0e 3d 95 7f e2 bc
       0.06581185 -0.0135394065 0.03483239 -0.027648726
000100 fe cb 55 bc 5c a6 40 3d ff 0d 89 37 93 76 5f bc
       -0.013049124 0.047033653 1.633819e-05 -0.01363911
000110 2e 6c a7 3c 63 9b 6e bd af d8 58 3b 14 6b 8d bc
       0.020437326 -0.058253657 0.0033088138 -0.017262973
000120 6a a7 21 3d 96 2b 87 3d 28 ee c8 bb 2b 0d a2 3d
       0.0394663 0.0660011 -0.006131906 0.07912668
000130 76 56 62 3d 9b 29 0b 3e 3a f7 be bd f9 47 95 3c
       0.055258237 0.1359009 -0.093244985 0.018222796
000140 f4 67 20 bd 2b 4f 11 3d bd 52 cd 3c 9b 94 3b 3d
       -0.039161637 0.03547589 0.025063867 0.045796018
000150 ab 12 fd 3c e9 2a 9b 3d 04 dc 88 3d 1a 1a 5f 3d
       0.03089269 0.07576544 0.0668259 0.05446825
000160 83 53 17 bb a3 b5 6f 3d d3 08 03 be 43 c2 31 be
       -0.0023090548 0.05852283 -0.12796335 -0.17359261
000170 52 e8 98 bd 20 ca 8b be 91 4a b3 be 7b b9 8b be
       -0.074661866 -0.27302647 -0.35017827 -0.27289948
000180 4c 79 85 3d 05 33 1a bd 15 b8 9b 3d 8b 79 52 be
       0.06517276 -0.037646312 0.0760347 -0.20554177
000190 a6 e5 61 be de 33 60 be 1f 09 8f bc cd 66 6e 3c
       -0.2206026 -0.21894786 -0.017460404 0.014550877
0001a0 0e c8 8f 3d 76 6b cf 3d e6 bb 85 3d 58 4f 51 3d
       0.07020579 0.101279184 0.065299794 0.05110106
0001b0 20 86 19 3e 28 0f 5d 3d 94 23 05 3e d3 91 bc bd
       0.14992571 0.053969532 0.13001853 -0.09207501
0001c0 05 f4 b8 bd 97 d2 9b bd 57 56 3f bc 09 01 e1 bb
       -0.09030918 -0.07608526 -0.0116783 -0.0068665785
0001d0 7d 1e 5a bd cd 45 91 be cb 58 af be ea f1 aa be
       -0.053251732 -0.28373566 -0.3424743 -0.3338769
0001e0 1e 9e 99 3c 3a 5a 09 bb 9e ec a8 bd 1b 9b 0e be
       0.018752154 -0.002095832 -0.08248256 -0.13926356
0001f0 90 f7 e7 bd 38 e2 1d be 64 92 58 be 83 c6 5e be
       -0.11326516 -0.15418327 -0.21149594 -0.21755414
000200 69 50 1e be fd 0d 47 3d bd a6 9b bc 88 04 9e 3d
       -0.15460362 0.048597325 -0.019000405 0.07715708
000210 68 08 8d 3d cc f4 35 3d 3b e9 84 3d cf 42 91 bc
       0.06886369 0.04442291 0.06489798 -0.017732052
000220 ea 3e 64 bc 06 79 8d 3d 35 ca e0 3d ac 34 e5 3d
       -0.0139310155 0.06907849 0.10976068 0.11191687
000230 91 c8 fc 3d 60 06 15 3d 0e d7 14 bd ab 00 a2 3d
       0.123429425 0.036383033 -0.036337905 0.07910284
000240 16 93 87 3d ff 39 23 3d 9f dc 12 3d 40 58 fd 3d
       0.06619851 0.03985023 0.035854932 0.12370348
000250 30 41 2a 3e 65 39 1f 3e 0d 6f 23 be 31 c7 41 be
       0.1662643 0.15549238 -0.15960331 -0.18923642
000260 86 bc 3e be 1e 4f c6 bd 2b 58 60 3c b2 d2 20 bc
       -0.18626603 -0.09683059 0.013692896 -0.009815859
000270 33 d2 3f bd d7 60 d4 bc fe e7 86 bd 68 c7 c3 bd
       -0.04683132 -0.025925083 -0.06587218 -0.09559518
000280 a7 ff b7 bd c0 59 4e bd ca 0c 35 be 62 9e 12 be
       -0.08984309 -0.05037856 -0.1768066 -0.14318231
000290 70 9a d4 bd 77 77 1a 3c d1 f3 74 3c 66 9f 31 3c
       -0.10381019 0.009427897 0.0149507085 0.010841226
0002a0 54 2e 8d bd 83 2a 41 bb 89 c0 01 bd 39 5b 3e 3d
       -0.06893602 -0.0029474802 -0.031677756 0.046473715
0002b0 f8 34 04 3e dc 85 12 3e 8f 3c a5 bd 74 bf 3d 3c
       0.12910831 0.14308876 -0.08068191 0.0115812905
0002c0 3f 91 67 3d 38 e6 10 3e d5 c6 63 3e 0c 07 79 3e
       0.056535 0.14150321 0.22243817 0.24319094
0002d0 36 08 ba bc 4f 07 17 bd 49 f8 83 bd 13 9f 24 be
       -0.022708993 -0.036872204 -0.06443841 -0.16076307
0002e0 73 38 16 be e4 1b 1b be 64 f3 4b bd 62 0d fc bd
       -0.14669971 -0.15147358 -0.049792662 -0.1230724
0002f0 68 fa 2c bd 69 e8 9c 3c bb 18 d6 3b 93 dc 0c bd
       -0.042230994 0.01915379 0.00653371 -0.034390043
000300 59 f0 f8 3d f4 f1 90 3d 45 8e 8e bd 46 9c 6d 3e
       0.12155218 0.07077399 -0.069607295 0.23204145
000310 ef a8 82 3e 43 8b 38 3e 27 01 1b bd 0d 36 7d bd
       0.2551951 0.18021874 -0.037842896 -0.061819125
000320 2f 6f 18 bc d2 a0 fe bc a5 b1 2f bc 52 6d 85 bd
       -0.009303852 -0.031082544 -0.010723506 -0.06514992
000330 a8 81 10 3e 05 c4 de 3d 7c 9b e7 3d 60 25 40 bc
       0.1411196 0.108772315 0.11308953 -0.011727661
000340 03 45 1f bd ae ed 1c bd 14 4c c2 bd 87 b6 e3 bd
       -0.038884174 -0.038312607 -0.09487167 -0.11118799
000350 80 eb 96 bd 3c ca 79 3d 64 b1 c3 3d ab 2c cd 3d
       -0.07369137 0.06098388 0.09555319 0.10018285
000360 28 b5 68 bd df 48 8e bd f0 1d dd bd 68 c4 f1 bd
       -0.05681339 -0.06947493 -0.10796726 -0.1180504
000370 22 42 02 be 88 65 c3 bd 57 83 96 3d bf c3 05 3c
       -0.1272054 -0.0954085 0.0734927 0.008164345
000380 f5 e8 85 3d 4f a7 56 39 01 69 d1 bc e6 c4 4a bd
       0.06538574 0.00020470958 -0.025562765 -0.049504183
000390 3e f4 f5 3d 41 66 2b 3e c5 d4 9f 3d 15 8c f0 bc
       0.12009476 0.16738226 0.078042544 -0.029363671
0003a0 ab 71 b4 3c 03 1b 34 3c 6c 4f 71 3e 93 3d 89 3e
       0.022026857 0.010992768 0.23565453 0.2680479
0003b0 00 87 85 3e ad ba e1 3c de bc fc 3c 85 04 8b 3d
       0.2607956 0.027554834 0.030851778 0.067879714
0003c0 03 3d da bd 83 62 b9 bd 0f 6d b1 bd 84 d9 2b be
       -0.10656168 -0.09051993 -0.086633794 -0.16782194
0003d0 03 71 4f be 4d e6 33 be ff 47 fb bd 28 ef bb bd
       -0.20257954 -0.17568322 -0.122695915 -0.09176475
0003e0 a6 86 b7 bd b5 95 67 be 16 2e 9b be d7 cb 84 be
       -0.08961229 -0.22615702 -0.30308598 -0.25936767
0003f0 36 b3 6d bc 6e 01 d7 3b 44 52 36 bb 1b 2b 27 3e
       -0.014508059 0.0065614497 -0.002782003 0.16325037

bias f4 [64]
000000 c7 39 60 bc b4 17 d2 bd 6d a4 9b bb 54 ca f0 bc
       -0.01368565 -0.10258427 -0.0047498257 -0.029393353
000010 c9 c7 ff 3b bf 23 93 bd 48 16 52 3d ba b9 0b bd
       0.0078057987 -0.071845524 0.05129078 -0.03411267
000020 f6 ef e9 bc 11 6e 93 3d 8a 55 d0 3d 73 06 01 3c
       -0.028556805 0.07198728 0.10172565 0.007875073
000030 87 36 dd 3c 72 25 37 3d 08 d4 88 bb 9b df 05 bd
       0.02700354 0.044713445 -0.0041756667 -0.03268395
000040 3c 76 2c bd d3 f2 4a 3c 9e e2 2b 3c d3 e6 dc 3c
       -0.042104945 0.012386995 0.0104910415 0.026965534
000050 51 a7 8a 3d 9a 58 a1 bd 5c 08 17 bd 15 7e 94 bc
       0.06770194 -0.078782275 -0.036873206 -0.018126527
000060 d7 1d c0 bd 52 3a 79 bc 9d 8c 30 bd f2 f1 8a 3d
       -0.093806915 -0.015211659 -0.04310285 0.06784429
000070 37 3c 56 bd b8 96 f0 bc 5c 1a 05 bd 68 7f 73 3c
       -0.05230352 -0.029368743 -0.03249584 0.014861919
000080 b0 93 8a 3d 61 c1 0b bc bb 58 90 3d 4c 87 21 bd
       0.067664504 -0.008529992 0.07048174 -0.03943567
000090 b0 db 04 3a 0b f0 82 bc c9 72 ca bc 86 6d e3 3c
       0.00050681364 -0.015983602 -0.024712937 0.027762186
0000a0 34 d6 91 3d a8 3f a6 bd e4 44 50 3d c1 19 17 3d
       0.07120934 -0.0811761 0.05084695 0.036889795
0000b0 50 80 4e bd 59 8a 1f 3c a5 00 1d bc df 66 c8 3c
       -0.050415337 0.0097375745 -0.009582673 0.024463115
0000c0 f6 fb b7 3d 4d c7 ab 3d 6f 03 64 bc b2 ef d3 bc
       0.089836046 0.08387623 -0.013916834 -0.025871132
0000d0 d1 8b 94 3b 48 cf 87 bd 49 ff 59 bd 84 0d c5 3b
       0.004533269 -0.06631333 -0.053221975 0.006013574
0000e0 1c 00 5e bd 3c 8c 69 bc 0f f8 7b bd 3f 72 42 3d
       -0.054199323 -0.014254626 -0.061515864 0.047472235
0000f0 b7 ec 89 bd 89 33 02 be 53 2f 39 bd 19 67 82 3d
       -0.06734603 -0.12714972 -0.045211148 0.063673206

weight f4 [64]
000000 e4 04 0d 3f 87 58 24 3f 91 76 19 3f dc d2 12 3f
       0.5508559 0.6419758 0.5994654 0.57352996
000010 42 66 14 3f 43 ed 30 3f 7b e3 11 3f 6c f8 21 3f
       0.57968533 0.6911203 0.5698773 0.63269687
000020 b1 e4 1a 3f 38 a0 19 3f 5b ff 11 3f cd 0a 21 3f
       0.60505205 0.600101 0.57030267 0.62907106
000030 04 a1 1d 3f 64 fe 1d 3f 48 a8 02 3f e3 e1 0c 3f
       0.61573815 0.61716294 0.51038027 0.55032176
000040 0d 11 1b 3f 59 2a 20 3f de 98 16 3f bb f3 1d 3f
       0.6057289 0.6256462 0.58827007 0.6170003
000050 e8 47 08 3f a6 ff 21 3f 07 9a 00 3f de 52 21 3f
       0.5323472 0.63280714 0.5023503 0.6301707
000060 32 bc 43 3f 70 a6 16 3f d7 1d 10 3f 19 9f 1a 3f
       0.7645904 0.58847713 0.5629553 0.60399014
000070 55 c9 09 3f 14 89 1c 3f b3 e2 26 3f 88 f5 1c 3f
       0.53822833 0.61146665 0.65189666 0.6131215
000080 ee 9d 02 3f 02 fa 1c 3f 90 fc 25 3f 1f 96 1c 3f
       0.5102223 0.6131898 0.64838505 0.61166567
000090 99 d4 21 3f 2b fe 0e 3f 5f 3e 14 3f 99 05 20 3f
       0.63215023 0.5585658 0.5790767 0.6250854
0000a0 31 b5 0c 3f f4 3b 1e 3f 03 35 14 3f 0b 7f 27 3f
       0.54963976 0.6181023 0.5789339 0.6542823
0000b0 86 7f 1a 3f 34 2f 12 3f df f9 08 3f 21 de 0c 3f
       0.60350835 0.57103276 0.53506273 0.5502644
0000c0 ac 98 24 3f b3 c9 1c 3f ec 50 1b 3f 2e 01 eb 3e
       0.6429546 0.6124527 0.6067035 0.45899338
0000d0 e5 d4 0f 3f c5 6f 32 3f 0b bb 25 3f 53 b0 22 3f
       0.56184226 0.69701797 0.6473853 0.635503
0000e0 80 4b 26 3f 6b a6 0e 3f 42 79 1e 3f e8 fd 1b 3f
       0.64958954 0.55722684 0.61903775 0.60934305
0000f0 c3 f0 1e 3f 94 d5 1c 3f 0d 92 0c 3f 57 33 0f 3f
       0.62086123 0.61263394 0.54910356 0.55937713

bias f4 [64]
000000 07 de d7 be 47 3a 09 bf 8c 33 e5 be 3a 70 a7 be
       -0.4216158 -0.5360455 -0.4476589 -0.3270281
000010 f1 55 d6 be 13 28 21 bf d4 18 f5 be af 8d 03 bf
       -0.41862443 -0.62951773 -0.47870505 -0.51388067
000020 71 71 0d bf 4d 8d da be 22 93 d7 be d3 83 ec be
       -0.5525122 -0.4268593 -0.4210444 -0.46194324
000030 f5 22 0f bf 86 82 03 bf ad 5e 8a be ea 5e ae be
       -0.55912715 -0.5137104 -0.27025357 -0.3405679
000040 43 37 f7 be 2a d2 d6 be fd 6b c1 be 06 0a 02 bf
       -0.4828435 -0.41957217 -0.377777 -0.50796545
000050 fe eb d5 be 1f b2 0e bf e0 6f 68 be 71 bf e6 be
       -0.4178161 -0.5574054 -0.22698927 -0.45067933
000060 f0 b4 1f bf 77 e9 d9 be bb a8 ab be ad 73 00 bf
       -0.62385464 -0.42560932 -0.3352717 -0.5017651
000070 cd c3 9e be 41 93 09 bf a4 52 06 bf c8 30 f4 be
       -0.3100876 -0.53740317 -0.5246985 -0.47693467
000080 16 2c 9e be 8a d9 04 bf b9 6f 04 bf b8 f1 f0 be
       -0.3089301 -0.5189444 -0.51732975 -0.47059417
000090 28 7f 22 bf b1 c7 bd be 99 47 d7 be 5a ea 17 bf
       -0.63475275 -0.37066415 -0.42046812 -0.5934197
0000a0 ba c6 8b be d4 d1 10 bf 62 1e f2 be c4 6c 1d bf
       -0.27300054 -0.5657017 -0.47288805 -0.6149409
0000b0 d2 34 d0 be 52 87 a6 be c6 68 91 be 09 97 ae be
       -0.406653 -0.32525116 -0.28400248 -0.34099606
0000c0 20 db dc be 56 5a e1 be 01 4a 03 bf 32 76 28 be
       -0.4313593 -0.44014233 -0.51284796 -0.16451338
0000d0 f5 c0 e9 be ac 1c 07 bf a6 58 13 bf 09 04 e0 be
       -0.45655027 -0.52778125 -0.5755714 -0.4375308
0000e0 6c 4b 09 bf 8e cb 01 bf 88 3b b4 be ad 12 0a bf
       -0.5363071 -0.50701225 -0.3520167 -0.53934747
0000f0 b5 4a 17 bf 82 83 01 bf 68 80 c7 be d9 4c d1 be
       -0.5909837 -0.5059129 -0.38965154 -0.40878943

running_mean f4 [64]
000000 23 51 0f c0 c9 f3 b3 bf 16 fe 4e be bd b1 59 bf
       -2.2393272 -1.4058772 -0.20214114 -0.8503683
000010 16 8c cb be f7 69 4f be c8 7a 05 be 6c 02 86 3f
       -0.39755315 -0.20255266 -0.13035119 1.0469489
000020 bb f1 be be 85 67 5b 3f e2 92 3e bf 65 fe 08 bf
       -0.372938 0.85704833 -0.74442875 -0.53513175
000030 73 52 49 3f ce 42 4d 3f be 6f b2 be 4c 30 00 3e
       0.7864143 0.8018006 -0.34850878 0.12518424
000040 d9 c6 a5 bf 43 c6 8f be 41 18 05 be 84 9b 0c 40
       -1.2951308 -0.2808095 -0.12997533 2.196992
000050 fb c9 a3 3e 55 b6 83 3e 90 92 2a 3f a5 84 06 3f
       0.31990036 0.25725046 0.66629887 0.5254615
000060 c9 55 4e bf 63 e8 dc bf 13 b7 a6 bf 24 c5 5f 3f
       -0.8059965 -1.7258419 -1.302462 0.8741019
000070 14 2b 93 bf ce 81 30 3f 8c ce 91 bf 66 76 7a 3e
       -1.1497521 0.68948066 -1.1391158 0.24459228
000080 e6 71 a5 3b b6 b9 4d bf 41 82 f9 be 5a 6f 1d bf
       0.005048978 -0.803615 -0.48732188 -0.61498034
000090 b7 77 46 3f ab fb 8f 3f 55 06 2d bf 1a d9 ee bd
       0.7752642 1.1248678 -0.67587787 -0.116625026
0000a0 77 e8 23 be e7 fe 06 bf 11 1a 5c bf 25 33 fb 3f
       -0.16006647 -0.527327 -0.85977274 1.9624983
0000b0 28 5f 86 3f c3 e3 9f 3f 9d 7c 1b 3f ac fa 05 c0
       1.0497789 1.2491382 0.6073702 -2.0934248
0000c0 26 48 18 3f ba 92 44 be 57 77 bf bf a0 ff 4d 3e
       0.5948509 -0.19196597 -1.4958295 0.20117044
0000d0 d0 a7 9c be 94 d2 27 bf ce 4b bd 3f e8 08 6f bf
       -0.3059678 -0.6555569 1.4788759 -0.93372965
0000e0 d5 3b 52 be d6 c8 90 be a2 21 ab 3e f2 82 d5 3f
       -0.20530637 -0.28278226 0.33424097 1.6680586
0000f0 fe 30 48 bf c5 92 2a c0 87 b1 a0 bf e0 8c a2 3e
       -0.78199756 -2.665208 -1.2554177 0.31748104

running_var f4 [64]
000000 60 df 82 3f 2c cc cf 3e c3 55 aa 3e 49 a6 8f 3e
       1.0224419 0.40585458 0.33268556 0.28056553
000010 84 37 67 3e f9 e1 74 3e cf cf 6e 3e 88 a0 58 3e
       0.22579771 0.23914327 0.2332146 0.21154988
000020 fd f3 82 3e 8f ec 49 3f b6 b7 bf 3e cb 54 77 3e
       0.25576773 0.78876585 0.37444848 0.2415344
000030 ae 82 cf 3e ed 0b de 3e a7 d8 be 3e 14 e4 95 3e
       0.40529388 0.43368474 0.37274668 0.29275572
000040 a1 55 01 3f db 51 bd 3e 02 5c a5 3e ed 1f a2 3e
       0.50521284 0.36976513 0.3229676 0.31664982
000050 31 66 70 3e 78 07 7d 3e 01 08 ad 3e 03 30 65 3e
       0.23476483 0.2470988 0.3379517 0.22381596
000060 3d e0 46 3f a7 be 88 3e 7f bc 9e 3e 09 cd e2 3e
       0.7768591 0.26707956 0.31003186 0.44297054
000070 81 69 d2 3e 86 7a f3 3e 76 82 54 3e d5 1e 00 3f
       0.41096118 0.47554415 0.20752892 0.50047046
000080 d5 2b 56 3f c9 a0 91 3e d0 9d 99 3e 23 84 9b 3e
       0.8366063 0.28442982 0.30003214 0.3037425
000090 2d 96 7d 3e 2e f4 d2 3e 60 cc 8a 3f 05 f5 d9 3d
       0.24764319 0.4120192 1.084362 0.10642437
0000a0 c9 12 76 3e b6 b0 92 3e 9c c9 17 3f a5 77 95 3e
       0.24030603 0.28650445 0.59292006 0.29192844
0000b0 7f 6e 79 3f e8 4e b2 3e 84 57 ae 3e 5d 1c 6d 3f
       0.9743423 0.34825826 0.34051144 0.92621404
0000c0 d4 dc fd 3e ec a0 9c 3e 52 8b 82 3f a0 a4 cd 3e
       0.4958254 0.30591524 1.0198767 0.4016466
0000d0 5d c5 27 3e 5b 65 27 3f 49 f9 16 3f 42 ac 26 3f
       0.16383882 0.6538903 0.5897413 0.65106595
0000e0 83 d1 5a 3e 9c e5 ac 3e 63 f0 9b 3e 30 87 ca 3e
       0.21368985 0.33768928 0.30456838 0.39556265
0000f0 7f 86 22 3e 21 26 19 3f df 72 cf 3e 62 34 8e 3e
       0.15871619 0.59823805 0.40517327 0.2777434

weight f4 [128, 64, 3]
000000 4a f6 03 3e ad 57 22 be 4d 15 9a be cf 6b 42 be
       0.1288692 -0.15853758 -0.30094376 -0.18986438
000010 da c4 08 be 96 8a 45 3b 82 f8 b1 bd a7 3b f1 bd
       -0.13356343 0.0030142418 -0.08689977 -0.11778956
000020 52 35 45 be b8 49 98 3c ab 9f 8b 3d 62 6d 95 3d
       -0.19258621 0.01858984 0.068175636 0.07296254
000030 1b 93 7c 3d 56 51 cb 3a 8c 7c 80 3d 9a 9a 4e 3c
       0.06166373 0.0015511911 0.062737554 0.012610102
000040 5f 54 10 3d 35 3e d6 3c 91 17 8f be 08 a0 7f be
       0.035236713 0.02615271 -0.27947667 -0.24963391
000050 41 17 6b be ab aa ac 3b d3 e5 0d 3c 5c 58 81 3d
       -0.2295809 0.0052693686 0.008660751 0.06315681
000060 3b 54 c3 3d b9 6d e6 3d 70 98 6c 3e f8 5a b4 3d
       0.0953755 0.11251397 0.23105025 0.088064134
000070 2e 74 71 3d ad cf 93 bc 88 a2 24 bb cc 72 16 be
       0.05894869 -0.018043363 -0.002512129 -0.14692229
000080 6e ae 8f be a3 f0 b8 bc 1c f9 f8 bc c7 6c 4c 3d
       -0.28062767 -0.022575682 -0.030392222 0.049908426
000090 71 33 f8 bd 3c 13 32 be ee 96 4e bb b5 e3 76 3d
       -0.12119187 -0.1739015 -0.0031523067 0.060275752
0000a0 ee 25 af 3d 8a ec f1 3d 97 23 94 3d 4b f1 1a 3d
       0.085521564 0.11812694 0.07233351 0.03782777
0000b0 bd e5 ea b8 d8 15 bf bd 53 e1 9b bd 73 93 90 3d
       -0.000112007816 -0.09330338 -0.076113366 0.07059374
0000c0 a5 cf 98 be 0c 32 9a be 11 59 8a be 66 95 7c bd
       -0.2984592 -0.30116308 -0.27021077 -0.061665915
0000d0 55 12 bd bd 1c 33 83 bd 48 48 1e 3d 85 e8 f4 3c
       -0.09232012 -0.06406233 0.03864315 0.02989603
0000e0 f7 64 a1 3d 53 d7 0f 3d d2 87 24 be a8 66 74 be
       0.07880586 0.03511746 -0.16067436 -0.23867285
0000f0 5f 7d c0 bd 7c 0f b3 bd d1 a5 a9 bc 12 31 ea 3d
       -0.09398913 -0.08743188 -0.02070895 0.11435141
000100 b9 98 9f 3d 12 03 5e bc e9 a0 04 3e 4d c9 00 3d
       0.077928014 -0.013550537 0.12952007 0.031441975
000110 8a a2 07 be 35 53 12 3d 14 67 e7 3b 45 24 76 3d
       -0.13245597 0.035723884 0.0070618484 0.060093183
000120 86 6a 7f bd 62 fe 9f bb 8a de f1 3d 25 d4 d7 bd
       -0.062357448 -0.0048826197 0.11810024 -0.1053851
000130 40 af 1c be a3 47 9a bc 0f 85 a9 bc a6 73 82 bc
       -0.15301228 -0.018832987 -0.02069333 -0.015924286
000140 fd 8e 87 3c 12 e9 a3 be 04 8b 8b be 29 b3 54 be
       0.016547674 -0.32013756 -0.27254498 -0.20771469
000150 3b 1c 58 be 39 4b 3f be 62 e4 38 be 76 ba 07 bf
       -0.21104519 -0.18681039 -0.18055871 -0.5301889
000160 c9 d2 aa be 6c ea 9e be ad 54 5e 3e 35 08 59 3e
       -0.3336394 -0.31038225 0.21711989 0.21194537
000170 99 2b 5c 3e 96 04 08 3d 97 ee c1 bd 0a ee c5 bd
       0.21501006 0.0332075 -0.094693355 -0.09664543
000180 71 a2 30 3d 38 8a 5e bc 09 2a 9d bc 48 e6 3c be
       0.043123666 -0.013582759 -0.019185083 -0.1844722
000190 70 25 92 be b0 ce 6f be 7c 1b d5 bd b4 3b 24 be
       -0.28544188 -0.23418689 -0.10405633 -0.160384
0001a0 22 fc 37 be 71 2f 2c 3d e0 73 2e 3c 5c ab 3a bd
       -0.17967275 0.04203743 0.010647744 -0.045573577
0001b0 2a 20 5d 3e 7b 42 96 3d a9 fe 04 bd 3b e7 9c be
       0.21594301 0.07336899 -0.032469425 -0.30645165
0001c0 43 27 95 be 34 a3 31 be a4 2a 44 3d 67 6f 8d bc
       -0.29131517 -0.17347413 0.047892228 -0.017265035
0001d0 72 de 30 bd fe 74 20 bd bb 85 97 bd 6c 69 c1 bd
       -0.04318089 -0.039174072 -0.07398554 -0.09443936
0001e0 22 98 41 3d 18 a1 d5 3c f0 b1 31 3d d0 7a ff bd
       0.047264226 0.026077792 0.043382585 -0.124745965
0001f0 d4 4a 50 bd 29 8e 29 3c 70 ad fb bc 7a 68 0e bd
       -0.05085261 0.010348835 -0.03072235 -0.034767605
000200 11 b9 9c bd f0 c8 79 bd 3f b5 60 3d e2 73 93 3c
       -0.07652486 -0.060982645 0.05486035 0.017999593
000210 62 a7 e1 bb c6 7d e0 3c 13 2c 01 3d 47 fb 52 bc
       -0.0068864087 0.027403723 0.031536173 -0.012877292
000220 b5 05 8a 3c 54 a6 21 3d 66 35 a9 3d 8b d0 6e 3d
       0.016848424 0.039465263 0.08262138 0.05830435
000230 b7 5f c7 3d 41 c9 12 3c 09 98 d4 bc e3 2b a7 3d
       0.09735053 0.0089591155 -0.025951402 0.081626676
000240 54 e1 b7 3c 87 7b 61 3d 15 f2 25 3e 6a 20 26 bd
       0.022446312 0.055049445 0.16205628 -0.040558256
000250 4f d7 d3 bd 9b ed 0d 3d 9a a2 16 3d 92 92 a0 3c
       -0.10343801 0.034650426 0.036776163 0.01960114
000260 33 29 4f 3c 6a ce 05 3e c2 3a 55 3c 12 14 5c be
       0.0126441 0.13067022 0.013014497 -0.21492031
000270 d9 97 6c bd 08 32 00 be 3a 13 41 bc 60 79 3c 3e
       -0.057762 -0.12519085 -0.011784369 0.18405676
000280 e5 d4 12 3e c8 ca 13 3e 94 53 a9 3c 03 67 68 bd
       0.14339025 0.14432824 0.020669736 -0.056738865
000290 b1 f1 12 3c 1e 02 9a 3c f1 ee 93 3c c5 8f f7 3d
       0.0089687565 0.018799838 0.018058272 0.12087969
0002a0 8f 0c c5 3d 47 e0 c8 3d 08 f0 fc 3d 9f fe 1b be
       0.09621536 0.098084025 0.1235047 -0.15233849
0002b0 22 56 fa bd d6 74 29 3c 8b f6 41 3c 1a d4 f8 3b
       -0.1222346 0.010342797 0.011838566 0.007593644
0002c0 27 6c 59 3c 5a e1 5b bd 22 15 9d be 9c 67 94 be
       0.013270414 -0.05368171 -0.30680186 -0.28985298
0002d0 69 5c d0 3d 9e 7c 4e 3c 70 f0 84 bd 0e e2 d1 bd
       0.10173876 0.012602953 -0.06491172 -0.10248195
0002e0 2f 36 ad bd ff 4b 02 ba b6 9a 5f 3d 41 b5 99 3c
       -0.084576 -0.0004970431 0.054590903 0.018763186
0002f0 6c db 40 3c c1 56 dd bd 90 22 00 be bd cf 07 be
       0.011771064 -0.108075626 -0.12513185 -0.1326284
000300 39 6a 6e 3b 3e f3 66 bd 07 56 9f bd f4 1b 54 be
       0.0036379232 -0.056384318 -0.0778008 -0.20713788
000310 23 eb fb bd c8 6d 18 be d3 79 af bc a3 b5 f0 bc
       -0.12300708 -0.14885628 -0.021420395 -0.029383486
000320 cf f0 f1 bd 49 fb e3 bc 7b 30 b0 3c c7 c9 88 3d
       -0.11813509 -0.027829783 0.021507492 0.06679111
000330 82 8e 1c 3c 19 61 17 bc 05 55 94 3c 48 73 60 3d
       0.009555461 -0.0092394585 0.018106947 0.05479744
000340 10 e2 d3 3a 1e 78 5c bc ad 2b b1 3d 64 0b a2 3d
       0.0016165394 -0.013456373 0.086509086 0.07912329
000350 13 5e ae 3d c9 ca 40 be 2a f0 79 be c4 b4 64 be
       0.08514037 -0.18827356 -0.24408022 -0.22334582
000360 64 17 e5 bd 62 bc 2f bd bc fc 19 bb 5e b4 89 bd
       -0.11186102 -0.042904265 -0.0023496589 -0.067238554
000370 ab b2 01 bc d0 c6 18 bd 06 62 9e 3d e5 9e 42 3d
       -0.007916133 -0.037298977 0.0773354 0.047514815
000380 41 80 a1 3c cb 20 d5 bb 36 d7 46 bd 10 f6 62 bc
       0.019714477 -0.0065041534 -0.048545085 -0.013852611
000390 db 30 15 be 43 6e 02 be 9f 33 e0 bd 15 1a b1 be
       -0.14569418 -0.12737374 -0.10947346 -0.34590212
0003a0 a2 af a9 be 89 d4 67 be b2 ce 68 3d 63 4e 19 bd
       -0.3314181 -0.2263967 0.056837745 -0.03742827
0003b0 46 cc de bd ba 09 d5 be e3 c1 a1 be 45 96 98 be
       -0.10878806 -0.41608983 -0.31593236 -0.29802147
0003c0 3c be 9c be 5a 87 77 be cf 77 63 be b6 90 ce be
       -0.30613887 -0.24172726 -0.22213672 -0.4034478
0003d0 80 97 a8 be 16 34 af be 3a 69 77 3d 2b fa 9f 3d
       -0.32928085 -0.34219426 0.060403086 0.07811388
0003e0 27 ff cd 3d 54 66 21 3d a2 01 0f 3b 0f c1 a5 bc
       0.10058432 0.03940423 0.0021821042 -0.02023366
0003f0 fb 05 32 3a 56 e8 05 bc 48 59 4f 3b fa c2 39 3a
       0.00067910523 -0.008173069 0.003163891 0.0007086244

bias f4 [128]
000000 78 c9 2c 3d 7f bd 1a bd 32 12 f1 3c ca d8 9d bc
       0.042184323 -0.037778374 0.029427622 -0.019268412
000010 5c d6 52 bc 26 28 be bc 12 49 77 bd 5e 26 1f 3b
       -0.01286849 -0.023212504 -0.06037242 0.0024284343
000020 b7 0c e8 3a ca ed 12 bd 5e e8 bc 3b 04 d6 ff 3c
       0.0017703985 -0.035871305 0.005765005 0.03122998
000030 26 f7 36 3d 20 6b e0 3c bf f8 6d 3d 7b 3c 2a 3d
       0.044669293 0.027394831 0.05809855 0.041561585
000040 d6 6b 77 3c 93 a9 49 bc 0e f0 13 3c 8c 0d d9 3b
       0.015101394 -0.012308496 0.0090294015 0.0066239294
000050 bd 29 c4 3c 93 5a 3e 3d 7e fa f8 bb df 83 76 bc
       0.023945684 0.046473097 -0.0075982204 -0.015046089
000060 6d 8e 3e 3d 66 aa 94 3d cc 48 5b bd 20 d6 40 bb
       0.046522547 0.072590634 -0.05353622 -0.0029424503
000070 6a 66 ca bc e5 1a 14 3d c2 56 32 bd 12 c6 9d bc
       -0.024707038 0.03615846 -0.04353977 -0.019259486
000080 4f ca 37 bd e1 ce ba bc 38 b1 eb 3c 09 10 23 3c
       -0.04487067 -0.022803726 0.028771028 0.009952554
000090 db a9 38 3d 65 85 37 3d 82 12 1e 3d 68 e9 7b 3b
       0.04508386 0.04480495 0.03859187 0.0038438682
0000a0 43 23 bc bd 52 ee 89 3c 07 89 68 3c dd 93 52 bd
       -0.09186413 0.016837273 0.014192826 -0.051410545
0000b0 21 8c a1 3c cb f4 b7 3c e7 3d dd bc bd 17 5a bd
       0.019720139 0.022455594 -0.027007056 -0.053245295
0000c0 f8 ec 28 bd de 8f 0e bd 95 7e 39 bd c9 dd c5 3c
       -0.041241616 -0.03480517 -0.045286734 0.024153607
0000d0 a7 ba bf bc 11 52 7d 3c 3d a2 e1 3c 2d 6d a6 3c
       -0.023404432 0.015461461 0.027543182 0.020315731
0000e0 83 f9 f2 3b be 37 e4 bc 73 85 07 bd ff 3e 3d bd
       0.007414998 -0.027858611 -0.03308625 -0.046202656
0000f0 cb 2a e6 3b 50 9b 29 bd 41 5e 7d 3c 72 ed 24 bd
       0.0070241443 -0.041407883 0.015464366 -0.040265508
000100 e2 77 04 bb 10 fb a1 38 0f 77 91 bc b4 64 bf bc
       -0.0020213057 7.723842e-05 -0.017756967 -0.023363449
000110 dd 09 03 bd c6 9e 01 3d 8d 10 9d bb ef ac 24 3c
       -0.03199183 0.03164556 -0.004793233 0.010050996
000120 e5 e9 87 bd 8e 36 d0 bc 6a 05 b2 3c 89 e7 05 bd
       -0.06636409 -0.025416639 0.021731097 -0.032691512
000130 1a 11 85 3d 40 a9 27 bc 1a d8 9a 3c a8 a6 bf bd
       0.064974025 -0.010233223 0.018901873 -0.09357959
000140 a4 2b 8f 3c 95 e4 f8 3b 42 8b 6c bc 67 c1 81 bc
       0.017476864 0.0075956085 -0.0144374985 -0.015839292
000150 a0 0b aa bc 74 5c 88 bc a4 12 4c bd 1f 88 03 3d
       -0.020757496 -0.016645648 -0.049822465 0.032112237
000160 26 76 5e bd 06 c6 17 bd 7c fc 95 3c 09 7e aa bc
       -0.054311894 -0.037054084 0.01830887 -0.020812051
000170 84 5b 76 3c 74 73 3d 3c f2 69 62 3d 8e 93 46 bc
       0.015036467 0.011563171 0.05527682 -0.012120141
000180 6f 95 1f bc 5c fc 29 bd e9 07 a0 bb 1b b0 c0 bc
       -0.009740218 -0.041500434 -0.0048837555 -0.023521474
000190 52 54 98 bc 7b e2 42 bc e7 15 e4 3c a8 8d 06 bd
       -0.018594895 -0.011894817 0.027842475 -0.032849938
0001a0 59 85 4c 3d d3 91 a3 bc e9 bc 9c bc 82 be fd 3b
       0.049931858 -0.019966995 -0.019133048 0.0077436576
0001b0 e7 e5 b1 bd 54 df 19 bb a2 a3 61 bd b1 e6 c1 bc
       -0.086864285 -0.0023479061 -0.055087693 -0.023669573
0001c0 f7 08 01 bd 0c 1a bb bc 14 eb 04 be 1a 1c e9 bc
       -0.03150269 -0.022839569 -0.129803 -0.028455783
0001d0 29 2b cb bc 88 fb c2 bc 0f 50 2e bd 20 2f ce 3c
       -0.024800854 -0.02380158 -0.04255682 0.025168955
0001e0 eb 87 30 3d d6 e5 9f 3b b1 09 65 bc dc 40 3e bd
       0.04309837 0.0048796935 -0.013979361 -0.046448573
0001f0 2f 05 fe bc 51 ac 5a bd 4c 43 60 bd 5b fc 56 bc
       -0.031008331 -0.05338699 -0.05475168 -0.01312169

weight f4 [128]
000000 7d 98 14 3f d7 e3 31 3f 78 19 21 3f 7a 53 1a 3f
       0.5804518 0.6948828 0.6292949 0.60283625
000010 bf 98 10 3f 27 b8 21 3f b9 a5 20 3f 51 73 24 3f
       0.5648307 0.6317162 0.6275287 0.6423846
000020 ce 14 2a 3f a0 92 23 3f 66 3d 10 3f 28 f8 2d 3f
       0.66437995 0.63895607 0.56343687 0.6795678
000030 96 27 21 3f 06 c1 26 3f ae 0e 21 3f 31 84 1f 3f
       0.6295103 0.6513828 0.62913024 0.62311083
000040 e3 f4 24 3f 05 89 1a 3f 0c 96 02 3f 39 ba 30 3f
       0.6443617 0.60365325 0.51010203 0.69034153
000050 0f eb 19 3f 30 5d 24 3f 32 98 1b 3f 7d 27 1e 3f
       0.60124296 0.6420469 0.60779107 0.61779004
000060 3f 9b f6 3e cf 7d 23 3f 82 2d 24 3f 80 6f 06 3f
       0.48165318 0.63863844 0.6413194 0.52513885
000070 cb 4a 20 3f cd 46 15 3f 2b 0e 1a 3f e7 c3 09 3f
       0.62614125 0.5831116 0.6017787 0.5381455
000080 de 9f 1c 3f c3 cd 0f 3f 21 f8 19 3f 48 19 26 3f
       0.6118144 0.5617334 0.6014424 0.64882326
000090 e7 c4 1a 3f 2a 15 2e 3f f3 79 25 3f 1c 22 12 3f
       0.604567 0.68001044 0.64639205 0.57083297
0000a0 aa 06 24 3f 95 64 21 3f 81 76 26 3f b4 fb 22 3f
       0.6407267 0.630441 0.6502457 0.6366532
0000b0 8d d5 14 3f 2a 61 0a 3f 6c 18 1c 3f 3c 5c 1b 3f
       0.5813835 0.5405451 0.60974765 0.60687613
0000c0 9d 6a 24 3f da 72 1a 3f 0d 3b 24 3f 5b 76 06 3f
       0.6422518 0.603315 0.64152604 0.52524346
0000d0 30 97 20 3f 0c 3c 18 3f dd 3f 0a 3f c8 57 1e 3f
       0.62730694 0.59466624 0.540037 0.61852694
0000e0 0f 0f 1d 3f 60 2e 1c 3f 4a 00 24 3f 8c e9 2f 3f
       0.613511 0.6100826 0.6406294 0.6871574
0000f0 d7 00 26 3f 8e 0f 1d 3f b1 7b ff 3e 47 8a 14 3f
       0.6484503 0.6135186 0.49899057 0.58023494
000100 14 c5 18 3f 90 23 22 3f d4 c9 2b 3f 20 6c 26 3f
       0.5967572 0.63335514 0.6710484 0.65008736
000110 e5 8c 1d 3f fc f9 0f 3f 37 9c 24 3f 9e 5f 1c 3f
       0.61543113 0.5624082 0.64300865 0.610834
000120 a1 06 13 3f a8 9b 21 3f 7b e9 04 3f 93 33 15 3f
       0.5743199 0.6312814 0.5191876 0.5828182
000130 ca 55 15 3f 1e a6 1c 3f 27 87 23 3f b0 4f fe 3e
       0.5833403 0.61190975 0.638781 0.49670172
000140 f4 ff 19 3f 73 5f 14 3f 53 1e 19 3f 28 73 1b 3f
       0.6015618 0.57958144 0.59811896 0.6072259
000150 1d 1d 28 3f cf 56 2c 3f b6 a5 0b 3f 95 b2 2a 3f
       0.65669423 0.6731996 0.5454973 0.66678745
000160 02 4f 1c 3f 64 bb 0b 3f 1a 4a 29 3f db 7f 19 3f
       0.61058056 0.5458281 0.66128695 0.59960717
000170 c7 04 f7 3e 8c 82 2e 3f 46 6d 0d 3f b6 51 2a 3f
       0.48245832 0.6816795 0.55244863 0.6653093
000180 3e bc 27 3f d6 b2 16 3f 7a 89 1f 3f 1b 2c 1b 3f
       0.6552161 0.5886663 0.6231915 0.60614175
000190 54 86 25 3f df d5 2b 3f 71 17 02 3f 68 4d 1e 3f
       0.64658093 0.67123216 0.5081702 0.6183686
0001a0 c5 55 1e 3f 3c 30 2f 3f 87 eb 18 3f 2c f7 21 3f
       0.61849624 0.68432975 0.59734386 0.6326778
0001b0 36 c2 1c 3f 09 9b 10 3f 94 34 1d 3f b0 3f 05 3f
       0.6123384 0.56486565 0.6140835 0.52050304
0001c0 8e 0a 12 3f 8f cc 24 3f 07 51 28 3f 72 cb 0f 3f
       0.57047355 0.6437463 0.6574864 0.5616981
0001d0 14 8c 29 3f 2a 28 23 3f 58 e8 29 3f 38 40 35 3f
       0.6622937 0.6373316 0.66370153 0.70801115
0001e0 9e 12 11 3f 48 47 32 3f e5 70 26 3f 47 c5 2a 3f
       0.5666903 0.69640017 0.65016013 0.6670727
0001f0 4f d0 25 3f ae 33 15 3f a7 eb 26 3f 2a a5 16 3f
       0.6477098 0.5828198 0.65203327 0.5884577

bias f4 [128]
000000 2b 23 da be bf 66 ba be 3f dc eb be 89 f2 cd be
       -0.42604956 -0.36406514 -0.46066472 -0.40224102
000010 85 3b 02 bf 18 da b9 be 44 9f c5 be 2b 0b 01 bf
       -0.5087207 -0.36299205 -0.38598073 -0.50407666
000020 11 ee eb be 37 a6 be be a1 3b e6 be ca e7 e2 be
       -0.46080068 -0.37236187 -0.44967368 -0.44317466
000030 29 20 f0 be 0c cf cb be 87 c9 c5 be ef 44 b9 be
       -0.46899536 -0.39806402 -0.38630316 -0.36185405
000040 54 45 ac be e6 98 ce be 9a 84 af be 2f 25 cc be
       -0.33646643 -0.40351027 -0.34280854 -0.3987212
000050 22 0a b8 be d4 b3 fe be 32 9c e1 be b4 20 da be
       -0.3594523 -0.49746573 -0.4406448 -0.42603076
000060 0c 62 5f be a7 67 b7 be 7f fb d0 be db bf a8 be
       -0.21814746 -0.35821268 -0.40816876 -0.32958874
000070 e9 26 d7 be 97 bb c1 be 25 3f d3 be d6 e3 a3 be
       -0.42021874 -0.37838432 -0.41259113 -0.32009763
000080 b5 a2 bf be 64 21 e2 be fe c9 cf be 6c d3 d1 be
       -0.37428823 -0.441661 -0.40583795 -0.40981615
000090 1c 58 dc be 2a 2f da be d7 31 cd be 31 e4 bb be
       -0.43035972 -0.42614108 -0.40077087 -0.36697534
0000a0 f0 c5 fb be b8 a1 e2 be e9 e0 e1 be eb 18 da be
       -0.49174452 -0.44264007 -0.44116905 -0.42597136
0000b0 70 53 ce be b0 52 8d be fc eb d1 be 22 4c 08 bf
       -0.40298033 -0.27602148 -0.41000354 -0.5324117
0000c0 fd b1 ed be e2 10 c9 be 9f ea da be 58 8c b0 be
       -0.46424857 -0.39270693 -0.42757127 -0.34482074
0000d0 ff 6d aa be f2 77 de be 99 41 d1 be cb da dc be
       -0.33287045 -0.43450886 -0.4087036 -0.43135676
0000e0 f1 17 c4 be ee 4f b9 be 6b 16 0b bf 3c ce 09 bf
       -0.38299516 -0.36193794 -0.5433108 -0.53830314
0000f0 83 8c c4 be 92 65 d1 be 2f 96 d0 be 54 cc b2 be
       -0.38388452 -0.40897804 -0.4073958 -0.34921515
000100 08 e7 b1 be b7 cb d1 be 7d 38 bd be 03 8f b4 be
       -0.34746575 -0.40975735 -0.3695716 -0.3526536
000110 da 19 bd be d7 28 0d bf 2e 5f db be 11 4e d6 be
       -0.36933786 -0.5514044 -0.42846054 -0.41856435
000120 57 8e c2 be c1 57 ef be df 41 bf be da 15 b1 be
       -0.37999222 -0.46746638 -0.37354943 -0.34586984
000130 b3 d6 e1 be 01 ba b5 be 46 f5 c4 be 09 ce 9d be
       -0.44109115 -0.35493472 -0.3846838 -0.30821255
000140 c2 36 bb be 4e c2 c4 be 11 bc cb be d2 84 df be
       -0.36565214 -0.38429493 -0.3979192 -0.4365602
000150 7e 83 d3 be db ea f7 be 87 f6 a4 be 38 34 da be
       -0.41311258 -0.48421368 -0.32219335 -0.42617965
000160 b9 21 d2 be bb f4 ca be e9 96 e2 be 66 8b b4 be
       -0.41041353 -0.3963984 -0.4425576 -0.35262603
000170 06 d8 7b be 49 91 ce be 49 63 f0 be ba b0 c9 be
       -0.24594125 -0.4034522 -0.4695075 -0.39392644
000180 73 29 fe be 9e fe 9f be d3 47 c9 be 49 bb fa be
       -0.49640998 -0.31248945 -0.3931261 -0.48971012
000190 54 5b eb be 7c cf d4 be 8e bc 10 bf e4 37 e4 be
       -0.45968115 -0.41564548 -0.5653771 -0.4457389
0001a0 f0 59 b9 be 9d 86 dd be 79 4d d2 be fd 74 d3 be
       -0.3620143 -0.43266764 -0.41074732 -0.41300192
0001b0 86 d8 f5 be e5 dd d7 be 21 14 0d bf 1d 09 a6 be
       -0.48016757 -0.4216148 -0.5510884 -0.32428828
0001c0 f9 97 96 be bf de c4 be 3a 75 e9 be f5 d3 9d be
       -0.2941282 -0.38451192 -0.4559725 -0.30825773
0001d0 db 3f 05 bf 7f 2e 01 bf 90 00 f9 be b8 2f de be
       -0.5205056 -0.5046157 -0.48633242 -0.43395782
0001e0 51 1e db be 94 2d d9 be 87 2b e0 be 7c 74 ea be
       -0.42796567 -0.42417586 -0.4378321 -0.45791996
0001f0 03 1f d1 be 01 e2 d5 be 35 8f fd be ca f8 c0 be
       -0.40843973 -0.4177399 -0.4952332 -0.3768981

running_mean f4 [128]
000000 e9 4b de be 76 8b 7f bf 15 e0 5c bf 12 09 20 bf
       -0.4341729 -0.99822176 -0.8627942 -0.6251384
000010 a2 48 72 be f5 20 74 bf ba f3 6d bf 54 3f 30 bf
       -0.2366052 -0.9536279 -0.9295002 -0.6884663
000020 a3 a9 6b bf 77 2c 3b bf c9 b0 2e bf 93 4c 64 bf
       -0.9205572 -0.7311472 -0.682385 -0.89179343
000030 73 d9 28 bf 3e 49 37 bf 4c 13 50 bf 7b cd c3 be
       -0.659568 -0.71596134 -0.81279445 -0.38242707
000040 91 86 3f bf 3c fa 39 bf 05 1f 7f bd 8f 08 4f bf
       -0.7481471 -0.7264745 -0.062285442 -0.80872434
000050 8a 28 39 bf fb 0b a6 be 48 2d 47 bf 4d dd 22 bf
       -0.7232748 -0.32431015 -0.7780347 -0.6361893
000060 cb 55 4c be f9 d9 29 bf f3 b6 6a bf c0 f1 c6 be
       -0.19954602 -0.66348225 -0.9168541 -0.38856316
000070 37 df 5e bf 3c fd c0 be 71 0f 2f bf d6 14 f6 be
       -0.8705935 -0.37693202 -0.68382937 -0.48062772
000080 bf a1 25 bf 27 94 28 bf 26 64 dc be 7e 78 48 bf
       -0.6469993 -0.6585106 -0.43045157 -0.78308856
000090 7c ba bc be e9 9c 36 bf 88 75 69 bf a6 7a 3f bf
       -0.36861026 -0.71333176 -0.91194963 -0.7479652
0000a0 0c bc 94 bf 22 4c 2c bf ee 19 72 bf f2 e1 8b bf
       -1.1619887 -0.6730367 -0.94570816 -1.0928328
0000b0 17 ef 37 be 90 82 82 be 6a 92 50 bf 57 eb 6c bf
       -0.179623 -0.25490236 -0.8147341 -0.925466
0000c0 ec 6e 68 bf c2 f9 38 bf e3 e4 7a bf d4 72 56 bd
       -0.90794253 -0.722561 -0.98005503 -0.052355602
0000d0 a0 7e 49 bf 71 9f 68 bf 67 b4 81 be 62 3d 0f bf
       -0.7870884 -0.9086829 -0.2533295 -0.5595304
0000e0 1e 8c 2c bf a7 53 07 bf cb 38 71 bf 71 e9 57 bf
       -0.674013 -0.5286202 -0.94227284 -0.8434058
0000f0 45 f5 2c bf 57 b6 47 bf 94 0c 28 3e c3 f2 f5 be
       -0.6756175 -0.78012604 0.16411048 -0.48036775
000100 d5 f3 27 bf 66 84 4c bf 51 e8 15 bf 56 2d 86 bf
       -0.65606433 -0.79889524 -0.5855761 -1.0482585
000110 af 79 7d bf cc 54 59 be ea b4 72 bf 7c e4 b6 be
       -0.990138 -0.21223754 -0.948073 -0.35721195
000120 3c ab 13 bf 91 d7 74 bf 29 95 5e be 40 20 17 bf
       -0.5768316 -0.9564143 -0.21736588 -0.59033585
000130 e3 4c e9 be af 2d 0e bf 32 09 70 bf 9a b0 d9 be
       -0.45566472 -0.5553846 -0.9376403 -0.4251755
000140 4a 79 23 bf 80 f5 2e bf 71 1d 5e bf d7 55 10 bf
       -0.6385695 -0.68343353 -0.86763674 -0.5638098
000150 a5 0f 52 bf 1d 24 3d bf 7d 80 e2 be 6d 2a 5f bf
       -0.8205512 -0.7388323 -0.44238654 -0.8717411
000160 49 4b 0c bf 10 ac af be bd 88 31 bf f4 69 02 bf
       -0.54802376 -0.3431096 -0.6934927 -0.5094292
000170 fc 2b 53 be 83 12 86 bf 97 9e d8 bd 0d ba b8 bd
       -0.20622247 -1.0474399 -0.105771236 -0.09019861
000180 54 40 28 bf 99 ea 1d bf 2a 06 72 bf 52 28 4f bf
       -0.65723157 -0.6168609 -0.94540656 -0.809209
000190 58 e3 8f bf 80 dd 68 bf e4 d9 5e ba 69 66 91 bf
       -1.1241255 -0.9096298 -0.0008501096 -1.1359378
0001a0 a1 5f 46 bf 60 6d 6f bf c2 fc 5f bf 72 8f 1f bf
       -0.7748967 -0.9352627 -0.8749505 -0.62328255
0001b0 c0 55 6c bf cb cb 72 be 53 23 5c bf 0a d7 6f be
       -0.92318344 -0.23710553 -0.859914 -0.23421875
0001c0 9c f3 9b be e1 74 18 bf f1 fc 81 bf e8 26 4f be
       -0.30459297 -0.59553343 -1.0155317 -0.20229685
0001d0 6f 06 89 bf 37 a4 63 bf 21 92 80 bf 9a 4b 4c bf
       -1.0705088 -0.88922447 -1.0044595 -0.7980286
0001e0 50 4b a8 be 45 25 8a bf fa 4e 3b bf bd 82 51 bf
       -0.3286996 -1.0792624 -0.73167384 -0.81840116
0001f0 77 dc 64 bf 71 79 22 bf c7 3c 7b bf 1d 3f 2e bf
       -0.893989 -0.63466555 -0.98139614 -0.68065053

running_var f4 [128]
000000 20 45 e8 3e 65 24 ce 3f 39 92 3d 3f 02 d4 26 3f
       0.45365238 1.6104857 0.74051243 0.6516725
000010 33 c0 04 3f df fc a4 3f 65 84 d0 3f 4c ad 4b 3f
       0.5185577 1.288967 1.6290404 0.79561305
000020 36 1e 62 3f ec 07 71 3f b1 28 32 3f b4 ac 7b 3f
       0.8832735 0.9415271 0.6959334 0.983104
000030 7a 9f 12 3f 79 cd 76 3f 38 59 7d 3f ab 2f 1d 3f
       0.5727459 0.96407276 0.9896426 0.6140086
000040 76 ab 9d 3f d7 06 93 3f d8 5b 0f 3f e2 4c 97 3f
       1.2317951 1.1486462 0.5599952 1.1820338
000050 38 2a 71 3f a9 cd 27 3f 5d 3d 22 3f 5a 8f 3b 3f
       0.94205046 0.6554819 0.6337488 0.7326561
000060 9e 2d 3f 3f a9 b2 ad 3f 44 da 72 3f 91 83 12 3f
       0.7467898 1.3570148 0.94864297 0.57232004
000070 a7 3c 4e 3f 8a 62 31 3f 57 75 87 3f be 3f 06 3f
       0.805613 0.69290984 1.0582684 0.5244101
000080 36 d3 82 3f 66 a1 0b 3f c5 a1 df 3e fa e8 60 3f
       1.0220706 0.5454315 0.43678108 0.87855494
000090 74 e1 15 3f 26 25 58 3f 85 77 95 3f 9d 16 41 3f
       0.5854714 0.84431684 1.16771 0.7542513
0000a0 ec 5f 77 3f 33 fc 47 3f 3b cd 7c 3f 75 41 98 3f
       0.9663074 0.781192 0.98750657 1.1894976
0000b0 44 de 14 3f a0 a5 1c 3f b1 38 54 3f d2 92 0f 3f
       0.5815165 0.61190224 0.82899004 0.56083405
0000c0 65 b8 58 3f 9a b1 4f 3f 89 f3 6f 3f 14 7a e1 3e
       0.84656364 0.81130373 0.9373098 0.4403845
0000d0 33 2c 9c 3f 87 c1 7d 3f d0 f4 9a 3e 40 53 06 3f
       1.2200989 0.99123424 0.30264902 0.5247078
0000e0 54 05 7b 3f ad 1a 51 3f 24 c5 91 3f de 37 3d 3f
       0.98055005 0.8168133 1.1388288 0.7391337
0000f0 46 65 4f 3f 74 d4 67 3f 55 b9 be 3e 96 e1 5b 3f
       0.81013906 0.9055855 0.37250772 0.8589109
000100 6c 62 6b 3f 9c 67 81 3f 38 48 8b 3f 9a 8d d4 3f
       0.91947055 1.0109744 1.0881414 1.6605713
000110 10 c7 ae 3f 7d bf f3 3e 61 d4 c2 3f 68 1f e0 3e
       1.3654499 0.4760703 1.5221063 0.4377396
000120 70 4b 1f 3f cc 05 8d 3f 03 5c dc 3e e0 da 53 3f
       0.62224483 1.1017394 0.4303895 0.8275585
000130 8d 62 51 3f 54 4c 98 3f 5c 03 cb 3f 6e f7 0a 3f
       0.81791 1.1898293 1.58604 0.542838
000140 80 1d 59 3f 7a de 17 3f 2f 87 4f 3f a4 4c 46 3f
       0.8481064 0.5932385 0.8106565 0.77460694
000150 e0 39 8d 3f bf 2c 53 3f 3d 9c 1b 3f b1 48 8c 3f
       1.1033287 0.8249015 0.60785276 1.0959684
000160 93 a4 2d 3f bb 0d b3 3e ff 4e 67 3f ea 8a 55 3f
       0.67829245 0.34971413 0.90354913 0.8341509
000170 fd a4 1a 3f ce 82 b6 3f a9 5d ff 3e 99 2b 0b 3f
       0.60408 1.4258668 0.49876145 0.543634
000180 da 8a 0b 3f 4c 7f 87 3f 76 c6 86 3f 47 42 0c 3f
       0.54508746 1.0585723 1.0529315 0.5478863
000190 d9 54 a4 3f 40 09 8c 3f 76 85 d1 3e a4 05 9c 3f
       1.2838393 1.0940323 0.40922135 1.2189221
0001a0 2a e6 70 3f ef 94 c5 3f 64 0b 2c 3f 16 10 59 3f
       0.941012 1.5436076 0.6720488 0.8479017
0001b0 0b 9e 21 3f b2 67 de 3e d2 52 00 3f f0 fe 32 3f
       0.6313178 0.43438488 0.50126374 0.69920254
0001c0 c5 13 82 3f 4c 35 6f 3f 42 16 8d 3f 68 ec 11 3f
       1.0162283 0.934407 1.1022418 0.5700135
0001d0 04 59 8d 3f c8 3f 1a 3f 28 58 66 3f f2 26 99 3f
       1.104279 0.6025357 0.89978266 1.196501
0001e0 41 3c 73 3f 3e af dc 3f 82 b2 4f 3f 89 9c 83 3f
       0.95013815 1.724098 0.81131756 1.0282146
0001f0 df ca 4b 3f 70 78 0f 3f 47 44 3e 3f 49 00 a2 3f
       0.7960643 0.5604315 0.7432293 1.2656337

weight f4 [256, 128, 3]
000000 b8 18 86 3d 12 fc 99 3d f6 9d e5 3d 69 73 35 3c
       0.065476835 0.07518782 0.11211769 0.011074879
000010 1c b6 40 3d 57 68 a8 3d ed 7f 5d 3c 2e c5 ab 3c
       0.047048673 0.08223026 0.013519269 0.020968046
000020 f5 64 98 bb 63 0d 4b bd c7 ba b7 bd 78 81 fb bc
       -0.004650707 -0.049573313 -0.08971172 -0.030701384
000030 1f d5 d0 bb a2 d6 96 bd c1 e9 87 3b 03 4d 58 3d
       -0.0063730623 -0.07365157 0.0041477387 0.05280782
000040 ad c7 88 3d 2a 14 98 3d 37 a3 84 be c7 97 b5 bd
       0.0667871 0.07425721 -0.25905773 -0.0886684
000050 a5 13 52 3b b2 85 0b 3e 82 e3 9a 3d 36 4f 02 bc
       0.0032055166 0.1362522 0.07562925 -0.007953456
000060 01 ff 69 3d 36 06 9a 3d 68 d8 6b 3d 4a 1f 14 3d
       0.057127956 0.07520716 0.057579428 0.036162652
000070 e5 42 2c 3d f6 c9 fa 3c e6 45 01 be 33 9f 0b be
       0.042055983 0.03061388 -0.1262432 -0.13634948
000080 eb a6 27 3d 70 47 90 be da 9d 7c be 45 24 23 be
       0.04093067 -0.28179502 -0.2466959 -0.15931804
000090 73 3e 43 bb 55 3f 05 3b f4 3e ad 3c 8d e4 f9 3d
       -0.0029791861 0.0020331938 0.021148182 0.12201796
0000a0 28 2e 3f 3d f0 6a df 3c f5 3e 6c 3d a1 b0 99 bd
       0.046674877 0.027272671 0.057677228 -0.075043924
0000b0 02 39 77 3d 5c 9f cb 3d 12 51 a3 3d 6d ef 4c 3d
       0.0603571 0.09942505 0.07974447 0.05003302
0000c0 13 8b 67 be b9 de 49 be 32 06 88 bd a7 84 26 be
       -0.22611646 -0.19713868 -0.06641807 -0.1626154
0000d0 08 11 a3 bd 1a d1 12 3d b6 46 23 3e 74 77 03 3e
       -0.07962233 0.035843946 0.15944943 0.12838537
0000e0 02 8b c2 3d ce 29 23 bd 95 5a 94 3d ec de 89 3d
       0.0949917 -0.03983479 0.0724384 0.06731972
0000f0 02 7f 92 bd b2 f8 86 bd 02 a3 08 bd 5e 37 66 bc
       -0.07153131 -0.065904036 -0.03335858 -0.0140512865
000100 ed 88 4b 3d f3 13 54 3c 16 7e 9a 3d 68 bf 47 3e
       0.04969113 0.012944209 0.0754358 0.1950661
000110 1d 48 06 3e a7 32 9f 3d 52 c2 0a 3e c9 7f 82 3d
       0.13113447 0.07773333 0.1355069 0.06372029
000120 4b b5 c7 3b 03 7e f0 bc f3 d9 5f bd af d8 77 be
       0.00609461 -0.029356962 -0.054651212 -0.24203752
000130 bb e9 d2 bd 35 d6 89 3d e0 39 be 3d 5e 12 c0 3d
       -0.10298487 0.0673031 0.092883825 0.09378503
000140 4c a8 3d 3e fd 7b ae bd b8 84 42 bd d0 64 8a 3c
       0.18521231 -0.08519743 -0.04748985 0.016893774
000150 b6 2c ea 3c 9a da 5c bd 8a ad 91 bc 60 6a 2c 3d
       0.028585773 -0.053919412 -0.017782945 0.042093635
000160 7b 43 14 3d 06 4d 91 3d 4c ab de 3c 09 9a 3f 3b
       0.036197167 0.07094769 0.02718129 0.00292361
000170 c7 0c 48 3d e7 7f 97 bd 4c 5a 11 be 90 54 33 be
       0.04884031 -0.07397442 -0.14194602 -0.17512727
000180 4a 42 92 bc d0 a5 2a 3d 7b cb 31 3e 5d 3d 93 bd
       -0.017853875 0.041662037 0.17362778 -0.071894385
000190 cf a9 7c bd 1c 9b 4f 3d 4d 96 d3 3d 4e 5a d6 3d
       -0.06168538 0.050685033 0.10331402 0.10466443
0001a0 f4 39 89 bc ad cb 06 3d d7 cb c9 3d f8 6a d0 3d
       -0.016751267 0.032909084 0.098533325 0.10176653
0001b0 e6 0f 69 3d cb d4 5f 3d 4a 33 cf 3d 95 45 ee bc
       0.056899928 0.054646295 0.101172045 -0.029085914
0001c0 4a 54 6d bd 78 92 b3 bc 6e a1 a7 be cc 79 c3 be
       -0.057941712 -0.021920428 -0.3274035 -0.3817886
0001d0 ef 2c 5f be 35 5f 87 bd 6c 64 ea bd a0 33 cf 3d
       -0.21794485 -0.06609956 -0.11444935 0.101172686
0001e0 51 ca dd bd b9 78 41 bd 4f d7 3b bd c9 f5 53 3d
       -0.108296044 -0.04723427 -0.04585963 0.05174807
0001f0 fd 69 d8 bc 57 2f 5e bd e1 6e 14 bd b3 10 2c 3d
       -0.026417727 -0.054244366 -0.036238555 0.042008113
000200 1f 05 89 3c 69 c1 07 be 5f ce 1e be f3 62 84 be
       0.016726075 -0.13257374 -0.15508412 -0.25856742
000210 17 46 b2 3d 01 8a d5 bd 82 fc 30 be 05 5f a1 3d
       0.08704775 -0.10426713 -0.17283824 0.07879452
000220 de 0b 63 3c b4 37 38 3d af cc 05 3e 9a 0b 16 3e
       0.01385781 0.044974998 0.13066362 0.14652863
000230 8b 2e 07 3e 13 7b ce 3c 7c f4 b9 bc 65 bc b6 3d
       0.13201348 0.02520517 -0.022699587 0.08922652
000240 6c d4 fe bc e6 00 28 bd 1f 60 38 3c 30 75 91 bd
       -0.03110715 -0.04101648 0.011253386 -0.0710243
000250 96 19 6a bd 1c 32 b2 3c e2 e5 74 3c 23 37 b4 ba
       -0.057153307 0.02175241 0.014947386 -0.0013749342
000260 17 e4 95 3c b8 97 78 3e 87 c4 7f 3e 14 96 81 3e
       0.018297238 0.24276626 0.24977313 0.25309813
000270 0b 04 b5 3c ab 35 da 3d 14 60 6f 3d 53 09 5d bd
       0.022096654 0.106547676 0.058441237 -0.05396397
000280 f5 f3 8f bd ee c7 ad bc e8 35 2a 3e 49 94 25 3e
       -0.07028953 -0.021213498 0.16622126 0.16169848
000290 81 ff cd 3d 87 07 46 bd c8 21 fc bd 0b e6 c9 bd
       0.10058499 -0.048347022 -0.12311131 -0.0985833
0002a0 1b d1 d3 bd f7 2b 3c 3d 4d 1d ad 3d b4 7c dd bd
       -0.10342618 0.045940366 0.08452854 -0.10814801
0002b0 fb 3f 85 bd 24 bf fb bb 22 e5 90 3e 0c 84 85 3e
       -0.06506344 -0.007682698 0.28299814 0.26077306
0002c0 ca be 1a 3e 9b 80 4e bc c2 d5 e5 3b a7 aa 6f 3d
       0.15111843 -0.012603904 0.0070140073 0.058512356
0002d0 3e 9c 31 bd 77 83 73 bd a5 01 c3 3d bd 02 7a bd
       -0.043361895 -0.059451547 0.09521798 -0.061037768
0002e0 be 89 1d be bb 46 37 be 5b ac 4a 3e fe 58 72 3e
       -0.15384576 -0.17898075 0.19792311 0.2366676
0002f0 13 27 5f 3e e1 4b 2c 3c 9f bd 87 3d 80 3e d4 3d
       0.2179225 0.010516138 0.06627964 0.103634834
000300 c3 8b 0b bd fb e4 85 bc a2 9f 20 3d 0e a3 32 3d
       -0.034068834 -0.016344538 0.039214738 0.043612532
000310 62 c2 90 3d 59 7e 8f 3d c0 d0 23 be 01 c3 2a be
       0.070683256 0.07006521 -0.159976 -0.1667595
000320 de 46 be bd 4f 32 c1 bd c4 28 79 3d a8 3d c7 3d
       -0.092908606 -0.09433424 0.060829893 0.09728557
000330 d0 47 04 3e c1 12 42 3e a0 ce d8 3d be be bd 3d
       0.1291802 0.18952467 0.105862856 0.09264897
000340 df 96 8f 3d 98 7d 1f 3d 21 e3 9f 3b 49 3b 3f 3d
       0.07011198 0.038938135 0.004879371 0.046687398
000350 74 98 5e 3c 73 de bd 3d 1f 7e 55 3b a8 6f a7 bd
       0.013586152 0.092709444 0.0032576395 -0.081755936
000360 e1 1c c6 bd 7d d8 b8 bc c2 ce 70 3d bb 16 dc bc
       -0.09673477 -0.022564167 0.05879093 -0.026866307
000370 b9 20 49 be 9a e9 2e be 8a b1 f7 bb 5a c2 3f 3d
       -0.19641389 -0.170813 -0.007559006 0.046816207
000380 a4 ca c6 3d 20 33 de bc 95 f1 c1 3c 31 cd 15 3d
       0.097066194 -0.027123988 0.023674766 0.03657264
000390 0d 7d fc 3c 8b 68 41 3c ea 3c 50 3d b8 ed df bd
       0.030821348 0.01180471 0.050839342 -0.10934013
0003a0 05 37 26 be 37 40 02 bd dd f5 22 3c 67 7a 84 3d
       -0.16231926 -0.03179952 0.009946314 0.06468659
0003b0 ae a6 af 3d fe 5c 11 3e 45 d9 fe 3d 35 0d 56 3e
       0.085767135 0.1419563 0.124437846 0.20903476
0003c0 bb 47 54 be db 93 43 be 55 60 10 bc 17 cf f1 3c
       -0.20730488 -0.19099371 -0.00881203 0.029517693
0003d0 a6 d4 30 3d 07 19 25 3e 61 82 78 bd d6 ba d7 bd
       0.043171547 0.16122828 -0.060671214 -0.10533683
0003e0 27 8e 63 bd 43 ac bd 3d de 04 cf 3d a9 b6 c3 3d
       -0.05555549 0.09261372 0.1010835 0.09556324
0003f0 cb 0c b9 bd 01 15 c2 3c d8 8e 4f bb 02 ef 0d 3e
       -0.09035643 0.023691656 -0.0031670835 0.13860705
