5_labels_92.pth (torch, 564942 bytes, 20 tensors)

weight f4 [64, 48, 3]
00000000: 0b1a 223d 9ac8 973d 6abf 51bc 1d2f 93bd
00000010: 406f a7bd 32ef 33bd 7c3e 843d 8664 74bd
00000020: 839c a9bc 31c4 8d3c 4390 f1bc 7240 c73b
00000030: 0b59 36bd 5eef 113c 4529 1fbd 5fbc 65bd
00000040: 98af 1fbd cc51 0abe 5262 edbd d544 0fbe
00000050: 77f0 0bbe 7699 00ba 3739 4d3c 3872 9fbc
00000060: 067e 18bd 6e40 7dbb 302e 4ebc 0eaf 9dbc
00000070: a836 a8bc feb7 773d fce4 4bbd 27c6 183d
00000080: 96b8 9bbd f089 bbbd f6a3 c3bd ca56 bdbd
00000090: 1d9a 21bd 21c6 88bb 7b92 073c 0ede f13d
000000a0: 5229 323e 73de 8a3d 4e29 e63d 2d96 353b
000000b0: 5fef 43bc 4481 b93d 2108 8a3c 77d7 29bc
000000c0: c588 f5bd 8d33 14be 4319 e5bd 728f 80bd
000000d0: 0801 09be 9eef 2cbe e6c5 1ebd e192 22bd
000000e0: c402 e03c 742c edbb 9e07 0b3b dca8 b03c
000000f0: 52d6 afbd 3452 b13c 4aef 92bd ff78 30bd
00000100: df4e 88bd 96eb 4bbd f500 f9bc 91ea 8dbc
00000110: de1e abbb 1426 30bd 0fc0 9a3c 16ed 103c
00000120: 73cd 87bd b6fe 1ebc f313 47bd 44d7 903c
00000130: d548 933d adbc 66bc f8d5 5abd e654 2f3d
00000140: 2f9a f8bc feeb 543d 5bf4 da3d 1f46 a33d
00000150: d8a0 983d dde3 3e3c 73ef 093e 9f49 cb3d
00000160: 40ac 003d 1db9 a93d 7b3a f03d 5677 0e3e
00000170: dabb ec3d b1de 8c3c d4d0 b33d 1e10 a23d
00000180: 5974 e7bd b2e1 3ebb 10b8 a9bd 2486 5e3d
00000190: 4d1e 9abc 5696 993c 54ec 673d 8ef0 813d
000001a0: 383d 9e3d 2bda b1bd eea5 fdbc 259c a6bd
000001b0: ed52 bfba d00b 443d 0c3e 2c3d 35b4 603c
000001c0: a03c 163d ef87 213d e082 5a3d 39d0 abbc
000001d0: b89e 773d f480 d13d 3bc8 613d d308 ce3c
000001e0: b7f4 c53b 9109 7a3d df22 6c3d 8069 98bb
000001f0: f5f8 18bc 3039 793d c2cf 8fbd c783 1ebd
00000200: 9956 69bd 7c83 eebb 2e39 78bd 75b9 42bd
00000210: 5fb1 fdbb 7334 053d 034f ed3b 6b16 18bc
00000220: 9536 2d3b 288c bd3d 4df8 073e 743c 533d
00000230: f0dd 4c3d 874f b63d b202 853d 697f 983d
00000240: a2fc 01be 3571 89bd 7668 0bbe d390 d5bd
00000250: 5287 32bc 6ff9 babd 6be6 5abc da34 e0bd
00000260: 0e91 13bd 718e 0f3c cfef 16bd 8370 b53c
00000270: eb33 74bd f5af cb3c 3613 763d 3d4c 17be
00000280: efdc b3bd 2540 fabd 4dc5 60bd 35bc 53bd
00000290: 3920 a1bd ebf4 353d aabc e53d aab2 763d
000002a0: d5c0 393b fa12 013d 20da 45bd 8074 f63c
000002b0: fcd3 023d dd78 353c 8610 013d ebd5 9c3c
000002c0: 3783 7fbc 48aa 013d 376a 503c d064 5fbc
000002d0: bcaf a4bd fd9a 123d aea4 083d 1536 293b
000002e0: e452 2b3c b641 e3bc a35c df3b 3270 9fbc
000002f0: d4bf 14bd 9a19 703c fc82 22bd eac1 3ebc
00000300: c14b 9bbc 44c8 103d 1f1e ee3c d0cf 603d
00000310: ee36 523a 78b5 2dbd 0f76 a63d de2b 0d3e
00000320: 3ccc 253e 0fa2 b53c a593 51bd eabb 3dbd
00000330: 1873 8ebd 0118 413d 37c8 3bbd b527 c2bd
00000340: 9d3e 11bd 1e99 d0bc a9c3 84bc d1c8 3f3c
00000350: d58e 883c 7505 25bd e45a 92bd ddb5 d9bd
00000360: 0a52 123c 33b0 653d 773a 343c 41d3 26bc
00000370: ec1d cfbd 96c3 d03c 57b1 923c fc17 75bd
00000380: ed77 cbbd a400 cf3c 94b8 1aba 1165 fabc
00000390: 15fe 303d 4cb5 953d 2357 913d 6b84 99bd
000003a0: 6cd0 223d a390 b4bd 8481 543e 4b96 de3d
000003b0: 55f8 373e 211c 903d ba5e 083d 73f8 1a3d
000003c0: e977 e8bd bd05 f3bc fbd8 78bd 714d 7d3d
000003d0: 7418 37bc 4086 393d ec0c c83b 1cc4 2abd
000003e0: 9fb8 8fbb f0b2 0abd 4444 27bd c86a bbbd
000003f0: 2b15 acbd c959 44bd 6384 13be 3495 ce3d
0.039575618 0.074113086 -0.012801984 -0.071867205 -0.08175516 -0.043929286 0.064572304 -0.05966618
-0.020704513 0.017305465 -0.029487735 0.0060806805 -0.04451851 0.008907167 -0.038857717 -0.056087848
-0.03898582 -0.13507766 -0.11591019 -0.13991101 -0.13665949 -0.000490568 0.012525848 -0.019463643
-0.03722956 -0.003864314 -0.012584254 -0.019248512 -0.020533875 0.060478203 -0.049778923 0.037298348
-0.07603566 -0.09157169 -0.095527574 -0.09245069 -0.039453615 -0.0041740094 0.00827467 0.11809932
0.17398575 0.0678071 0.11238347 0.002770792 -0.011958926 0.090578586 0.01684958 -0.010366312
-0.11988977 -0.1447279 -0.11186459 -0.0627736 -0.133793 -0.16888282 -0.03876295 -0.039690856
0.027345069 -0.0072379652 0.0021214257 0.021564893 -0.085858 0.021645643 -0.07174547 -0.04308414
-0.066556685 -0.04978522 -0.030395964 -0.017323764 -0.0052221855 -0.043005064 0.018890409 0.008845588
-0.06630983 -0.0097042825 -0.04860301 0.017680772 0.07191626 -0.01408307 -0.053426713 0.042805575
-0.030346958 0.051982872 0.10691138 0.07972359 0.074525535 0.0116510065 0.13470249 0.099261515
0.03141427 0.08287261 0.11729904 0.1391271 0.11559267 0.017196031 0.08780065 0.0791323
-0.113014884 -0.0029126224 -0.0828706 0.054327145 -0.018813277 0.018748444 0.056621864 0.0634471
0.0772652 -0.0868419 -0.03096291 -0.08135251 -0.0014596857 0.047862828 0.04205136 0.01371484
0.03667891 0.039436277 0.05334747 -0.020973312 0.0604541 0.10229674 0.055122595 0.025150692
0.006041135 0.06104428 0.057650443 -0.0046512485 -0.0093367 0.060845554 -0.070220485 -0.03869989
-0.05696735 -0.0072788578 -0.060601406 -0.047540147 -0.0077420915 0.032520723 0.007242085 -0.009282689
0.0026430239 0.09255248 0.13278313 0.051571324 0.050016344 0.089018874 0.06494655 0.074461766
-0.12694028 -0.06711046 -0.13614067 -0.10428014 -0.010896521 -0.09129607 -0.0133606 -0.10947581
-0.036027007 0.008761988 -0.036849793 0.022148376 -0.059619825 0.024864176 0.060076915 -0.14775176
-0.08782374 -0.12219266 -0.05487566 -0.05169316 -0.07867474 0.044423025 0.112176254 0.06022898
0.0028343697 0.031512238 -0.048303723 0.030084848 0.031940445 0.011076179 0.0315099 0.019144973
-0.015595249 0.031656533 0.012720636 -0.013634875 -0.08041331 0.03579234 0.033360176 0.002581959
0.010456774 -0.027741294 0.006816463 -0.019462679 -0.036315754 0.014654541 -0.039675698 -0.011642912
-0.01895702 0.03534724 0.029067097 0.054885685 0.00080190494 -0.04240939 0.08127987 0.13786265
0.1619119 0.022172002 -0.051166195 -0.046321787 -0.06955546 0.047142033 -0.045845237 -0.0948023
-0.035460103 -0.025463637 -0.01620658 0.011705593 0.01666967 -0.040288407 -0.07146242 -0.10630391
0.008930692 0.05607624 0.011000267 -0.010182203 -0.10113129 0.025483888 0.017906828 -0.059837326
-0.099349834 0.02526886 -0.0005902138 -0.03056577 0.04321106 0.0730997 0.07096698 -0.0749596
0.039749548 -0.0881665 0.20752531 0.1086851 0.17965825 0.07036615 0.033293463 0.037834596
-0.11350996 -0.029665822 -0.060753804 0.061841432 -0.011175264 0.045294046 0.006105056 -0.04169093
-0.004386022 -0.033862054 -0.040836588 -0.09151226 -0.08402475 -0.04793719 -0.1440597 0.10087052

bias f4 [64]
00000000: bfd9 19be 0909 903a e002 0fbe 3437 393c
00000010: 7ef7 b9bd 7a96 59bc 4733 48bd 6183 a73c
00000020: 5464 45bd 8f25 3f3d 3d50 b93d 50de 403d
00000030: 1c44 253d 9254 57bd ee62 e0bb 8da1 983d
00000040: b486 bcbc 0e4a 8a3c 62c2 803c b8d8 9b3c
00000050: 7942 95bd 0ce6 bfbc b311 b0bd ee73 d4bc
00000060: b8ae 123d bfdd cc3c 527b abbc 32ff 413d
00000070: 91a7 b93d 5d0d 003d cbd8 5e3d ae96 133e
00000080: 0f88 2c3d 5feb d1bd 971a 3e3d e24e a23b
00000090: 3c53 273c 2e48 e43a 343b a3bd 67a4 bbbd
000000a0: 94ca bc3c 9701 38bd b292 a1bc c8b7 f2bd
000000b0: df05 473b c32d dc3c a3f5 56bc d11d 933c
000000c0: 6603 c8bd 06b7 a23d 956f 8d3d 4fce 953d
000000d0: 8e62 22bb aae7 5c3d 215b f7bd 5bbf a8bc
000000e0: 4e0a d2bd 0cd5 e6bd e927 0dbd 59bd a43b
000000f0: 8b37 1b3b e11e 373d df92 b5bd ec79 ef3d
-0.1502447 0.0010989021 -0.1396594 0.011304665 -0.090804085 -0.013280505 -0.048877027 0.020448389
-0.048191383 0.046666678 0.09048507 0.047087014 0.040348157 -0.052570887 -0.006847731 0.07452688
-0.02301345 0.016881015 0.015717689 0.019024238 -0.07288069 -0.023425125 -0.08597126 -0.025934186
0.035811156 0.02500808 -0.020932827 0.047362514 0.09065164 0.031262744 0.05440597 0.14412948
0.042121943 -0.102499716 0.046412077 0.004953251 0.010212716 0.0017416531 -0.079702765 -0.09162217
0.023045816 -0.04492339 -0.01972327 -0.1185146 0.003036849 0.02687729 -0.013120088 0.017958554
-0.09766273 0.07945065 0.06906048 0.07314741 -0.0024777981 0.05393187 -0.12077928 -0.020599058
-0.10255872 -0.11271104 -0.03446189 0.005027455 0.002368423 0.044707183 -0.08865904 0.116931766

weight f4 [64]
00000000: 9e66 643f 55fc 5f3f ecdb 593f 12b6 683f
00000010: 9854 5d3f 8aa6 5e3f 326e 573f 7900 643f
00000020: e951 5d3f c0fb 623f 483a 653f 5a89 5b3f
00000030: b7b6 613f bafe 5a3f 52f6 583f 7673 5b3f
00000040: 83c6 653f 6d84 603f e018 553f d970 5d3f
00000050: d8e2 5a3f 507c 5d3f 481a 533f bdf9 563f
00000060: be6c 5c3f 60e9 5e3f 69d9 523f 1872 5d3f
00000070: 001a 623f 70ca 563f 853e 6a3f e6b7 683f
00000080: 1dc1 653f f938 543f 84ac 583f 61df 5c3f
00000090: 9f57 663f 7776 563f 6c9c 633f f3ac 5e3f
000000a0: bc69 673f 0b0b 563f 9777 5c3f f085 663f
000000b0: 7bd9 633f 8c67 653f e839 623f ade2 5b3f
000000c0: f76e 633f f497 5a3f f622 5d3f 13c8 5c3f
000000d0: 1f7f 603f 7f79 653f 975b 5c3f 0225 523f
000000e0: 6b85 5d3f de13 5e3f 21e8 643f b1fb 623f
000000f0: 1226 5a3f 0fbc 613f 6e31 5a3f 41ca 6c3f
0.8921908 0.87494403 0.851012 0.9090282 0.86457205 0.8697287 0.8415252 0.8906322
0.8645311 0.8866539 0.89542055 0.85756457 0.88169426 0.8554493 0.84750855 0.85723054
0.8975603 0.87702066 0.8324108 0.86500317 0.85502386 0.8651781 0.82461977 0.8397482
0.8610343 0.8707485 0.8236299 0.8650222 0.8832092 0.83902645 0.9150165 0.90905607
0.8974779 0.82899433 0.8463824 0.8627835 0.8997745 0.83774513 0.88910556 0.8698265
0.9039571 0.836106 0.8611998 0.9004812 0.89003724 0.89611125 0.8836961 0.85892755
0.88841194 0.8538811 0.8638147 0.8624279 0.8769397 0.89638513 0.86077255 0.8208772
0.86531705 0.86749065 0.894167 0.886653 0.8521434 0.8817758 0.85231674 0.92496115

bias f4 [64]
00000000: c016 e1be f883 d1be b81b dbbe cb3d 9fbe
00000010: 6eb2 f9be da8e c0be bd54 d6be fa4d 24be
00000020: 62ee e6be ed7b b7be 4d0d c1be e2f9 6dbe
00000030: 16a0 89be 7101 ddbe 490b d0be a718 ddbe
00000040: eddf b5be c480 d0be d8e5 fcbe f4be c1be
00000050: f1ee 88be cc2b b1be 2368 e7be 2e58 f3be
00000060: 080d 01bf 00b4 a5be d401 11bf cf8b dabe
00000070: 9039 23be 41f8 34be f697 acbe add6 d8be
00000080: f779 04be 5b7f d3be 819a d4be ff19 bdbe
00000090: 8896 cbbe 5125 a4be dfbd afbe 7c9d ccbe
000000a0: 8ae9 cfbe 41cb 86be b152 d0be fe3c d8be
000000b0: c45a c1be e4e2 87be 8702 d3be 7186 e6be
000000c0: afd7 9fbe 8e70 bbbe 8cf1 a7be a8c4 c6be
000000d0: 5339 a8be a20c 6fbe e53c aebe d777 11bf
000000e0: c80d d9be 34aa d6be 152a bdbe 8def a4be
000000f0: dcd9 c3be a15c 95be 32b8 bfbe 7745 a7be
-0.4396267 -0.40920997 -0.42794585 -0.31101832 -0.48768944 -0.37608987 -0.41861525 -0.1604537
-0.45103747 -0.35836735 -0.3770546 -0.23239854 -0.26879948 -0.43165162 -0.4063361 -0.4318287
-0.35522404 -0.4072324 -0.49394107 -0.37840998 -0.26744798 -0.34603727 -0.45196638 -0.47528213
-0.5041051 -0.32363892 -0.56643414 -0.4268479 -0.15939927 -0.17672826 -0.33709687 -0.42351285
-0.12937151 -0.41308102 -0.41524127 -0.36933896 -0.39763284 -0.3205972 -0.34324548 -0.399639
-0.40607864 -0.26326945 -0.4068809 -0.42234033 -0.3776456 -0.2654029 -0.41212866 -0.45024446
-0.3121924 -0.3660931 -0.32801473 -0.38821912 -0.32856235 -0.23344663 -0.34030834 -0.56823486
-0.42393327 -0.4192673 -0.3694617 -0.32214013 -0.3825215 -0.29172233 -0.37445217 -0.32670185

running_mean f4 [64]
00000000: 7990 823f c2a9 213f 920b d73f 6e21 4abf
00000010: 8086 cb3f 0f28 2abc 0eae 3bbe 7ffe fdbc
00000020: 09bc b2bf 6582 8dbe c079 163f 24a3 2e3f
00000030: fa53 9d3e d05e 023f 30e8 c33f 08a7 ee3f
00000040: 92e3 833e ae29 b73e b90a 6a3f 0879 16bf
00000050: e1bf cebd 25ef 5bbf f973 13c0 a4ca 273e
00000060: 1d5f 70bf fd00 1b3f 8e30 423e d6f1 17bf
00000070: 6c5b 7bbf 7a7c 803f deb0 ea3d 30ee 18bf
00000080: 4899 d3bf 48f3 43bf f288 bc3e 1adf 96bd
00000090: b862 e03e 1cef 82bf 568c ecbe c270 b6be
000000a0: 8620 0640 32d2 bdbf e43b 84bf 631b 2dbe
000000b0: 543b e83e d0d9 b9bf 3073 9ebe e470 c23d
000000c0: 961a abbf c92f 75bf 2760 d43e 3712 b43f
000000d0: 314d 0cbf e2cd 373f e036 58bc d6ea b23f
000000e0: 56d7 d73f d544 8ebe 52c9 5cbd daa2 883f
000000f0: 1b62 85bf e46c 9cbf f042 223f 1c98 a53e
1.020034 0.63149655 1.6800406 -0.7895726 1.5900421 -0.010385527 -0.18328115 -0.031005142
-1.3963634 -0.27638546 0.58779526 0.6821768 0.30728132 0.5092592 1.5305233 1.8644724
0.2575956 0.35773987 0.9142261 -0.5877843 -0.10095192 -0.8591178 -2.3039534 0.16385895
-0.9389513 0.60548383 0.18963835 -0.5935339 -0.98186374 1.0037987 0.11459516 -0.59738445
-1.6531153 -0.7654309 0.3682323 -0.07366772 0.43825316 -1.022922 -0.46200818 -0.35632902
2.095735 -1.4829772 -1.0330777 -0.16904978 0.45357764 -1.4519596 -0.30947256 0.094941884
-1.3367488 -0.9577604 0.41479608 1.4068059 -0.54805285 0.7179853 -0.013196677 1.3977916
1.686259 -0.2778689 -0.05390293 1.0674698 -1.0420564 -1.2220731 0.6338339 0.32342613

running_var f4 [64]
00000000: 8ac4 063e d6ab 9b3d 228b 683e 9bee 053e
00000010: 7df8 0a3e 4726 493e b14d 663d d7c3 3e3e
00000020: 5cde a83e d67a 523e 2317 de3d d630 3c3e
00000030: 1bcf 4a3e d8df 7b3e b931 583e d974 763e
00000040: 5d69 943d 28b4 053e 44ad c23d d388 9c3e
00000050: 5ae8 143e 474c 843e 8c60 103f d62e 8c3e
00000060: a6eb ce3d b9b0 c53d bd40 d13d c746 b73e
00000070: aaab 823e 5fec 313e f42b e53d 9d18 3a3e
00000080: f1fc cc3e 7b35 bc3d 239f 953d bc88 c03d
00000090: 2941 873d 29da f53d c77c 803e 3ea5 1e3e
000000a0: b05f 7f3e 33e1 0a3e 2b01 e23d b0ff 763e
000000b0: 14fc ce3d f741 8b3e 81ba 853d 10fc ac3e
000000c0: 728f 7c3e 6dbe b23e 1ffa c43d e808 223e
000000d0: dcec 173e fa1c 5e3e d06e 3d3e 39ca a83d
000000e0: 4a20 603e f4ee 203e c237 f83d 5fa7 503e
000000f0: c629 873e 35de 3b3e 81bc 0b3e f1c3 303e
0.13160911 0.076011345 0.22709325 0.13079302 0.13571353 0.19643508 0.056226436 0.18629394
0.32982147 0.2055467 0.10844257 0.18378004 0.19805567 0.24597108 0.21112718 0.24068011
0.07246659 0.13057005 0.09505704 0.3057314 0.1454176 0.25839445 0.5639732 0.27379483
0.1010354 0.09652848 0.10217426 0.35796186 0.25521594 0.17375325 0.11190024 0.18173452
0.4003673 0.09189888 0.073057435 0.0940108 0.06604225 0.120045014 0.25095198 0.15492722
0.24938846 0.13562469 0.11035379 0.24120975 0.10106674 0.27198765 0.065297134 0.33786058
0.24664095 0.34910908 0.09618019 0.1582371 0.14836448 0.21690741 0.18499303 0.08241696
0.21887317 0.15716153 0.1212001 0.20376347 0.26399058 0.18346484 0.13646127 0.17262246

weight f4 [128, 64, 3]
00000000: eb8a 95bd b8d1 043d c3dc d83c 2dd6 b63d
00000010: a310 623d a0e4 5abd 4dab 66bc d8a2 9c3c
00000020: 66cc 893c 73e3 963c 8a32 eabc 9cf1 143d
00000030: 7d26 b7bd d878 85bd 2020 3ebd 82c0 f13d
00000040: deba fe3c 5684 4d3c e726 b2bd 415c 9dbd
00000050: bf63 b5bb 6a74 acbc 66ef 173d 1146 ec3c
00000060: e8cd 063d 0e3e f8bc 18fd c3bc b94e f2bc
00000070: 5a86 e0bb 5aca 6d3d 57a2 073e 808d 283d
00000080: a989 ae3d f3b3 60be 6656 36be 54ec cebd
00000090: bb49 b03d 68e7 e93c 1262 953d 7901 b1bd
000000a0: 8966 f8bd f258 82bd 5665 833a e9d4 2c3d
000000b0: 0eac 23bc 92dd 02bd 6064 393d 8842 b43b
000000c0: 0534 24bd ba91 0fbd 06b9 c23c f27d a53d
000000d0: ce89 da3d 64f6 f03c 6833 dd3c cb0e b7bc
000000e0: 3cec 6fbd 8059 f43a 5ec6 9cbd a1fc a7bd
000000f0: 3739 febd 968d febd 96d8 07be 8d78 1a3d
00000100: f625 113d bff1 893d 360d cdbd d95b edbd
00000110: bdc1 8ebd f8e9 41bc 1e43 b4bd ef8d 0fbd
00000120: 8e1a ffbb fd6e a1bd f4d0 f1bc 16a1 cebc
00000130: 8e27 7bbd 655d 0ebe f359 2cbd 0c36 59bb
00000140: 817c 873d 48ee 473d 62c1 fabc 6084 86bd
00000150: be07 b13c caa7 9b3d 919e ec3c 8c17 10be
00000160: c16c 19be 43e9 9abd 111f 083d cfbf 16ba
00000170: 82bc 31bd e579 24bd f636 c43c 4d4e 893d
00000180: e766 593d ac7e 323d a2ee 033d 52fb 8bbd
00000190: 28ca 1abe 1130 05be e9bd 73bd 9ad9 0ebd
000001a0: 63b1 c43c adcf ae3d 9dd5 b23d cb87 cd3d
000001b0: 903e 673d 122c 713d 0e25 b03b 2109 87bd
000001c0: df3f 4abd 5515 11be 8a1b c73c 246f 983d
000001d0: 778b cd3d d993 083d 9840 f1bc 0ea0 993c
000001e0: 45ac 9d3d 1d89 1d3d 60b3 273d 915d 87bd
000001f0: e31e 25be 6dd3 28bd a9a2 a4bd 9afc d6bd
00000200: 3c8a debd 0944 09bb b632 53bc 2d25 213d
00000210: f254 c33c 30f8 bcbc 2efe 2ebd dab8 35bd
00000220: 0b13 7c3c b18d 923d c81e df3d b316 46bb
00000230: cbda cf3d a7e4 f33d 1815 993d 3f0c 4b3d
00000240: a23d cc3d 5968 bdba a9d9 aa3d f37e 61bd
00000250: f969 d2bd e426 79bd ad07 103c b238 bcbd
00000260: 3bcf f83c 5c8e dbbc 19ca c2bb 841d 7ebd
00000270: c890 26bc e4dc 6dbc f77e 433d 7279 0c3d
00000280: 2bd0 1d3d 4b27 6d3b 5f30 7d3d b9f5 623d
00000290: 2768 093c 7940 083d 4154 be3c b0f8 cabd
000002a0: 5c20 8f3d d68d f8bc 738f a23b 2c20 a13c
000002b0: bf69 013d 4264 713a 4696 a4bd 5023 70bd
000002c0: f87c 0fbe d652 c0bd 0e33 b7bd abe7 c8bc
000002d0: 9cea 45bc 85d4 cf3c fd00 67bd 4553 6b3c
000002e0: 5e4a 4cbb 8fe8 893d 3db2 4f3c cca0 873d
000002f0: 448b 0a3c 2e84 00bc 894b b8bc e05f 193d
00000300: 8f73 2abd 6510 d53b 5828 70bd dd10 753d
00000310: 7b61 babc d12f 8a3d 049b a9bd 8b77 0cbe
00000320: 7b58 8abc 0faf a5bc 95f8 663a bb71 c63c
00000330: 0fcd 93bc 1cc8 123d 37ba 233d 2c39 3f3d
00000340: 7883 9a3c 2df2 3a3d 4760 c33c 31be 423c
00000350: 4aea dfbb 3aa4 a13c b2ab b3ba fda5 8f38
00000360: 71ff 41bd 84d6 3f3c 0f79 32bd 0a95 1e3d
00000370: dfa3 99bd 48f7 e13c fe54 acbd f267 ffbd
00000380: 8bbb dfbd 793d 0d3d 6c0e b03d c200 6dbc
00000390: 8d1c 90bc 5b7e 02bd 9895 c9bb e603 6d3d
000003a0: 09f0 a73c 76a2 d7bb ff36 4fbd f368 0dbe
000003b0: a02d 80bd 7e13 873d d0e1 8b3c 1fd9 3d3d
000003c0: 35ae b0bd 1cb2 a1bd 9a17 8cbd f193 8b3d
000003d0: 60a7 393d 4cef 24bd 85e8 6dbd dfcd 96bc
000003e0: c48c c53c 3107 3c3b 89bf dabc 48bb ff3c
000003f0: bfc2 a53d 6a10 c13d 36dd d53d 5d5a a93c
-0.07301887 0.032426566 0.026472455 0.089275695 0.055191647 -0.05344069 -0.014078927 0.019120619
0.016821098 0.018419003 -0.028588552 0.03636323 -0.08942888 -0.0651719 -0.046417356 0.11804296
0.031094965 0.012543758 -0.08698826 -0.07683612 -0.0055355723 -0.021051604 0.037093543 0.028842004
0.03291121 -0.030303027 -0.023924395 -0.029578554 -0.0068519535 0.058054306 0.13245521 0.04115057
0.0852235 -0.21943645 -0.17806396 -0.1010367 0.08607813 0.028552726 0.07294096 -0.08642859
-0.12128932 -0.06364621 0.0010024707 0.042195234 -0.0099897515 -0.031949587 0.04526174 0.005501095
-0.040088672 -0.035051085 0.023769867 0.08080663 0.106708154 0.029414363 0.027002051 -0.022345921
-0.0585749 0.0018642396 -0.07655023 -0.08202482 -0.124132566 -0.12429349 -0.13266215 0.037712622
0.035436593 0.067355625 -0.100122854 -0.11589784 -0.069705464 -0.011835568 -0.08801864 -0.035047468
-0.007785148 -0.078824975 -0.029518582 -0.025223296 -0.06131702 -0.13902815 -0.04207797 -0.0033143787
0.06615544 0.048811227 -0.03060979 -0.06568217 0.021610137 0.076003626 0.028884204 -0.14071482
-0.14982893 -0.075640224 0.033232752 -0.00057506276 -0.043392666 -0.04015531 0.023951989 0.06704388
0.05307665 0.043577835 0.03221 -0.06835045 -0.15116179 -0.13006617 -0.059507284 -0.03487549
0.024010366 0.08535705 0.0873215 0.10035666 0.05645615 0.05887992 0.005375511 -0.06593538
-0.04937732 -0.14168294 0.024305124 0.074430734 0.100363664 0.033344124 -0.029449746 0.018753078
0.076988734 0.03846084 0.04094255 -0.06609643 -0.16125064 -0.041217256 -0.080388375 -0.10497399
-0.1086621 -0.0020945093 -0.012890508 0.039342094 0.023844216 -0.023067564 -0.042722873 -0.04436574
0.0153854 0.07155932 0.10894543 -0.0030225932 0.10149153 0.11908846 0.074747264 0.049572226
0.09972693 -0.0014450654 0.08342297 -0.05505271 -0.10274119 -0.060828105 0.008790893 -0.09190501
0.030372253 -0.02680128 -0.005944502 -0.062039867 -0.0101663545 -0.014517996 0.047728505 0.034295507
0.038528603 0.003618675 0.06181371 0.05541012 0.008386648 0.03326461 0.023233535 -0.099107146
0.06988594 -0.03034107 0.004960948 0.019668661 0.031594988 0.000920836 -0.08036475 -0.058627427
-0.14012516 -0.093908 -0.08945285 -0.02452453 -0.012079861 0.025369892 -0.056397427 0.014363115
-0.0031172256 0.0673381 0.012676773 0.066224664 0.008456055 -0.007844014 -0.022496955 0.03744495
-0.04161411 0.0065021985 -0.058632225 0.059830535 -0.02275156 0.067474015 -0.0828152 -0.13717477
-0.016887894 -0.020225076 0.00088108453 0.024224153 -0.018042115 0.03583537 0.03997251 0.046685383
0.018861517 0.045641113 0.02384962 0.0118861655 -0.0068333494 0.01973163 -0.0013707785 6.849689e-05
-0.04736275 0.011708859 -0.04357248 0.038716353 -0.07501959 0.027583733 -0.084146485 -0.12470998
-0.10924443 0.034482453 0.08596501 -0.014465513 -0.01759174 -0.031858783 -0.006151866 0.057865046
0.0205002 -0.006580646 -0.050589558 -0.13809566 -0.06258702 0.06595515 0.01707545 0.04634964
-0.08626977 -0.078953 -0.06840439 0.06815327 0.045325637 -0.040267274 -0.058083076 -0.018408714
0.024114974 0.002869081 -0.02670266 0.031217232 0.080937855 0.09426959 0.10442583 0.020672971

bias f4 [128]
00000000: 5cd3 5f3d ddb5 45bc 5443 b3bc 6ed7 6ebc
00000010: e75e 65bd 6d2e dfbc 6613 65bd a8df cdbc
00000020: 2357 c2bd f054 9fbc b4c8 1ebc 8144 893b
00000030: 72cd 82bd 5bab 433d ef6a b6bc 745b ffbc
00000040: 7309 e33b 35e2 3ebd 45b9 ccbd be2c 163d
00000050: 7ad6 a8ba 8d0c 0abc c0c0 10bc 4fd2 c0bd
00000060: 12db 6a3d 5a4d b73c 6987 7a3d 0a2c 44ba
00000070: 23db ea3c 4bcd 9abd f210 393d f76a 5cbd
00000080: 10fe dabb a1ac 69bc 1b16 903d a8fa 0d3d
00000090: 842f 073d 9fc9 903d bbcf 173d 34c7 91bc
000000a0: a76c 96bd 743e 74bc 2cdb f5bc c933 8ebd
000000b0: 7a4a c53c fe52 503d 72fb 753d 8a27 48bc
000000c0: 6f6f ce3c 48c9 cfbc eaf4 3e3d 4cec 733d
000000d0: ef28 01bd 8639 073c bd8e 103d 59a3 b3bc
000000e0: 1144 713d ed9b b4bc eca6 6dbc d07d c13c
000000f0: 3935 0d3d 298f 283d 07ce 57bd 24fa e83c
00000100: fe8c 813d 178f 073d 99e1 c93c 397e 09bd
00000110: d143 d4bb 0d18 4b3d 98fe 0b3c 10f1 aa3d
00000120: 3fab 6bbd 22a6 c0bc c525 e7bc 64db be3d
00000130: bc28 c23c 7338 01bd 0ba3 533d f765 a13c
00000140: 14e6 cabc 8968 fc3c 2799 1fbd 718a 32bd
00000150: 063c 3f3c 616a 9bbd 3b8b 363d 8218 aebc
00000160: aafc 32bc 1ffb 88bd 1aba a2ba c610 ff3a
00000170: e98f 8a3d fe28 83bd c520 0a3d 18f4 72bc
00000180: 7beb 823d a848 9f3d 32e5 b93c 540b 843d
00000190: 23c8 a5bd f0c3 823d 5791 453d e7a5 b23d
000001a0: 221e fa3c c8b8 91bd c368 63bd 7eeb bfbc
000001b0: 03b4 053d 6950 593d 7ba7 1a3d 4cec 09bd
000001c0: 3b5a f0bd 58f9 65bd fe76 193c 738a 023d
000001d0: 0f08 473d 0538 9d3d de9b 7b3d 9fd7 5cbc
000001e0: b182 b0bd 4b59 18bc 928f c7bc a7ae a13c
000001f0: 5f86 99bb ac38 eebc b8b5 5a3c c252 36bc
0.054644927 -0.012067285 -0.02188269 -0.01457773 -0.05599871 -0.027243817 -0.055926703 -0.025131062
-0.09489276 -0.019449681 -0.009691406 0.0041890745 -0.06386842 0.04777084 -0.022267787 -0.031171538
0.0069286167 -0.046602447 -0.09996275 0.036663763 -0.0012881302 -0.008425844 -0.008835018 -0.09415113
0.057337828 0.022375751 0.061164293 -0.0007483369 0.028668946 -0.07558688 0.045182176 -0.053812947
-0.0066831186 -0.014262349 0.07035466 0.034662873 0.0330043 0.07069706 0.03706334 -0.017795183
-0.073449425 -0.014907468 -0.030011736 -0.06943471 0.024083365 0.050860398 0.06005425 -0.012216458
0.02519962 -0.025364533 0.046620287 0.059551522 -0.031533178 0.008253461 0.035292376 -0.021928476
0.058902804 -0.022047007 -0.014505129 0.023619562 0.034474585 0.041152153 -0.052686717 0.028439589
0.0632572 0.033095445 0.024643706 -0.03356764 -0.006477811 0.049583483 0.008544587 0.0834676
-0.05753636 -0.023516718 -0.028216252 0.09319189 0.023701064 -0.031547975 0.05166916 0.019701941
-0.024767913 0.030811565 -0.038964417 -0.04358906 0.011672026 -0.075886495 0.044566374 -0.02125192
-0.010924498 -0.066885225 -0.0012415082 0.0019459955 0.0676573 -0.06404303 0.033722658 -0.014828704
0.063925706 0.0777753 0.022692297 0.06447473 -0.08094814 0.06385028 0.04823431 0.087230496
0.030531947 -0.07115322 -0.05551983 -0.023427721 0.032642376 0.0530552 0.037757378 -0.033672616
-0.1173596 -0.056145996 0.009366749 0.031870317 0.04859167 0.076767005 0.061427943 -0.013479142
-0.086186774 -0.009298633 -0.024360452 0.019736601 -0.0046852077 -0.029079758 0.013348989 -0.011128129

weight f4 [128]
00000000: 0bb5 693f 66f7 723f 599b 733f 3f4d 6a3f
00000010: 1702 733f ba96 6a3f dc64 683f ac04 6e3f
00000020: d4cb 603f 21b5 643f 70f9 6c3f 5bef 623f
00000030: 0a8a 6c3f cd76 6d3f faf0 5f3f 9141 6a3f
00000040: a0bf 6f3f 0820 743f b057 733f 087e 753f
00000050: 71a6 633f abc5 663f 1d64 6b3f d364 633f
00000060: 04b7 813f 9231 613f 1848 653f ac67 653f
00000070: 45a0 693f 45ba 753f 4f5c 7e3f 3ecb 713f
00000080: 50e4 663f fd14 753f ad70 603f d27a 6b3f
00000090: a839 733f ccee 733f a7db 743f 18dc 6e3f
000000a0: a72a 6e3f f376 723f f229 6f3f f6cd 6f3f
000000b0: 9b7f 6d3f 0f5a 623f c587 723f f0c0 693f
000000c0: 0446 793f c642 6c3f 7769 603f f5f5 773f
000000d0: 0104 6c3f 5fb9 783f 64d3 603f e06f 653f
000000e0: 5efc 693f 1004 633f 6097 703f b366 623f
000000f0: 1ed7 773f 9e35 6d3f 9098 753f 9dff 683f
00000100: a142 823f cc54 6d3f 4144 753f 41f1 6c3f
00000110: 080b 6e3f d53e 5f3f a0bc 763f f241 793f
00000120: 3c36 783f ec2d 653f 5053 7b3f fb04 653f
00000130: a8b4 623f 77a1 643f cc78 653f b69b 6e3f
00000140: ef03 693f 788d 793f 01e8 673f a12e 673f
00000150: b202 6e3f 7ae6 6a3f 776c 703f e265 6f3f
00000160: 46aa 6b3f c255 6c3f 99a3 613f e187 5d3f
00000170: e4de 633f 1a66 693f 4eef 693f e045 713f
00000180: f659 623f c8c8 6a3f 0c88 743f 5dcd 5d3f
00000190: 296e 6b3f c6be 6c3f 8451 653f 9406 6a3f
000001a0: 5aab 763f 3f12 7a3f a668 6b3f a262 6d3f
000001b0: 9eef 6f3f eb1f 673f c0c4 7c3f 6030 7b3f
000001c0: e2f8 743f 1dd0 683f 250e 603f fe80 6a3f
000001d0: 4a1c 5f3f 90f6 6c3f 1b1c 763f 30f2 703f
000001e0: ece2 653f 10b6 613f f249 753f ed64 673f
000001f0: ed16 7a3f 5dfe 713f 59da 633f 4a9b 6c3f
0.91291875 0.9490875 0.95158917 0.9152412 0.94925064 0.9163624 0.907789 0.9297588
0.8781102 0.8933888 0.9256811 0.8864648 0.9239813 0.927594 0.87477076 0.91506296
0.9365177 0.95361376 0.95055676 0.95895433 0.88925844 0.9014537 0.91949636 0.8882572
1.0133977 0.87966263 0.8956313 0.89611316 0.91260177 0.9598735 0.993596 0.9445075
0.9019213 0.9573515 0.8767193 0.91984284 0.9500985 0.9528625 0.9564766 0.93304586
0.9303383 0.9471275 0.9342338 0.93673646 0.92772835 0.8841867 0.9473842 0.91310024
0.9737246 0.9228939 0.87660927 0.96859676 0.9219361 0.97157854 0.87822556 0.8962383
0.91400707 0.88678074 0.9398098 0.88437957 0.9681262 0.9265994 0.95935917 0.91015035
1.0176584 0.92707515 0.9580727 0.92555624 0.9298558 0.8720525 0.9638157 0.9736625
0.96957755 0.89523196 0.98174 0.89460725 0.8855691 0.89308876 0.89637446 0.93206346
0.9102163 0.9748149 0.90588385 0.90305525 0.9297286 0.9175793 0.93915504 0.93514836
0.9205669 0.92318356 0.88140255 0.8653546 0.8901198 0.9117142 0.91380775 0.94247246
0.8841852 0.9171262 0.9552009 0.86641484 0.91964966 0.924786 0.8957751 0.9141629
0.9635521 0.9768409 0.91956556 0.92728627 0.93725 0.9028308 0.98737717 0.9812069
0.95692265 0.90942556 0.8752158 0.91603076 0.8715254 0.92563725 0.96136636 0.9411955
0.8979938 0.8816843 0.95815957 0.90388376 0.9769123 0.9452875 0.8900505 0.9242445

bias f4 [128]
00000000: 46ec 5abe e1df 64be 608f 47be f63a 08be
00000010: be5d 30be 603b 5dbe 90b7 e6bd 8025 70be
00000020: 2fc9 a4be 764b 80be 2c1d 1dbe dca4 1cbe
00000030: ac0b 7bbe 530d 75be ff76 80be e56b 71be
00000040: bafe 52be fa7a 4dbe a7e9 6cbe 269c 58be
00000050: cbcf 4abe ed0b 88be 2435 6cbe 0fdb 5bbe
00000060: 42c7 2abe 8b1f a7be a9d8 2fbe 3ad7 61be
00000070: f8c8 3abe cbf1 1cbe 0688 45be 388a 64be
00000080: 2e9f 98be 1429 02be c857 3abe 1767 66be
00000090: ec66 39be 8ea5 32be 244a 4fbe b550 5ebe
000000a0: cae5 16be ded3 4ebe 4b3b 4abe 9bc3 76be
000000b0: a06b 40be 606b 20be 4a2a 2fbe 162b 38be
000000c0: b18c 20be 339f 8ebe 7868 56be 972d 3ebe
000000d0: 3ea8 60be bb4d 09be 6e5c 42be 638b 63be
000000e0: 8dee 02be ae91 2bbe 222f 09be ed32 29be
000000f0: cd41 48be bb2b 4ebe ecfb 52be 39d1 53be
00000100: ee8b 68be 891d 6fbe 0b03 48be 913b 52be
00000110: 17c3 8fbe 81da 47be c22a 7ebe 849d 7fbe
00000120: de16 5fbe ee6e 62be 006e 4bbe 7efb 1dbe
00000130: 0362 82be 1b6a e9bd bf38 6fbe 2101 14be
00000140: 7a2a 8cbe 57ad f9bd 40e0 3ebe bf36 2dbe
00000150: 4df4 26be 1761 38be e2df 0fbe f3ca 19be
00000160: a03f 5ebe 0e3b dfbd ecb7 4fbe 827d 2dbe
00000170: 8730 01be 7242 80be e885 58be a293 83be
00000180: 6f90 a2bd 93d2 27be 8f28 e2bd dd2d 4dbe
00000190: 6d3a e7bd a296 83be 7e3f 4ebe c2f2 91be
000001a0: f022 0bbe a0ab 05be 1faf 47be 2570 4cbe
000001b0: 5c05 19be 0e8b 63be ac7b 5dbe 5106 5ebe
000001c0: 3dcc 5bbe b925 84bd 2738 49be e0de 76be
000001d0: f58a 16be 64fb 16be 6e11 30be 21e6 0bbe
000001e0: adf8 35be 897d 74be e106 1bbe 6aa8 56be
000001f0: 8b0e f8bd b3b8 22be cf6a 7abe 7042 59be
-0.21379194 -0.22351028 -0.19488287 -0.13303742 -0.1722326 -0.21604681 -0.112654805 -0.23451805
-0.3218474 -0.25057572 -0.1534316 -0.15297264 -0.24516171 -0.23930864 -0.25090787 -0.23576315
-0.20604983 -0.20066443 -0.23136006 -0.21153316 -0.19805829 -0.265716 -0.23067147 -0.21470283
-0.16677573 -0.32641253 -0.17172493 -0.22054759 -0.18240726 -0.15326612 -0.1929017 -0.22318351
-0.29808944 -0.12710983 -0.18197548 -0.22500263 -0.18105668 -0.17445967 -0.20243126 -0.21710475
-0.14736095 -0.20198008 -0.19749181 -0.24098055 -0.18791056 -0.1566596 -0.17105976 -0.17985186
-0.1567867 -0.27855834 -0.20938289 -0.18572079 -0.2193918 -0.13408558 -0.18980572 -0.2222114
-0.12786312 -0.16754791 -0.13396886 -0.16523333 -0.19556351 -0.2013387 -0.20603913 -0.20685281
-0.22709629 -0.2335111 -0.19532411 -0.20530535 -0.2807853 -0.19516946 -0.24820998 -0.24962431
-0.21786067 -0.22112629 -0.1986618 -0.15427968 -0.25465402 -0.11397191 -0.2336149 -0.14453556
-0.27376157 -0.12191265 -0.18640232 -0.16915415 -0.16304131 -0.18005787 -0.14050248 -0.15018825
-0.21703959 -0.10899936 -0.20285004 -0.16942409 -0.12616168 -0.25050694 -0.21144831 -0.25698572
-0.07937705 -0.16388921 -0.11042892 -0.20037027 -0.11290441 -0.2570086 -0.20141408 -0.28505522
-0.13587546 -0.13053751 -0.19500397 -0.19964655 -0.1494345 -0.22221014 -0.21629208 -0.21682097
-0.2146463 -0.064525075 -0.19650327 -0.24108458 -0.14701445 -0.14744335 -0.17194149 -0.13662006
-0.17770644 -0.23876013 -0.15139343 -0.20962682 -0.12112149 -0.1589077 -0.24454807 -0.2121675

running_mean f4 [128]
00000000: 4c12 7bbe 2411 20bf cf4a 423f 8acf a1be
00000010: 4df8 cfbe f8d1 f8be b99c 2a3e e1ac 17bf
00000020: b150 3bbf 76f8 78be daa8 0fbf c154 57be
00000030: e771 b4bd 8026 813f 6733 b4be a8db 2ebf
00000040: 809f 37bf 1e60 c9be 1b7a 27bf 7ad3 1ebf
00000050: 00df b2be 0d9a a0bd f85d 0fbf eb15 8dbf
00000060: 81c1 fcbe 9a43 143f 5310 bebe 972a f3bd
00000070: 9c2a 5abe 5ae2 463f 367f 12bf f327 7c3f
00000080: 7a09 1dbf 413f 90bd d192 e93d 1087 d93e
00000090: 2b13 03bf d0d4 4ebf 85f7 72bf 09dd 2bbf
000000a0: d108 1cbf cde4 a6be 11cd f5be 6493 5abf
000000b0: 898a 16bf 50e0 8bbe 6e56 babe 8ac4 4ebf
000000c0: e171 74be 4652 45bf a138 51be 09f0 0cbf
000000d0: f128 f9be f90e 3dbf 632b c4be 659b 543e
000000e0: 6981 81bd 1124 babe 5324 8e3e 4992 82be
000000f0: c19f 07bf 3926 9bbe 7545 24bf 7501 aabe
00000100: d1e7 4fbf 88cf 813f 2def f7be 4b9e 143f
00000110: 39ab 38bf 4d45 063d 169b 51bf 68a6 41bf
00000120: 6ddb 80bf b8a6 d0be 267d 70bf d2a0 68be
00000130: e88b 88be 0658 19be 3140 0dbf 304f 3ebe
00000140: 5985 03bf a2da f7bd 91c0 6dbf b4bf 30bf
00000150: 66b8 7abe 58e1 84bd 4e52 0dbf 5a33 b8be
00000160: d886 2fbf 3e23 b2bd 0a32 d5be 569a 64be
00000170: 4d7d 4fbe 6279 92be 9567 48bf 7598 84bf
00000180: 3a53 2ebe 1c90 95be ee07 be3e 87c5 06be
00000190: d854 dfbd 38e9 40bf 5939 b8be 28f3 18bf
000001a0: 416e 4abf e8a4 1cbf e0af 1abf 10fe 50bf
000001b0: a470 0bbf dfc3 23bf 0459 5ebf 6862 55bf
000001c0: 5772 39bf 8108 4a3f f2de cebe 0e72 343f
000001d0: 9b90 f6bd 31ad 143f bae0 84be 78c1 ba3e
000001e0: cdee 233e 56af 9dbe dedf 5bbe 1861 85be
000001f0: b303 98be 0109 eebe 7e89 28be 98be cfbe
-0.24518698 -0.62526155 0.758954 -0.31603652 -0.40619126 -0.48597693 0.16661347 -0.5924817
-0.7317 -0.2431353 -0.5611702 -0.21028425 -0.08810788 1.0089874 -0.35195467 -0.6830392
-0.7172775 -0.39331144 -0.65420693 -0.6204144 -0.3493576 -0.07841883 -0.5600276 -1.1022314
-0.49366382 0.5791565 -0.3712183 -0.11873358 -0.21305317 0.77689135 -0.5722536 0.9849846
-0.61342585 -0.07043315 0.11404956 0.42485857 -0.51201123 -0.80793476 -0.94908935 -0.6713415
-0.6095095 -0.32596436 -0.48008016 -0.8538115 -0.5880514 -0.27319574 -0.36394066 -0.80768645
-0.23871566 -0.77078664 -0.20431758 -0.55053765 -0.48664048 -0.7385097 -0.3831435 0.20762403
-0.06323511 -0.3635564 0.27762088 -0.25502232 -0.5297814 -0.303026 -0.64168483 -0.33204237
-0.812131 1.0141459 -0.48424664 0.58054036 -0.72136265 0.032780934 -0.8187727 -0.7564454
-1.0066963 -0.40752196 -0.9394096 -0.22717598 -0.2666924 -0.14974985 -0.55176073 -0.18584895
-0.5137535 -0.12102248 -0.9287196 -0.69042516 -0.24484405 -0.064882934 -0.5520371 -0.35976678
-0.6856513 -0.08698128 -0.4163974 -0.223245 -0.20262642 -0.28608233 -0.78283054 -1.0359026
-0.17023936 -0.2921151 0.37115425 -0.13161288 -0.109048545 -0.75355864 -0.35981253 -0.59746027
-0.79074484 -0.61189127 -0.60424614 -0.8163767 -0.5446875 -0.6397075 -0.8685458 -0.8335328
-0.72440094 0.78919226 -0.4040447 0.70486534 -0.120393 0.5807677 -0.25952703 0.3647573
0.16009064 -0.30797833 -0.21472117 -0.2605064 -0.29690322 -0.46491244 -0.16458699 -0.405751

running_var f4 [128]
00000000: f81d c53f 3f55 c83f 997b 1a3f e022 8b3f
00000010: 049e 633f cc43 da3e 0420 263f 5181 5c3f
00000020: 394f 3c3f 7cf3 533f a5a6 833f 434e 433f
00000030: 61bd 703f f646 143f ffb3 9f3f e04e 443f
00000040: b8ec 593f 0314 7e3f b01c 7b3f 097d ca3f
00000050: 7175 613f 0585 3b3f e4e9 4a3f 7d61 113f
00000060: 53ca 8a3f 0e89 003f b09f 3f3f c4e2 5e3f
00000070: 99a3 5e3f b9d4 123f 694f 993f c8ad 273f
00000080: a5f2 303f 17e0 103f d064 c03e e06f bf3e
00000090: f5ab 383f 236a 6c3f 5c72 9e3f dd60 623f
000000a0: e2cf 8d3f 1bd4 5c3f 54fe 3a3f ba79 643f
000000b0: 1bac c33f d40e 343f fcdc 953f 7fc4 793f
000000c0: cfc2 3b3f 47f3 6d3f 960a 263f 7c9a 9c3f
000000d0: c495 483f aa59 8f3f 7257 3c3f 2e61 053f
000000e0: 4605 943f 1793 3d3f 4b86 743f 6a1a 913f
000000f0: 00e9 ef3f 4831 b93f 9759 b43f bfbb 563f
00000100: b4f7 c23f 1141 1c3f bf88 ea3f 2df6 d03e
00000110: d69e 703f 4129 2e3f 45d7 9a3f 4d68 833f
00000120: 2a7f 8c3f 0146 263f de5c b83f f8a6 163f
00000130: 5291 3a3f dec0 9e3f 6086 8b3f 550f 423f
00000140: e5cb 293f 63f1 603f ee07 6c3f 74b7 823f
00000150: 430f 583f 6d39 593f a908 733f 7d7e a33f
00000160: 1c6f 4a3f 09a5 353f 71eb 2d3f 34ec a33f
00000170: 2dce 923f b45c 823f c6ba 8f3f 11e0 af3f
00000180: 8cec 873f 3340 2f3f 62fb 583f 7abd 523f
00000190: 417d ac3f 7900 8e3f ba55 913f 1081 893f
000001a0: 8d8f aa3f e177 363f e396 723f 1bda 943f
000001b0: f0c2 813f e1e3 253f 2cb8 a73f 857a b83f
000001c0: 0655 933f 9a6d 313f d800 123f 9c29 033f
000001d0: e627 5d3f 936b 033f 7574 8b3f 51e2 423f
000001e0: f0ca 253f c1e2 4d3f 95db 743f c76b 883f
000001f0: d501 0a3f f92a 3d3f 7cc7 043f 215a af3f
1.5399771 1.5651015 0.60344845 1.0870018 0.8891299 0.4262985 0.648926 0.8613482
0.73558384 0.827934 1.0285231 0.7629129 0.9403897 0.5792078 1.2476805 0.76682854
0.8512683 0.99249285 0.9809065 1.5819408 0.88069826 0.73249847 0.7926314 0.5678938
1.0842994 0.5020913 0.7485304 0.87064767 0.8696838 0.5735584 1.1977359 0.65499544
0.69120246 0.56591934 0.37576914 0.3739004 0.72137386 0.9234945 1.237865 0.8842905
1.1079066 0.8626115 0.73044324 0.8924824 1.5286897 0.70335126 1.1708064 0.97565454
0.7334413 0.92949337 0.648599 1.2234645 0.78353524 1.1199238 0.7357093 0.5210141
1.1564109 0.74052566 0.95517415 1.1336186 1.8742981 1.4468164 1.4089841 0.8388023
1.5231843 0.61036783 1.8322982 0.40812817 0.93992364 0.680317 1.2096945 1.0266205
1.0976307 0.6495057 1.4403341 0.58848524 0.7287799 1.2402608 1.0900383 0.75804645
0.66326743 0.87868327 0.921996 1.0212235 0.8439829 0.8485325 0.9493509 1.2772976
0.7907579 0.7095495 0.6793738 1.2806458 1.146917 1.0184541 1.1228874 1.3740255
1.0619063 0.68457335 0.8475858 0.8232037 1.3475724 1.1093894 1.1354287 1.0742512
1.3325058 0.7127667 0.94761485 1.162906 1.0137615 0.6480084 1.310308 1.441239
1.1510322 0.69307864 0.5703254 0.51235366 0.86389005 0.5133602 1.0894915 0.7612658
0.64762783 0.80424124 0.95647556 1.0657891 0.53909045 0.73893696 0.5186689 1.369938

weight f4 [256, 128, 3]
00000000: 7ca4 b1bd 8a85 c2bd a8a3 dabd 296e 9a3d
00000010: 6fd1 bc3d 8c6b 703d c786 aabc 0840 c33c
00000020: a8bd 9f3b 31eb d7bc c464 0bbc 57db 14bd
00000030: 5921 2cbd 2fde 63bd 1f83 58bc d8df 99bc
00000040: 273d 2bbd e8ae ccbc 45ab b73c 4b99 fa3b
00000050: 8c27 173d 681e d03c 37ee 04bd 1885 d6bb
00000060: 9c17 4a3c 4ec4 d7bb 3740 8ebc a8e5 2f3d
00000070: 8eae d73c c6ec 603b c08c cabc 08a0 5a3c
00000080: 5c26 dc3c f68c 82bd 7514 2bbd 99b3 95bd
00000090: 151e 7ebd 5aca 2bbd 32e3 68bb 9f72 f13c
000000a0: 8fd1 b0bc b7bd e13b 4960 26bc 3139 c3bd
000000b0: 4b4c 7ebb badb e4bb 7ed4 423d 82f1 8cbc
000000c0: 26e5 60bd 3720 46bd 0546 93bd 7948 2b3d
000000d0: 6048 b3ba 599c d53b ca40 2cbc ce8a 0fbd
000000e0: 35af 983c 9918 da3d 6b02 ca3d 5268 a03d
000000f0: 0b65 a5bd a4f4 dbbd 4982 d2bd 6adf d2ba
00000100: aaf6 ca3c bcd7 15bc b50d 48ba b6d6 2a3b
00000110: cd14 743d 32cb 003d 485b 213c e382 953d
00000120: 2fe8 233c cebf 143d a825 813c 01c7 fb3d
00000130: c6fd d23d bc4e f93d f2cf 61bd 5f67 a5bd
00000140: 135a abbc b288 babd e35d aabd b430 99bd
00000150: 1689 413c 426e 8cbd 4d69 fe3b da54 2abd
00000160: b103 93bd 9da9 a7bd d598 d03c b224 13bc
00000170: ae58 053d da93 06bc faf7 2ebd 6a19 7d3c
00000180: 2ba5 3b3d 207c b3bc 8318 95bc b117 4d3c
00000190: bb4d 72bd 4442 e9bc 66a7 96bc 2652 c73c
000001a0: b4d5 e53c 2314 6d3b 306f 99bb 7a14 fe3c
000001b0: 9767 64bd a68b 93bd 9d39 85bd d664 31bd
000001c0: e864 e13c 63ae 16bd 3460 c1bd aec3 1ebb
000001d0: 7e3d a9ba 8f74 87bc 922a c93c d8e7 02bc
000001e0: b788 84bd fc8b 80bc b7b6 6bbd d492 95bb
000001f0: 472f ebbc eb3b 213c 0072 253d 50e9 6bbc
00000200: 79f8 3e3d 4193 54bd c761 40bd 7f37 dd3b
00000210: c6f9 553c ff30 a93d c52d b13d dc65 cd3c
00000220: 7a37 d63b 993d f4bc 9fe5 9d3c 5a86 91ba
00000230: 9c40 573d 4795 143d dc4d 4a3d ebda ef3b
00000240: 20b5 873c bf8e 4cbd 487b 5cbc ca95 b93c
00000250: e167 163d d04c 77bb b063 8cbc 6ff2 ab3c
00000260: d41b 0fbd a76c 903c a0bf f13a d2f5 293c
00000270: 333c 9dbc 9241 a3ba d780 af3c cef7 723c
00000280: 22fd c6bc c2e7 1d3b d5a6 aabc e345 2f3c
00000290: 4dd2 85bc 0942 a7bc 6dba 133d 3301 613d
000002a0: cf98 c5bd 4f2b aabd 13b5 83bd ec0e 6ebc
000002b0: 3bca 52bd 5c3a 643c 67f9 853b 215e febc
000002c0: ffde 2bbd ec9d da3a 11e2 b0bc a3f4 c0bc
000002d0: e6c0 933d dc65 cf3d cfb0 f23c a046 0fbd
000002e0: 9b2f c6bc 5fff ed3b 7e68 0c3d 6af3 813d
000002f0: dd8f 803d 3442 8cbc 0e15 853c 58de 873b
00000300: c290 2f3e bcaa 3c3e 9d3c 033e a9ab 35bd
00000310: 5de4 3cbd a656 9cbd 6f73 963d 7974 c73d
00000320: 8a50 e33d 2c3d 21bd 89d4 f8bc c0d3 6c3c
00000330: 8a7b a9bc 50c7 89bc 5e1d de3c 896d 2dbb
00000340: 411f 1ebd 1937 cbbc b024 d73d dfcb e33d
00000350: 667e ef3d 6daf a6ba fe2b e438 3304 003d
00000360: 57e3 33bd f57d 57bd b785 28bc 9d17 27bd
00000370: 2ce7 8ebd d424 203c 8fe3 963d 98d6 8a3d
00000380: 46e8 743d 4324 71bc 5bf7 2fbd c047 1cbc
00000390: d0b6 113c 64f6 cfbc 8773 aa3c cf80 aabd
000003a0: bd1b e1bd 677d 87bd 7b6e 463c 3c1e 803c
000003b0: 2c3f 0c3d 7187 2ebd d7d2 34bc 0dc0 fe3b
000003c0: 57a9 9c3c a863 40bc 572f 2f3d cf8f 37bd
000003d0: 3840 cfbd be60 9cbd 4eb0 3e3d c7f5 953d
000003e0: d2db 803d 82a2 2abc a258 813c 1468 383d
000003f0: 7cd3 a6bc 49a2 0dbd d2cb dcbc 9a4a f5bc
-0.08673951 -0.09498127 -0.10675746 0.07540543 0.09219634 0.058696315 -0.02081622 0.023834243
0.0048749037 -0.026357265 -0.008507911 -0.03634199 -0.04202399 -0.055631813 -0.013214855 -0.018783495
-0.041806366 -0.024985746 0.022420535 0.0076476685 0.03690295 0.025405124 -0.032453742 -0.0065466277
0.0123347305 -0.0065846806 -0.017364604 0.042943627 0.026328351 0.0034320815 -0.024725318 0.0133438185
0.02687376 -0.063745424 -0.041767556 -0.07309646 -0.062040407 -0.041941024 -0.003553581 0.0294736
-0.0215843 0.006889071 -0.010154792 -0.09532393 -0.0038802798 -0.0069842013 0.04756593 -0.017205004
-0.054906033 -0.048370566 -0.071910895 0.041817162 -0.0013678186 0.0065188822 -0.010513494 -0.035044484
0.018638233 0.10649223 0.098637424 0.078323975 -0.08075913 -0.10740021 -0.10278756 -0.0016088311
0.024775822 -0.009145673 -0.0007631437 0.002606792 0.05959015 0.031443782 0.009848423 0.07300355
0.010004087 0.03631573 0.015765026 0.12293816 0.1030231 0.121732205 -0.055129953 -0.08076357
-0.020916974 -0.09108104 -0.08318689 -0.074799925 0.011812469 -0.068569675 0.0077640177 -0.041584827
-0.071784385 -0.08186648 0.025463501 -0.008980917 0.032555275 -0.0082139615 -0.042716958 0.015447954
0.045811813 -0.021909773 -0.018200165 0.0125178555 -0.05915616 -0.02847398 -0.018390369 0.024331164
0.028056003 0.0036175332 -0.004682444 0.031015623 -0.055762853 -0.0720437 -0.065051295 -0.043309055
0.027513936 -0.036787402 -0.094421774 -0.002422552 -0.0012912003 -0.016535072 0.024556432 -0.007989846
-0.06471389 -0.01569175 -0.057547297 -0.0045646224 -0.028709067 0.009840946 0.040391922 -0.014398888
0.04662368 -0.051898245 -0.046968248 0.0067510004 0.013060039 0.082612984 0.08651308 0.025072984
0.006537375 -0.029814528 0.019274531 -0.0011102662 0.05255185 0.036275174 0.04939066 0.007319798
0.01656586 -0.04994082 -0.013457127 0.022654433 0.03672016 -0.0037734993 -0.017137378 0.020989625
-0.03493865 0.017629934 0.001844395 0.01037355 -0.019193744 -0.0012455455 0.02142374 0.014829589
-0.024290625 0.0024094437 -0.020831505 0.010697815 -0.01633563 -0.02041723 0.03606646 0.054932784
-0.096482866 -0.08309042 -0.064310215 -0.014529925 -0.051462393 0.01392993 0.004088569 -0.031050744
-0.041960713 0.0016679144 -0.021592172 -0.023554152 0.07214527 0.1012685 0.029625325 -0.034979463
-0.024192622 0.0072631086 0.03427934 0.06345256 0.0627744 -0.017121412 0.016245391 0.0041463785
0.17145064 0.18424505 0.12816091 -0.04435316 -0.04611622 -0.076337144 0.07346236 0.09739012
0.11099346 -0.03936498 -0.030374782 0.014454782 -0.02068879 -0.016818672 0.027113613 -0.0026462993
-0.038604025 -0.024806546 0.105050445 0.1112287 0.116940305 -0.0012717076 0.000108800814 0.031254005
-0.04391798 -0.052610356 -0.010285786 -0.040794004 -0.06977686 0.0097744055 0.07367622 0.06779212
0.059791826 -0.014718118 -0.042960506 -0.009538591 0.008893684 -0.025386043 0.02080704 -0.083253495
-0.10991619 -0.066157155 0.0121113015 0.015639417 0.034239933 -0.042609636 -0.011036596 0.007774359
0.019123716 -0.01174251 0.042769756 -0.04481488 -0.10119671 -0.076356396 0.046554856 0.07322269
0.062919274 -0.010414721 0.015789334 0.04502113 -0.020364515 -0.034578595 -0.026952658 -0.0299428

bias f4 [256]
00000000: 072a 8e3b 32ea ea3c 39f8 0ebd b983 4abd
00000010: 4fec 263d df7f 10bd b8d1 2fbc 91ff c639
00000020: efd2 a03b 362c 703c 7055 103d 2bee 1e3d
00000030: 11e5 153d 2fae 893c 1fd3 ef3c e5e2 b53c
00000040: d5e5 523c 14ba 0d3d f3cd 073c 6767 263d
00000050: 96d5 d63c b452 08bd 9cbe 36bc 27f6 0b3c
00000060: 555b 16bd 0091 99bc 6148 59b8 b823 a93c
00000070: 4440 c6bc 088a a4bc 680b 12bd 645f 0fbd
00000080: d371 d6bc 2738 66bd a115 b2bc 3f0f b7bc
00000090: e12f 15bd 6fbb 15bd 450d f6bb 010e adbb
000000a0: f64a 1ebd 7d8b e6bb 4231 1a3d e0ac aa3c
000000b0: c9c5 7e3c 7bca 0f3d 6f06 2abd 6acd 19bc
000000c0: 7d72 49bd 5cde fbbc 1cf4 ff3b 592f 00bd
000000d0: 3ae1 e0bb 8f92 b23c bfa5 983c bc58 0bbd
000000e0: bee8 52bd b2c4 a5bc b872 ca3c 6cfd 243b
000000f0: 34a5 923c f9fe ce3c 99a3 23bd a82d 7f3a
00000100: 8834 53bc b345 0f3d 24e3 aeba 14cc 0ebd
00000110: acc7 84bc 803f 32bd ca35 153b b94b 483d
00000120: e093 51bd 5744 40bd aadf 133d d282 3f3d
00000130: e749 2b3d 21fe 03bd 7cf5 0dbc bdb1 e13c
00000140: be2c 8e3b 6d6a a5bc e40f cfbc f350 f0bc
00000150: 7dc9 16bd 7089 bbbc e455 913c 7072 cb3c
00000160: 4873 67bd 8e3c 9fbc 0abb fbb9 e879 f6bb
00000170: 02b2 c3bc 6935 2dbc 56a3 99bc c8a6 1d3c
00000180: 9311 613d 80fa 97bc 8d6f 3ebd af57 973b
00000190: f2d3 20bd c5cf 563c 4093 3b3c 95e3 f53c
000001a0: 0835 85bb a608 00bd 5e4e 86bc 2559 dd3c
000001b0: 6e24 72bc cb86 dd3a 41f9 523c 5518 3e3d
000001c0: 5ced 9b3c 4e75 1e3c 75fa 59bb 7e3e ef3b
000001d0: 470a 21bc eb70 3d3d deac 423d b995 2d3d
000001e0: 5f14 863d 004d 1a3d 0a44 193d e7bb 2e3c
000001f0: fd48 87bb 257b af3b cd46 c9bc 96b1 ffbb
00000200: 2781 233d d085 b2bc 8e3a 94bc 36de e63c
00000210: 2cd4 203d 146d 46bd 602f 6e3a 10f4 f83c
00000220: ca7a 2abd 910d 29bd a5b6 9bbb aeb3 2b3d
00000230: ecf4 be3a 95c2 0f3d 88bd 8bbb 294b 91bd
00000240: 9d96 30bd ed11 263c ae1e 263a 0742 6b3a
00000250: 6016 57bc df27 8f3c 3a32 d63c b43a dabc
00000260: 4b5a 34bc 7977 f53b f31d d8bb 5b44 c8bc
00000270: a3c2 033c 4ade 3cbd 9a2c 9a3c 5e95 d3bb
00000280: 2a70 8f3c ae7d 26bd 27a3 29bc 1c9f 34bd
00000290: 24be 213c e96e cc3c 0d8c 423d f77d 02bb
000002a0: 5481 42bd 7a2e 5c3c 6239 033d a88c 1bbc
000002b0: 71a8 333d 9c61 293c 95e8 98bc c6ab 113d
000002c0: 830e 823c 4c35 62bb 1373 16bc 5a48 89bb
000002d0: acb6 0a3d b9f7 a9bc ca43 7b3c ddc7 003d
000002e0: 3c8c 10bd 2949 b3bc 63fb 173d e8f4 3ebc
000002f0: 2135 33bd 71bf 33bc 5381 efbc 9012 703d
00000300: 7933 813d ff45 453d 5c9e e6bc c6a3 ad3c
00000310: d011 7abd 2e07 8b3c 8519 3cbd 6a35 bd3c
00000320: edd0 97bc 5c95 bb3c 2e04 4c3c 41d3 2ebc
00000330: 8510 f43c 3c13 9bbb 5ba5 41bb 5768 7f3c
00000340: 09c1 fe3c 1d57 793d 606f 063d 93a5 8b3c
00000350: 3718 1a3d 2ad4 f93a 2198 14bd ba11 46bd
00000360: f464 0b3d c003 70bd f242 18bc a05f 823c
00000370: 51d5 6b3d b76f 093d 556a a3bc 30cf 38b9
00000380: 1100 063c c6be 44bd 227f b53c 9e04 053d
00000390: 457c 97bc 39fb 143d 6ea2 6fbc 5025 9dbb
000003a0: c8f4 adbc 7c69 95bc 4654 08bd 93ff 62bd
000003b0: b70b 01bd b7ff 0d3d 01f5 b03b 71a8 19bb
000003c0: 288f adbb adb7 2fbc 1bdf 073d 29d9 3c3d
000003d0: f7cc 143d 4fd4 01bd b8d2 9ebb aac0 a63c
000003e0: 69f8 d23b aa29 ecbc 7e8b 68bc de10 e3bc
000003f0: 7249 7abc 2404 aebc 322d 0fbd c88e 0ebd
0.004338506 0.028676126 -0.034904692 -0.049442027 0.040752705 -0.035278197 -0.010731153 0.00037955915
0.0049079577 0.014658978 0.03523773 0.038801353 0.036595408 0.01680669 0.029275475 0.022202918
0.012872179 0.034601286 0.008288848 0.040625956 0.026224893 -0.033281997 -0.011153843 0.008542574
-0.036708195 -0.0187459 -5.180424e-05 0.020646915 -0.024200566 -0.02008535 -0.03565541 -0.03500308
-0.026177322 -0.056205895 -0.02173883 -0.022346137 -0.036422614 -0.036555704 -0.007508906 -0.0052812104
-0.038645707 -0.0070356713 0.037644632 0.020834386 0.015550085 0.03510521 -0.04151004 -0.009387353
-0.04918145 -0.030745678 0.0078110825 -0.031295154 -0.0068627866 0.0217984 0.018633721 -0.03402017
-0.05149149 -0.020235393 0.024712905 0.0025175465 0.01790104 0.025268065 -0.03995094 0.00097342813
-0.012890942 0.03497858 -0.001334284 -0.034862593 -0.016208492 -0.04351759 0.0022767656 0.04890034
-0.051166415 -0.046940174 0.036101975 0.04675562 0.041818526 -0.032224778 -0.008664485 0.027550573
0.00433883 -0.02019235 -0.025276132 -0.029335475 -0.036813248 -0.022892684 0.017741151 0.024834841
-0.056506425 -0.019438054 -0.00048013806 -0.0075218566 -0.023888592 -0.010571816 -0.018754642 0.009622283
0.0549484 -0.018552065 -0.046493102 0.004618607 -0.039264627 0.01311106 0.011448681 0.030015746
-0.0040651597 -0.031258248 -0.01639479 0.027020046 -0.014779193 0.0016901133 0.01287681 0.046409924
0.01903408 0.009671522 -0.0033260856 0.007301151 -0.0098291105 0.046250265 0.04752814 0.042379115
0.06546854 0.03767109 0.037418403 0.010664917 -0.004128574 0.005355256 -0.024569893 -0.0078031523
0.03991809 -0.021792322 -0.018094327 0.02818213 0.039264843 -0.04844387 0.0009086039 0.030389816
-0.041621007 -0.041272704 -0.0047519975 0.041919403 0.0014568842 0.035097677 -0.0042645372 -0.07094414
-0.043112386 0.01013611 0.0006336969 0.00089743774 -0.013127893 0.017475067 0.026146997 -0.02663932
-0.011007856 0.007491049 -0.006595367 -0.024446657 0.0080420105 -0.04611043 0.018820096 -0.006457015
0.017509539 -0.0406472 -0.01035384 -0.04409705 0.009871993 0.02495523 0.047496844 -0.0019911507
-0.04748662 0.013438815 0.032037146 -0.009493984 0.04386181 0.010338213 -0.018665591 0.035564207
0.01587606 -0.003451663 -0.009182709 -0.004189533 0.033865616 -0.020748006 0.015335986 0.031440604
-0.035289988 -0.021885471 0.037104975 -0.01165507 -0.04375184 -0.010970936 -0.029236471 0.058611453
0.06308646 0.048162457 -0.028151684 0.021196257 -0.061052144 0.016971197 -0.045922775 0.023096759
-0.01853224 0.022898369 0.012452168 -0.010670484 0.029793033 -0.0047325175 -0.0029548022 0.015588841
0.031097906 0.060874093 0.03282106 0.017046725 0.03762075 0.0019060422 -0.036277894 -0.04835675
0.034031823 -0.058597326 -0.009293305 0.015914738 0.05757648 0.033553805 -0.019948164 -0.00017624791
0.008178727 -0.0480335 0.022155348 0.032475106 -0.018491874 0.036372397 -0.014626129 -0.0047957078
-0.021234885 -0.018238775 -0.033283494 -0.055419516 -0.031505313 0.034667697 0.0054003005 -0.0023446346
-0.0052966066 -0.010724944 0.033171754 0.046105538 0.036328282 -0.031696614 -0.004846897 0.020355541
0.006438304 -0.02882846 -0.014193414 -0.027718004 -0.0152763 -0.021242209 -0.03495521 -0.034804136
